TCN/mnist_pixel/models/aug_k7l6.onnx (onnx, 202650 bytes, 28 tensors)

tcn.network.0.conv1.bias f4 [25]
00000000: 6ea5 3bbd 9c47 51be fae5 72be de34 c3bd
00000010: fdf1 e8bc 3070 343e 993b babe 3dbc babe
00000020: 9ace afbe 1c48 0e3e ef51 533e 54eb 453e
00000030: 14bb c23c 6fae 2d3e 55cd 733e b65f e8be
00000040: 4769 a83e e246 febd b4cb 1f3e 8a03 183d
00000050: 8d84 a8be 9dc2 35bf 60f2 07be 8d1f c93d
00000060: 35ac 8d3d
-0.045812063 -0.20437473 -0.23720542 -0.09531568 -0.028435702 0.17620921 -0.36373594 -0.3647174
-0.34337312 0.13894695 0.20636724 0.19328052 0.023770846 0.16961072 0.23808797 -0.45385522
0.3289282 -0.124158636 0.1560505 0.03711275 -0.32913628 -0.7100008 -0.13276052 0.09820471
0.069176115

tcn.network.0.conv2.bias f4 [25]
00000000: 616a 5fbd cb3e 183e ff2f 8fbd 94bc 103d
00000010: 695e 0cbe 9a28 e83d 9dbe 17bd e8a8 ca3d
00000020: b5f9 e2bd 7cef 9b3c 6d3c c53c 1a0e ff3c
00000030: 6f8a 14be c163 243e 3b9c 373c b5c2 00be
00000040: d847 063e f978 68bd ce53 913e 3559 45be
00000050: 5024 9dbd 9a50 3e3e 8a30 d53d 048a babd
00000060: dafc 80bd
-0.05454481 0.14867704 -0.069915764 0.035336092 -0.1370789 0.11335869 -0.037047017 0.098954976
-0.11082784 0.019035093 0.024076665 0.031134654 -0.14505933 0.16053678 0.011206682 -0.12574275
0.13113344 -0.056755994 0.2838425 -0.19272311 -0.07672942 0.18585435 0.10409649 -0.09108356
-0.062982276

tcn.network.0.downsample.weight f4 [25, 1, 1]
00000000: 3528 a7bc 17fc 103e 549d 64bc fbf8 563c
00000010: 29e9 0fbe 2513 84bd f755 f93a 978a 003f
00000020: 94c4 a5bb b4c4 e7bb 69f3 ab3b 68ab fa3d
00000030: a5ae 8dbe 6763 73bd 8799 6fbb b70f 01be
00000040: 9c55 b0bd cbfd 3b3a 3145 853e dfaa 9bbd
00000050: 8e0f 00bb 493d 97bd 7c21 c7bd d158 27bd
00000060: af4e c43b
-0.020404914 0.14158665 -0.013953526 0.013120885 -0.14053787 -0.06448964 0.0019022812 0.5021147
-0.0050588343 -0.0070730094 0.0052475226 0.122397244 -0.27672306 -0.05942097 -0.0036560015 -0.12603651
-0.08610079 0.0007171302 0.2602935 -0.076009504 -0.0019540521 -0.07384736 -0.097231835 -0.040856186
0.005990825

tcn.network.0.downsample.bias f4 [25]
00000000: 253a 1fbf 5dfe 773d 4894 4ebc 10ad 31bf
00000010: 6dfa c3bd dff6 35bf 1ec1 60bc 4a9f 5a3e
00000020: 9162 91bb a800 dcbd 3e9e 94be f8f6 0e3d
00000030: b10c d03e 70fd 9b3c d8cf 28be e549 e93d
00000040: 658b 37bd 8a15 51bf 7f27 e73d 6285 31bd
00000050: 1b55 0cbc 6be6 8ebd 4e5c 07bf 909e 1abf
00000060: 38b9 6dbf
-0.62198097 0.060545314 -0.012608595 -0.694047 -0.09569249 -0.7107982 -0.013717918 0.21349826
-0.004436799 -0.10742313 -0.2902698 0.034903497 0.40634683 0.019041747 -0.16485536 0.113910474
-0.04481067 -0.8167349 0.1128683 -0.043340094 -0.008565213 -0.069775425 -0.5287522 -0.603982
-0.92860746

tcn.network.1.conv1.bias f4 [25]
00000000: b6fc 06bc a1ab a7bd 09ef 90bd 890a 37ba
00000010: 179e aebd 7a31 8d3d 9c62 0bbc 67df 37bd
00000020: 7124 a9bd 8c61 88bd 9ad2 333c 2885 b93c
00000030: 2672 15be 0335 bcbd 0a22 3ebc 59ca aabd
00000040: 8b27 b6bc d2a3 59bd cb94 55bd f3c3 673e
00000050: df7c 833a 1200 d1bd 678c 9fbc bcac 63bd
00000060: 412c 2e3e
-0.008238962 -0.081870325 -0.07076842 -0.0006982466 -0.08526247 0.068942025 -0.008507397 -0.044890787
-0.08258904 -0.066592306 0.010975504 0.022646502 -0.14594325 -0.09189799 -0.011604795 -0.08339376
-0.022235652 -0.053134747 -0.052143853 0.22633342 0.0010031721 -0.102050915 -0.019476129 -0.055584654
0.17009069

tcn.network.1.conv2.bias f4 [25]
00000000: b6b3 90bd 1576 20bd cf01 b6bd 195c f0bd
00000010: 7d24 c83d 5af7 9dbd d9f5 a4bd 1840 71bd
00000020: f264 c2bd 6d06 62bd 0448 dd3e f545 8abd
00000030: 12ff 36bd 60ba 82bd a369 503d 569b 88bd
00000040: ee2d 23bd d415 30bd 489f 3f3c 0120 7d3d
00000050: 1549 3fba 10de 5abc 7c1c f5bb fc2e 84bb
00000060: cc00 a2bd
-0.07065527 -0.03917511 -0.08887064 -0.11736316 0.097725846 -0.07713194 -0.08054704 -0.058899015
-0.0949191 -0.05518191 0.43219006 -0.067516245 -0.044676848 -0.063832045 0.050881993 -0.06670253
-0.039838724 -0.042989567 0.01169569 0.0617981 -0.0007296962 -0.013358608 -0.0074802022 -0.0040339213
-0.07910308

tcn.network.2.conv1.bias f4 [25]
00000000: 4ad9 08bd fd84 7fbe 068a 93bd bf5f 06bd
00000010: 301f e4bd b09d 243b d942 adbd 7c13 ddbd
00000020: 0613 f03c c478 d3bd 2063 10be f257 5cbd
00000030: 87a1 0e3e 0763 543d 6ee8 4abd 70c0 b6bd
00000040: 2540 303c 7cff 69bd 6977 9fbd c07a 353c
00000050: 3f06 243d bcb0 103e 7f84 943d fe54 13be
00000060: d2c1 903c
-0.033410348 -0.24953075 -0.0720406 -0.032806154 -0.11138761 0.0025118403 -0.08460016 -0.10794732
0.029305946 -0.103257686 -0.14100313 -0.05379481 0.13928805 0.051852252 -0.04953807 -0.08923423
0.010757481 -0.057128415 -0.077864476 0.011076629 0.04004502 0.14129919 0.07251834 -0.1438789
0.017670546

tcn.network.2.conv2.bias f4 [25]
00000000: e004 7c3e 8d91 aebd 38aa 023f 756f 83bd
00000010: 73d0 07bd 8604 06bd e4a5 af3d b14c 25bd
00000020: 3a12 4b3e ad82 373d f1fa c7bd ae61 243e
00000030: b86c 09bc 3410 003e bd66 de3d 4c77 16be
00000040: 4367 a8bd 9606 52bd 0095 39be 1838 773e
00000050: ac15 dbbd a4f9 a7bd 7096 dfbc 9378 2dbe
00000060: 96a7 acbd
0.24611235 -0.08523855 0.51040983 -0.06417743 -0.033157777 -0.032719158 0.08576563 -0.04035634
0.19831172 0.044802357 -0.0976466 0.16052887 -0.008387737 0.12506181 0.108594395 -0.14693946
-0.082228206 -0.051275812 -0.18123245 0.24142492 -0.10697493 -0.08201912 -0.027293414 -0.16940527
-0.08430402

tcn.network.3.conv1.bias f4 [25]
00000000: 4cab 8abc 05d0 293d b80b ccbc a1ab d1bd
00000010: 8871 e53c f56a 753d 0bca 93bd 70d2 023e
00000020: c44e 523d 2846 68bb 75e4 65bd 6362 7f3d
00000030: 3dcd 133d a9d5 c5bd cb9e c63d ac7d 76bd
00000040: 0a15 4b3c 9613 d0bd 2132 a03d 8034 003c
00000050: 3cc3 cc3d cb29 22be bda4 4bbd db9e 4f3d
00000060: 54c9 0f3e
-0.016927384 0.04145815 -0.024907932 -0.10237814 0.028008237 0.059916455 -0.07216271 0.12775588
0.051344648 -0.0035442207 -0.056126077 0.06234969 0.036084402 -0.09659893 0.09698256 -0.060178444
0.012395153 -0.10159986 0.07822061 0.007825017 0.099981755 -0.15836255 -0.049717654 0.050688606
0.14041644

tcn.network.3.conv2.bias f4 [25]
00000000: 0993 d2bb fa3f e53c 982a 9abd 37ea 0cbe
00000010: c54f 223d 6f87 bbba 5eec 68bd f9d9 ffbc
00000020: 518f 633e 38b7 bbbd fb46 0e3e 2f98 a93e
00000030: e928 13be 6d07 de3e 90f2 a13d 2850 003e
00000040: d35d ddbd e657 c4bd bf16 ebbc 3681 0e3e
00000050: 5686 1b3e 0c44 873e 6aff e0bd 37d5 573e
00000060: da45 89bd
-0.0064262194 0.027984608 -0.07527655 -0.13761221 0.039626855 -0.001430733 -0.056866042 -0.031231867
0.2222264 -0.091658056 0.13894264 0.3312392 -0.14371075 0.4336504 0.07907593 0.12530577
-0.10808911 -0.09587078 -0.02869737 0.13916478 0.15187964 0.26419103 -0.10986216 0.21077429
-0.06702776

tcn.network.4.conv1.bias f4 [25]
00000000: 13d4 88bd 5c8c 9c3d 6646 d83c 30c6 77bd
00000010: f9a4 4e3d d4d3 253d 0164 18be e55b 91bd
00000020: e6b4 e6bc d6d1 20bd 30c1 3ebd 0d94 08be
00000030: d998 31bd 180f 4ebd 3378 9abd 8e1e a9bd
00000040: 3f41 993e c623 4bbd 7a7c 48bd d74e ddbc
00000050: 896a cdbd ca94 5c3d 5773 843d 9588 8abd
00000060: 4e79 0d3d
-0.06681075 0.07643959 0.026400756 -0.06049174 0.0504503 0.04048522 -0.14881898 -0.070976056
-0.028162431 -0.039262615 -0.046570957 -0.13337727 -0.043358658 -0.050307363 -0.075424574 -0.08257781
0.2993259 -0.049594663 -0.048946835 -0.027015133 -0.100300856 0.053852834 0.06467312 -0.06764332
0.034539513

tcn.network.4.conv2.bias f4 [25]
00000000: 1ff0 e2be a24d 56bd a003 e53d 4268 b43e
00000010: 058f 003d 0f35 b1bd 574e 9c3e abac be3e
00000020: 9f71 0fbe 1e5c 4abe 5a70 b83d 637d b43d
00000030: 83f4 e43e f0b8 16be b67a fabd 64c0 96bd
00000040: 322f ed3d ef6b 54bd 2a1e 0b3f 05d8 b53d
00000050: 0310 bfbd 6d17 073f 7423 dabd 4a57 3d3f
00000060: c0b0 923f
-0.44323823 -0.05232013 0.11182332 0.35235792 0.031386394 -0.08652698 0.3052852 0.3724111
-0.14008187 -0.19761702 0.09005804 0.08812978 0.44717798 -0.14718986 -0.122304365 -0.07360914
0.115812674 -0.051860746 0.543429 0.08879093 -0.09329226 0.5277012 -0.106512934 0.7396132
1.146019

tcn.network.5.conv1.bias f4 [25]
00000000: 61c5 afbd 9685 de3c 642f adbd c922 593e
00000010: 9580 0f3d 0f64 01bc 400c 893e 77b5 f7bd
00000020: b828 39bd d8df e93c 44a3 a23b b2c4 a4bc
00000030: c915 2a3c daca 4ebd 35be 5dbc 6dc1 093e
00000040: 216c 7dbe cd01 293b 43a9 ef3d dcde 9abd
00000050: c104 003d 45cd 303c bf01 b7bd 3bd9 5abd
00000060: e05b 173e
-0.08582569 0.027163308 -0.08456305 0.21204676 0.035034735 -0.007897391 0.26767159 -0.120951585
-0.045204848 0.02854912 0.0049633104 -0.020113323 0.010381171 -0.050486423 -0.013534118 0.13452692
-0.24748279 0.0025788427 0.11702206 -0.07562038 0.031254534 0.010791128 -0.0893588 -0.053429823
0.14781141

tcn.network.5.conv2.bias f4 [25]
00000000: 86e7 953e e644 363e a16c 143d 3f3e 79bd
00000010: 1f05 a53e b376 9b3d 15b0 bf3e d646 c3bd
00000020: 8d45 2b3f 2610 0dbd 9967 01be 8800 033e
00000030: 2e46 b73e 1ac1 273e bd16 08be 3eef 033f
00000040: 321e 083d 4750 0d3e 6e5a dabc b087 6ebd
00000050: 3c7a 003f 0adc ee3e d034 c53e ede4 1dbd
00000060: caae cfbe
0.292782 0.1779972 0.03623641 -0.060850378 0.3223047 0.075909995 0.37439027 -0.09534995
0.66903 -0.03443923 -0.12637176 0.12793171 0.3579573 0.16382256 -0.13289924 0.5153693
0.03323192 0.13800155 -0.026654448 -0.05823487 0.50186515 0.4665225 0.38516855 -0.0385484
-0.4056304

linear.weight f4 [10, 25]
00000000: 4144 d1be fadd a2be 4b90 a23e 5f85 07bf
00000010: f8d2 c73e 210f 51bd 4c8a 0abe f32d d33e
00000020: 0f98 99bd 4e5a d2be 7442 f83d 1f61 0cbe
00000030: 9453 d4bd b3c8 8e3d 2292 f6bc f687 ca3c
00000040: a964 febd ae76 04bf 5f5a 753e 2bdd d2be
00000050: f18b 683e b7de ebbe 6f30 14be 79c2 fcbd
00000060: 834e 863e eab9 7fbd 2464 173d 8120 95be
00000070: da3b c6be 0f5b 84bd 114a 8c3d 9427 96be
00000080: 23bf 6ebd bf8a 273e eb0e 4a3d d914 cdbe
00000090: f39f 643e 9354 163e cd33 93bd 565a 56be
000000a0: 9789 1b3e 53f1 383e 6aa2 5fbe 953b 203c
000000b0: 9957 f73e 0d4e 4ebc a274 443e 0350 94be
000000c0: ff3f 5c3e 1af2 59bf 10c2 3b3d 13b2 2c3e
000000d0: a90d ec3d 0bfc 5bbe 15db 03bd a6ff d5bd
000000e0: 6802 733d 2298 ee3d 8f7e b2be ee07 d93d
000000f0: 5452 0a3e 39a0 933e 9681 c7bd be51 abbe
00000100: 13da 443e 212b 4b3c 6960 1ebd e849 a8bd
00000110: 6528 593d 3aff 8bbc b297 0bbe 5a0f 97bb
00000120: 6f3d 55be 6581 583e 391b 41be 99c2 6c3e
00000130: 934e 053e b348 48be 8af6 c9bd a747 26bd
00000140: 0de2 71be ed93 7fbe 2e11 d6bc 2041 9fbe
00000150: 709f 72bb 35fc 053e 798d e6bd 7a59 493e
00000160: 4dd9 85be ec9e c03d 64c4 59bd d2ba c33d
00000170: cd75 0c3e 5e4e 463b 1fb4 afba 65dc 82bd
00000180: 8a13 6d3e 67db 393e 13fb b0be ef92 c6be
00000190: a997 aa3e 7274 ddbe fc81 10bd 7c34 f2be
000001a0: a737 373e 56fa 1a3e 5a8c a33e a205 7c3e
000001b0: 5838 403e ba3a e23d b838 06bf 7f16 67be
000001c0: 88a4 86be 6156 1b3e 58ec 4e3d 58de 3b3e
000001d0: 6f12 c03d 3c0e 383d c363 17be b41a f53d
000001e0: 5c05 c3be a588 f9bd 1940 8dbe 1032 5abc
000001f0: 15e2 f53d ec4b 813d 1805 12bd ec26 37be
00000200: b678 5e3e c318 c1bd 1b57 e63d 0438 07bf
00000210: 5090 c8bc aa6a 333e 3b7e aa3b 3a13 ac3d
00000220: 0652 5ebe 58bb 043e a4e2 ce3d cbd6 733b
00000230: 30a3 3ebe cc8e ef3b 2c84 833d 5693 793c
00000240: 52bc c2bd 44ed 4e3e a950 04be 64e9 3cbd
00000250: 2a2c f8be 4f91 a0be bea4 b6be d763 dfbe
00000260: 52cc e83c 28b3 9c3e 8c61 9d3d d500 0f3e
00000270: 9360 87be 4e46 813e 7385 b03e 17f4 b2be
00000280: 3ade 70bd bffc 8c3a aca2 8a3e 3314 86be
00000290: 6341 193e c5d7 743e 31b3 16be ca3e f8be
000002a0: d51e 2c3e 9f6d 16bf b8e7 30bd 6d0c 9ebe
000002b0: e8fd 7abe 36a3 1a3e 7a54 5fbd 4e9e fdbb
000002c0: 4b4f 553e 6ae4 21bd 35fa 1bbf 0956 9c3d
000002d0: a779 ec3d 0218 c6be 45b9 b5be 1952 01bf
000002e0: fca8 453e effc bc3d e1c1 823e c709 5bbe
000002f0: a5df 543e f9d2 15be b2b5 97be e326 0fbd
00000300: 7c13 583d aed3 82be bf2a 763e 7bb2 07bf
00000310: 776d 873d 0a02 c3bc 8b6e 283e c39a 133e
00000320: fef7 34be 59d5 4a3d 75fd 243e e4e6 003e
00000330: c6a8 c6bd ed16 c63d a52a 873e 64bc a8bd
00000340: 474b f53c fcbe c0be b719 3b3c c196 b3be
00000350: 0813 883e 22c9 7cbe c76b 24be 1a60 c7bd
00000360: b1d3 b8bd cb7f 83be 3505 263d e164 2bbf
00000370: c691 823c db4b 5b3e b108 5a3e 434d 073f
00000380: 04f3 423e a1bf 9f3e ac14 05be 6765 a2bd
00000390: 8feb 10be 47c0 9bbc 031e 81be 75a7 7c3e
000003a0: b992 953d a5e5 26be 4482 473e d70b 95bd
000003b0: 3fcd 05bf 2eb0 6bbe dc2d 9c3e f72e 06be
000003c0: 4611 d3be 31b1 d43d 2fb3 863d ae59 2fbe
000003d0: a194 863e 0e9d 60ba 57dc 80bc 6ea3 833e
000003e0: bf84 fdbd 9fb5 233e
-0.40872386 -0.3180998 0.31750712 -0.52937883 0.39028144 -0.05103982 -0.13529319 0.41245994
-0.07499706 -0.41084522 0.1212205 -0.13708924 -0.10367504 0.06971874 -0.030098978 0.024723034
-0.12421543 -0.5174359 0.23960255 -0.41184363 0.22709633 -0.46068355 -0.14471601 -0.1234178
0.26231775 -0.06243316 0.036960736 -0.2912636 -0.38717538 -0.064626805 0.068500645 -0.2932707
-0.05828775 0.16361521 0.049330633 -0.40054968 0.22326641 0.146807 -0.071876146 -0.20932898
0.15189205 0.18060808 -0.218393 0.00977983 0.4830902 -0.012591851 0.19185117 -0.28967294
0.21508788 -0.8513504 0.04583937 0.16864805 0.11526043 -0.21482866 -0.032191355 -0.10449152
0.059328467 0.11650111 -0.34862182 0.105972156 0.13507968 0.28833178 -0.097415134 -0.33460802
0.19223814 0.012400419 -0.038666163 -0.082172215 0.05301704 -0.017089475 -0.13632086 -0.0046099843
-0.20824216 0.2114311 -0.18858041 0.23121108 0.13018255 -0.19558983 -0.09861477 -0.040595677
-0.23621388 -0.24958773 -0.026131239 -0.31104374 -0.0037021302 0.1308449 -0.112574525 0.19663039
-0.2614235 0.09405312 -0.05316581 0.095571175 0.13716812 0.0030259113 -0.0013405121 -0.06389693
0.23151985 0.18150102 -0.34566554 -0.38783976 0.33318833 -0.43252903 -0.035280213 -0.47305667
0.17892323 0.15134558 0.31943017 0.24611524 0.18771493 0.110463575 -0.52430296 -0.22567175
-0.26297402 0.1516967 0.050518364 0.18346536 0.09378516 0.04493545 -0.1478415 0.11967984
-0.38090026 -0.12184266 -0.27587965 -0.0133176 0.12006012 0.06313309 -0.03564939 -0.17885941
0.21725735 -0.09428551 0.11247083 -0.5281985 -0.024482876 0.17521158 0.005203036 0.08402105
-0.21710977 0.12962091 0.10101822 0.0037206884 -0.18616939 0.007310724 0.06421694 0.0152328815
-0.095085755 0.20207697 -0.12921394 -0.046121016 -0.48471195 -0.31360862 -0.35672563 -0.4363086
0.02841774 0.30605435 0.07684621 0.13965161 -0.26440868 0.2524895 0.34476814 -0.3495185
-0.05880568 0.0010756477 0.27077234 -0.26187286 0.1496635 0.23910435 -0.14716794 -0.48485404
0.16808636 -0.5876102 -0.043189734 -0.30868855 -0.2451092 0.15101323 -0.054523923 -0.0077398187
0.20831029 -0.039524473 -0.6092866 0.076335974 0.11546641 -0.38690192 -0.35492912 -0.50515896
0.19302744 0.09227931 0.25538543 -0.21390449 0.20788439 -0.14631261 -0.2963081 -0.034949195
0.052752957 -0.25552124 0.24039744 -0.53006715 0.06612676 -0.023804683 0.16448419 0.14414506
-0.17672727 0.04951987 0.16112311 0.12588078 -0.0970016 0.096723415 0.26399723 -0.08239058
0.029943122 -0.3764571 0.011419705 -0.35075954 0.2657702 -0.24686101 -0.16056739 -0.09735127
-0.09024752 -0.25683436 0.04053231 -0.66950804 0.01593865 0.21415655 0.21292378 0.5285227
0.19038016 0.3120089 -0.12996167 -0.07929497 -0.14152358 -0.019012583 -0.2521821 0.24673255
0.07303376 -0.1629854 0.19483286 -0.07277649 -0.52266306 -0.23016426 0.30503738 -0.13103853
-0.41224116 0.10385359 0.06577145 -0.17124054 0.2628527 -0.0008568325 -0.015730066 0.25710624
-0.12378835 0.15987252

linear.bias f4 [10]
00000000: da1b 693e b0d7 2b3f 4307 76be bbf5 b3be
00000010: 51d9 9bbd 380b 393e eb77 51bd fe5c 9cbe
00000020: 50f3 ee3e 06be 733e
0.22764531 0.6712599 -0.24026208 -0.35148415 -0.07609809 0.18070686 -0.051139753 -0.30539697
0.46670008 0.23802957

180 f4 [25, 1, 7]
00000000: a004 46bc b72e 873e a4cf 4cbe 1346 c9be
00000010: d0ee 9a3c de91 943e f2b9 4f3d 6277 e4be
00000020: 43ff 053f abf3 ad3e bd63 abbe 00c2 83be
00000030: ee43 5b3d edce 443e 7c13 983e cbf4 5e3e
00000040: 2d36 41be 387b 53be 8c78 c3be 034a cbbe
00000050: a211 cd3d 8168 09bf 152d 823d 66da a03d
00000060: ed97 5a3e 3f60 a63d 946c 983d 2fdf 1abf
00000070: eb9b 593c 4155 20bd 72f4 ad3e ad53 99be
00000080: c2f2 fabe d7ce ef3e 9be2 cb3c dd08 ccbe
00000090: 4486 1ebe 69f2 39be 566e 52be d59e 75be
000000a0: 524d 27be 007d 723e 703c 03be 411b 873e
000000b0: a664 b83e fa49 0cbf b1ad eebe c827 1d3f
000000c0: 6458 053d 67e8 c23e 95ff 37be 35ad e0be
000000d0: acee a13d 623c a13e e05b a9be 5232 b73e
000000e0: dd3d 95be 1b86 653e a808 063f a70f 70be
000000f0: ae0a 03bf 2268 7a3c 09f6 a23e a8e5 0a3d
00000100: 10d4 29bd a742 4abe 3a55 7c3e c2ea d5bc
00000110: c1cc 443e 8f9a 433e 4d26 73be d1c2 773e
00000120: da1a ea3d 8a1a 1bbe e337 ea3d a0eb 903d
00000130: f894 db3e 8f90 4e3c 52cf c83c 1b73 dc3c
00000140: 6db5 203c 6027 413e c463 f63d d531 a03d
00000150: d7c0 0dbf 8b85 47be 19a3 153e 2974 a63e
00000160: 4ddd b93e bdc9 29be 1a20 02bf 7b36 e4be
00000170: b21d 863c ee88 c5bc 2329 81bd 06d7 013d
00000180: cb42 43bd d721 bbbe b43f e7bb 9048 82be
00000190: 8174 863e 3fd4 363d 58d5 acbd 5ac4 a33e
000001a0: edf6 8b3e f991 f73e 08d4 4a3c 5f58 7d3e
000001b0: 562a 74be c824 09be 32eb a6bd 4e09 a6be
000001c0: ca44 ff3e 98cb 5b3d a8ba 503e 04ae 53bd
000001d0: 6c8a 14bb 59e1 5a3e 5fc2 5dbe 29c2 c9be
000001e0: 9484 6fbe e81b e2bd d9e3 433e 4225 723e
000001f0: fda4 963e 28f4 70bd f122 c83e 0ffa 773d
00000200: bf49 e7be 29b0 a83e cc1f 863e 7b3a e1be
00000210: bc9b 5b3e 32dd 933e e0fc 823e 1999 823e
00000220: 9323 cd3c 0d34 e63d 745b b6bc 0240 903d
00000230: 0166 d93e 8442 ac3d 6cbc 993e f95a f338
00000240: aba4 00be 5cbd 76be 1496 64be d1cd 7bbe
00000250: a7ac 6e3e d925 e33e d8ea d43d 8adc c5bd
00000260: 32af 8abe 9665 b9be e5a3 01bd 4b95 94bd
00000270: 3558 efbe 737f 903d f7b6 2d3f db45 683c
00000280: 341c f7be 288f 62be d2cc 343e a192 953e
00000290: 89f2 8ebe bf37 31bf 66af 103f e16c 433d
000002a0: c0d3 d63e cd36 bfbe 175c b6bb 5365 623e
000002b0: b64e 5c3e 072a 83be 8cab a73e
-0.012086064 0.26402828 -0.20001084 -0.39311275 0.018912703 0.29017538 0.05071444 -0.44622332
0.52342623 0.33974966 -0.33474532 -0.25733948 0.05353158 0.19219561 0.29702365 0.21773069
-0.18868323 -0.20652473 -0.38177907 -0.39704904 0.10013129 -0.53675085 0.06356255 0.07854156
0.21347018 0.08123826 0.07442585 -0.604968 0.013281803 -0.039143804 0.3397556 -0.29946652
-0.49013335 0.46837494 0.024888327 -0.39850512 -0.15480906 -0.18158878 -0.20549902 -0.23986371
-0.16338089 0.23680496 -0.12816024 0.2638798 0.3601429 -0.5480038 -0.4661689 0.61388826
0.032555 0.38067934 -0.1796859 -0.43882146 0.07906851 0.3149138 -0.33077908 0.3578058
-0.2914876 0.22414438 0.5235696 -0.23443471 -0.5118817 0.015283616 0.31828335 0.033910424
-0.041462004 -0.19751988 0.24641886 -0.026112918 0.19218732 0.19101928 -0.2374508 0.2419541
0.11430903 -0.15146843 0.11436441 0.07076192 0.42887092 0.012607708 0.02451292 0.026910355
0.00980888 0.18862677 0.120307475 0.07822005 -0.55372375 -0.19484536 0.14612998 0.32510498
0.36301652 -0.16580863 -0.50830233 -0.44572815 0.016371582 -0.024113145 -0.06306674 0.031699203
-0.04767112 -0.36549255 -0.0070571546 -0.25445986 0.2626076 0.044636007 -0.084391296 0.31985742
0.27336827 0.48353556 0.012379654 0.24740742 -0.23844275 -0.13392937 -0.08150329 -0.32428974
0.4985717 0.05366096 0.20383704 -0.051679626 -0.0022665514 0.21375026 -0.21656178 -0.39405945
-0.23390418 -0.11040479 0.19129886 0.23647025 0.2942275 -0.058826596 0.39089158 0.06054121
-0.4517345 0.329469 0.26196134 -0.4398993 0.21446127 0.28879696 0.25583553 0.2550743
0.025041377 0.11240397 -0.022260405 0.070434585 0.42460635 0.08411124 0.30026567 0.00011604088
-0.12562816 -0.24095672 -0.22322875 -0.24590231 0.23308049 0.44364813 0.103963554 -0.09661205
-0.27086788 -0.36210316 -0.031650443 -0.07255038 -0.46746984 0.07055559 0.6785731 0.014176811
-0.48263705 -0.22124922 0.17656258 0.2921343 -0.27919415 -0.69225687 0.56517637 0.047711257
0.41958427 -0.37346497 -0.005565177 0.22108965 0.21514401 -0.25618002 0.32748067

183 f4 [25, 25, 7]
00000000: 131a 74bd 057e 9fbd 25a0 53bc a5a6 5ebc
00000010: 4996 3dba b334 9dbc b290 973c cea0 f0bb
00000020: 10ef 9abc b424 27bd 952e 90bd 4c3d 513c
00000030: cdad d6bb 2b99 6abc baa9 38bd 4955 33bd
00000040: 8da4 0d3d 1153 933c f35e 8fbc dcef a5bb
00000050: 94e4 acbc 51cb 833a 7a62 1abd 84e8 833d
00000060: abca 4ebd 4764 853c 07db 133d 4740 22bd
00000070: ab29 56bd cebd 913d c5c2 873d d3a0 a23d
00000080: 4ef5 51bd 045f 143d 9ce0 88bd 009f 8ebd
00000090: 88dd 70bd e06e 903d 0798 8ebd 7b1c aebc
000000a0: 1345 dd3c 6769 03bd 2515 e1bc 9583 5abd
000000b0: ab42 9f3c 0c45 db3c c4e1 313d 45bb 883b
000000c0: 7c0a 3fbd 0016 823d 74db d43c c706 d3bc
000000d0: e276 7c3c fa9c fb3b 8b4e 64bd a643 98bb
000000e0: f206 a43b 8d04 483d ab55 79ba c67f 8b3c
000000f0: fef3 3ebd 8ec1 5cbd 637e 4f3d ce54 dabb
00000100: 6555 7cbd e3ad e0bb 314b 663d 2173 c33b
00000110: 4922 673c 467f b43c c7a3 37bd 2006 24bd
00000120: 9e99 b2bc 4a66 2d3d 1a74 24bd 1bc6 1cbd
00000130: c033 00bc 8239 acbd cecc 30bd 4078 14bd
00000140: 07c5 0a3b f122 bc3c f3a2 9f3c f1ee 7bbd
00000150: 1452 a53c fd5e eebc 7252 55bd 8195 60bd
00000160: 1367 98bc 735c c83c 8732 0bbd f3a6 a33d
00000170: 6132 bcbc 2c8f 37bd 5041 74bd cdaf 29bd
00000180: 7588 a9bc 9822 ccbc 503d a5bd d24e 8ebd
00000190: a584 40bd e58d 2bbd 31f4 ffbb fd87 09bd
000001a0: 63b3 a0bb ccdb 493d b834 b1bc 5344 0c3d
000001b0: 2ba4 74bd 9ed1 3dbd fdab 68bd 4566 7bbd
000001c0: 824c 423b ac3a 4bbd 6004 49bc ca97 78bd
000001d0: ca28 acbc ae6a 43bd 0f6b 05bd 552e 94bd
000001e0: b881 46bc 9524 27bd acac 243d 837f 483d
000001f0: 420e 863d bca0 933a 71dc 923c 0b8d 33bc
00000200: 275e 393b a6bf debc 0bac 08bd 5225 89bd
00000210: ec83 513c c4a8 84bd e473 89bc 529a 8e3c
00000220: b02a 19bd b224 983b 4798 64bd 1884 833c
00000230: 878f e9bc 0c26 d7bc 1519 06bd adc6 80bd
00000240: 7bbf 38bd 87f9 ddbc a386 0ebc be17 183d
00000250: fede 163d 21ee 5ebd 37ad b3bb b61e a7ba
00000260: f9e6 9d3d d27d eabb 882b 81bb 726c 32bd
00000270: 7072 09bd 6673 0fbc 3615 f3bc 02c5 9d3c
00000280: 9d02 dcbb 980b aa3a b224 2d3d 27c1 fa3a
00000290: 82af 4fbd 023b da3b f9e0 21bc 585b 2c3c
000002a0: 1e3d 853c 0d47 69bd 042d 2a3c 7765 3ebc
000002b0: c6f0 75bc 7541 2b3b 7a14 3dbd 0ca5 c43c
000002c0: ad66 ca3c 2163 2bbc 564f 87bc dcf4 78bb
000002d0: f638 933c ee1f 40bc 8b73 fb3b e97c be39
000002e0: f30a 97bc 08d4 10bd c445 d4bc 89a6 d5bc
000002f0: 7b07 f5bc 4752 81bd f467 70bd edc5 7ebd
00000300: 3231 acbc 92a7 a0bc e898 a03c 267c a8ba
00000310: e069 acbc a950 14bd d9e1 6ebd 3535 9cbd
00000320: 70b0 82bd 5568 abbd 88b2 84bd 3a0d 1d3d
00000330: 1e16 7dbc b135 013c c7b9 17bd 9197 10bc
00000340: 6568 0b3c ff02 debc ab11 b03d 1d88 a03d
00000350: 2a7a 843d d621 613d 2d40 b43a f514 09bd
00000360: 646e 4fbd 5d34 903c 523e 0ebd a061 27bd
00000370: 7d5e 8abd 5e78 11bd 0274 1cbd 41cf 06bd
00000380: 0055 82bd 08bc 0fbd 75ce 31bd 8a39 39bd
00000390: aef1 88bd c6c5 38bd eb3f 84bd 834b c5b9
000003a0: 0f82 37bd 09bc 5fbd 2c90 84bd b771 1bbd
000003b0: 5f73 3abd 228e 41bd 4c0e 023d b350 0e3d
000003c0: 5440 d63c 6d57 443d ea33 993c 164e 803c
000003d0: c431 503c f35d 9c3c 1d19 393c 3a8b aa3b
000003e0: 2338 0a3d d124 743c 56b0 be3c 9d50 953b
000003f0: 9c6a 893c 5561 2f3d 73ae 203d 9423 793d
-0.05959518 -0.07787708 -0.012916599 -0.013589536 -0.0007232172 -0.019190168 0.018501613 -0.007343388
-0.018912822 -0.040806487 -0.07040135 0.012770962 -0.0065514804 -0.014318745 -0.04508374 -0.043782506
0.034580756 0.017983945 -0.01750133 -0.005063994 -0.021105088 0.00100551 -0.03769157 0.06440833
-0.050486248 0.016283168 0.036097553 -0.03961208 -0.05228583 0.071162805 0.06628946 0.07940831
-0.05125933 0.036223426 -0.06683466 -0.069639206 -0.05880502 0.07052398 -0.06962591 -0.021253815
0.027010476 -0.03208294 -0.027475903 -0.053348143 0.01944097 0.026766323 0.043428198 0.004172715
-0.046640858 0.063518524 0.02598355 -0.025760068 0.015409203 0.007678625 -0.055738967 -0.004646736
0.0050057108 0.048832465 -0.0009511362 0.0170287 -0.046619408 -0.053895526 0.05065764 -0.0066629415
-0.061604876 -0.0068566664 0.056224052 0.005964652 0.014107295 0.022033345 -0.044833925 -0.040044904
-0.021801766 0.04233388 -0.040149786 -0.038274866 -0.007824838 -0.08409406 -0.043164067 -0.03624749
0.0021174566 0.02296588 0.01948688 -0.06150717 0.02018074 -0.029098028 -0.05208058 -0.054830078
-0.018603837 0.024458146 -0.033983734 0.079908274 -0.022973241 -0.044814274 -0.0596326 -0.041427422
-0.02069495 -0.02491884 -0.08068335 -0.069486275 -0.0470015 -0.041883368 -0.0078110923 -0.033576954
-0.004904197 0.04928188 -0.021631584 0.034244847 -0.059726875 -0.046342485 -0.056804646 -0.06137683
0.0029647653 -0.0496165 -0.0122691095 -0.060691632 -0.021015543 -0.04770916 -0.032572802 -0.072354
-0.012115888 -0.04080637 0.040203735 0.04894973 0.06545688 0.0011263113 0.01792738 -0.01095892
0.002828488 -0.027190994 -0.033367198 -0.066965714 0.0127878 -0.06477502 -0.016778894 0.01740757
-0.037394226 0.0046430463 -0.055809285 0.016054198 -0.028510822 -0.02626326 -0.032738764 -0.062878944
-0.045104485 -0.027096523 -0.008699092 0.037132017 0.036833756 -0.054426316 -0.0054832953 -0.0012750241
0.0771007 -0.007156112 -0.003941957 -0.043560453 -0.0335564 -0.0087555405 -0.0296732 0.01925898
-0.0067141787 0.0012973426 0.042271324 0.001913105 -0.050704487 0.0066598663 -0.009880298 0.010519825
0.016264495 -0.056952525 0.010386709 -0.011620871 -0.015011018 0.0026131545 -0.046162106 0.024004482
0.024707163 -0.010460646 -0.016517323 -0.0037987744 0.017971497 -0.011726363 0.007673686 0.0003633269
-0.018437838 -0.03535846 -0.025912173 -0.026080387 -0.029910794 -0.06314521 -0.058692887 -0.062200475
-0.021019552 -0.019611154 0.019604161 -0.0012854382 -0.021046579 -0.036209736 -0.058320854 -0.07627336
-0.06381309 -0.08369509 -0.06479365 0.038342692 -0.015447168 0.007886336 -0.037042405 -0.008825199
0.008508776 -0.027101038 0.0859712 0.078384615 0.064686134 0.05496391 0.0013752036 -0.03346725
-0.050642386 0.017603094 -0.034727402 -0.040864587 -0.067563035 -0.03551518 -0.03819657 -0.032912496
-0.06363869 -0.03509143 -0.043409783 -0.04522089 -0.06686722 -0.045110486 -0.06457504 -0.0003763103
-0.044801768 -0.054622684 -0.06472811 -0.037950244 -0.045520183 -0.04725469 0.031751916 0.03474493
0.02615372 0.04793494 0.018701512 0.015662234 0.012707178 0.019087767 0.011297491 0.0052045854
0.033744942 0.014901356 0.023277443 0.004556729 0.016774468 0.042817432 0.039228868 0.060824946

186 f4 [25, 25, 7]
00000000: 654c 06bd e6a9 05bd a0e5 8e3d 5558 253d
00000010: 5720 e73c 05a0 59bc b1ff 303d f477 423d
00000020: ed98 193d 618f 3fbc 5f70 5bbd 1207 7ebd
00000030: ba64 53bd c7dc 82bd 54ae d93c f1c8 d43c
00000040: d6c0 4fbd 936e 71bd 79cc f33c c206 573c
00000050: 7dc3 21bc 4e8d 75bc b707 3cbc 57c8 153d
00000060: f6bd 5cbd 09f0 07bd 70b4 813d 294d 1ebd
00000070: e7b7 3bbb 5af6 933d eb02 8d3d ae9f 6fbc
00000080: 31a5 33bc 0df2 383c d4e6 33bd 3024 4abd
00000090: 5104 b9bb 7ff0 a73c 96c7 9b3c 1e2c 57bd
000000a0: 2a07 8ebd 9d86 f4bc 1c97 ebbc 976f 0b3c
000000b0: d253 67bd 800a 0ebd 260c 1b3c 3c45 78bb
000000c0: fd96 e73a 4a63 e2bd 2d48 293d 3dd9 6ebd
000000d0: 978c c13c 140b 863c a3ca 13bb 5f71 c7bd
000000e0: f283 69bc d3a4 b93c b40c 0a3d 3275 e73c
000000f0: c466 2cbd e777 49bc dd11 0e3d 81f9 0cbd
00000100: 158b b4bb 1e22 75b9 1741 ef3c a746 e9ba
00000110: 0acc 84bd d027 cd3c e963 a9bc a2e4 603d
00000120: 7af2 4a3d 43f3 773c 6610 a93c d2ed c6bc
00000130: 62ac cf3c 574d 62bb f9d3 5cbd 0303 1d3d
00000140: 0b2f 63bd 03b2 19bd b32c 88bd f629 97bc
00000150: 09b5 c63c ee3e 02bd 1714 2d3d 814d 2b3d
00000160: 1b01 df3c 8d98 6dbc a8bd 8fbd 47bd 1b3d
00000170: 046c 5fbb 39a5 1d3d 812e 58bd 3b45 153d
00000180: 916c 5bbd ea3d 84bd b2bb 93b4 55f8 9c3d
00000190: 219f 86bd b836 a33b ac64 163d fdf2 91b3
000001a0: d266 c93b 8842 3c3d 2677 a5bc 3f00 9f3c
000001b0: 644b 25bd 3f4c 123c 5cdc 513d f5ad 52bd
000001c0: da1b 47bd b8e7 a9bd 71f0 153d 8c73 86bc
000001d0: 32d2 a1bc 10d9 30bd 8205 b2bd fc6a 45bd
000001e0: 79d8 5f3d d173 973d 15a6 e7bc deae 70bd
000001f0: a69f 573d 18b8 d8bc ceca 683d f4bb d2bc
00000200: 2c50 8abd 8974 88bd 0121 963c c5a6 65bd
00000210: 183d de3c 5f54 88bd 29bf 93ba 0350 e5bc
00000220: 289f 553c a3eb 3abd f31c 2cbb 0738 78bd
00000230: 649e a1bc 0201 91bd 986a 00bc 663f 17bd
00000240: b9bd 97bc 62a1 03bd 2299 8a3c 0ff3 6abd
00000250: 752b 78bc a4ef 8cbd 24fe 91bd 80d0 453c
00000260: 1410 21bc 7c4a 2fbc 60a9 85bc fd9c 3ebb
00000270: 2eb1 743d 1992 553d 9abc 25bd 0099 92bd
00000280: 2bcf e0bd d7a8 5d3d 1b90 27bd 3cd4 453c
00000290: 2869 dc3c 4b7a 0dbd cdc2 353d 17c6 d13a
000002a0: fd9d 10bd 69c8 2b3d 312b dc3c 0d44 963d
000002b0: a322 f8bc 8109 593d 008e 89bd 480a 373d
000002c0: ba9a 96bc d15f fe3c 7104 2dbd 8ef0 463d
000002d0: 66ba 49bd 70f1 28bd fc19 513d 471c f33c
000002e0: b84a 9ebc 482a 113c 7f63 a33c 9e87 94bc
000002f0: 38d5 9ebc 4200 ab3c 735a 03bd 7b95 8f3c
00000300: 8f0c 503d 0f1a 273d aa03 f5b9 d63e 043d
00000310: 9fbc 4abc 7f7a 553d ee8a 9a3d 5abd 4b3d
00000320: 4ca8 923b ce7b 283d 8983 333d 8a6e 52bc
00000330: ac4a 7cbc e3bf 58bd 211f 833b 54b3 d5bb
00000340: 1a1d 443d b8b3 7f3c 02e7 8cbd a689 34bd
00000350: 20fa 80bd d4cc 44bd 7aca cbbc 3fc0 b8bd
00000360: 01c0 80bd 3285 3bbc e124 45bc 724b 583d
00000370: d7ad 113d 8a58 cdbc 311c 153d 4f0a bbbc
00000380: 6743 51bd 6fc5 68bc 26b6 5ebd 5029 c63c
00000390: ac17 30bd d477 a7bd eca0 9d3c 0841 5fbd
000003a0: ac6a f13b de67 2bbd ed7f 9f3b bef3 39bd
000003b0: dc81 04bd f0aa 563c 7d58 043d 2abe c2bc
000003c0: f315 383d ff3b 50bc b886 3abd 0891 3abd
000003d0: ce17 2fbc 6e27 6e3d c50e 9a3d 1ca3 513d
000003e0: 4d15 0d3d 2579 6cbd d85d 193d 5bfb 723d
000003f0: 9cc6 a63c e011 56bc f45e 3c3d 18ce afbc
-0.0327877 -0.03263273 0.06977391 0.040367443 0.028213663 -0.013282781 0.043212596 0.047477677
0.037499357 -0.011691899 -0.053573962 -0.06201846 -0.051609732 -0.06389766 0.026572384 0.025974723
-0.050721012 -0.058943342 0.029760586 0.01312417 -0.009873268 -0.014987303 -0.011476449 0.036568012
-0.0538921 -0.0331879 0.06333244 -0.038647804 -0.002864355 0.07224722 0.06885322 -0.014625473
-0.010964678 0.011288178 -0.043921307 -0.049350917 -0.0056462665 0.02050042 0.019016068 -0.052532308
-0.0693496 -0.029849345 -0.028758578 0.008510492 -0.05647642 -0.034677982 0.009463346 -0.0037883064
0.0017668899 -0.11054094 0.041328598 -0.058312643 0.023626609 0.016362704 -0.00225512 -0.09738421
-0.01425265 0.022661602 0.03370352 0.028254125 -0.042090192 -0.012296653 0.034685005 -0.034417633
-0.005509744 -0.0002337773 0.029205842 -0.0017797545 -0.0648423 0.025043398 -0.020677524 0.05490554
0.04954765 0.015133682 0.020637702 -0.024283323 0.025350753 -0.0034530961 -0.05391309 0.03833295
-0.055464786 -0.03752328 -0.06649151 -0.018452626 0.024256246 -0.031798296 0.042255487 0.04182196
0.027222207 -0.014501703 -0.07018596 0.038022306 -0.0034091482 0.038487647 -0.052778725 0.036442976
-0.053570334 -0.06457122 -2.751745e-07 0.07664553 -0.0657332 0.004980888 0.036717102 -6.796288e-08
0.0061462903 0.045961887 -0.020198416 0.019409297 -0.0403551 0.008929311 0.05123554 -0.05143543
-0.048610546 -0.0829615 0.036606256 -0.016412519 -0.01975355 -0.043175757 -0.08692457 -0.04819773
0.054649804 0.07395137 -0.028277436 -0.058760516 0.052642487 -0.02645497 0.056834035 -0.025724389
-0.06753573 -0.06662852 0.018326284 -0.056067247 0.027128741 -0.066567175 -0.001127218 -0.027992254
0.013038434 -0.045634877 -0.0026262372 -0.060600307 -0.019728847 -0.0708027 -0.007837914 -0.036925696
-0.018523084 -0.03213633 0.016918723 -0.057360705 -0.01514708 -0.06881645 -0.071285516 0.012073636
-0.0098304935 -0.010698911 -0.016316116 -0.0029085272 0.059739284 0.052141283 -0.040463068 -0.07158089
-0.10977014 0.054116096 -0.040908914 0.012074526 0.026905611 -0.034540456 0.04437523 0.001600447
-0.03530692 0.041939173 0.026876064 0.073371984 -0.030289954 0.05298758 -0.067165375 0.04468754
-0.018384326 0.031051548 -0.042240564 0.048569255 -0.04925003 -0.041245878 0.05105017 0.02967657
-0.019322738 0.008860178 0.019944904 -0.018131074 -0.01938878 0.020874146 -0.03206868 0.017527333
0.050793227 0.040796336 -0.0004673277 0.032286488 -0.012374072 0.052118775 0.0754603 0.049741127
0.004475629 0.041133694 0.043826614 -0.012843737 -0.015398663 -0.052917372 0.0040015136 -0.0065216217
0.047879316 0.015606813 -0.06879999 -0.044076584 -0.062977076 -0.0480469 -0.024876822 -0.09021043
-0.06286622 -0.01144533 -0.012032718 0.052806325 0.035566177 -0.025066633 0.03640384 -0.022832064
-0.05108967 -0.014207228 -0.05437293 0.024189621 -0.042991325 -0.08177152 0.019241773 -0.054505378
0.0073674526 -0.041847102 0.004867545 -0.045398466 -0.032350406 0.013102278 0.03231095 -0.023772318
0.044942807 -0.012709617 -0.045538634 -0.04554847 -0.010686828 0.05814307 0.07522348 0.051180944
0.034444142 -0.05773272 0.037443012 0.059321743 0.020358376 -0.013065785 0.04598899 -0.021460578

189 f4 [25, 25, 7]
00000000: 72c0 eeba d972 15bd a42e b8bb 1b5f 04bd
00000010: 1f4a efbc 41fb 8ebb 9887 f23b f38c 32bd
00000020: 2ae6 5ebc bd80 8abb b819 92bc 495a a9bc
00000030: 483a d4bb 3cc1 4dbd 280a 59bc 1a41 063c
00000040: ccdf 29bd 39c1 1d3d 0b7b 82bc 923d 6d3b
00000050: d031 bb3c 12f4 02bc a3a3 3ebc 65fd 82bc
00000060: 4d55 32bd fb56 43bd 9682 a2bd 1025 54bc
00000070: b9ef 44bc 18aa 873b de37 85bc 56ef 6bbc
00000080: 95f4 533c 2de4 77bc c473 d5bc 8bb1 6ebd
00000090: 858e 88bd 344d 89bd 5b8f 94bc a6b4 9dbc
000000a0: 5236 9139 0c1b f6bc c101 4e3c b3ab 11bd
000000b0: b97f 8b3c 8e1d 76bb 021e 9ebb ae56 14bd
000000c0: 47c8 f13b 9dbb 4ebd 7880 8a3c c5af 13bd
000000d0: 53fb f3bc 3bcb 4cbc 24d5 6a3c b206 68bd
000000e0: b69a 2abd ff1b 7cbc dca2 873d faa7 8c3d
000000f0: 32c7 67bd ba4d 90bd da5e 88bd b3c8 4abd
00000100: 813f f7bc 3716 7a3d 25a8 f5bc 5f25 723d
00000110: 9271 63bc e508 063d 34c3 02bd 37b1 afbc
00000120: 46f5 9a3c 1297 36bc e15b 6ebd a973 cbbc
00000130: de13 13bd 859d 0cbd a5b3 8abc f867 69bc
00000140: ff8c 183d b5a9 eb3b 3df0 03bd 81e9 f8bc
00000150: 805e 083d c44a 4ebd 2c0b 82bd faf7 333d
00000160: 0533 74bd 9172 6cbd 1084 6abc 84ea 48bd
00000170: 4faf 4bbd 5429 243d 124b 81bd c236 57bc
00000180: e813 203d fef6 923d 678d 86bd 4981 7d3d
00000190: ec27 723c 0eee 5abd 3472 013d b17f 453d
000001a0: 8896 fcbc d46f 143d 7e8a 51bd 8353 c33c
000001b0: 69dd 3dbd 9030 dd3c 76ef acbc eb8e efbb
000001c0: 6058 b93c 703d 5b3d 89d1 2b3d c389 44bc
000001d0: ad9e 89bc 8cb9 d43c 44c0 7fbd 673e 893d
000001e0: d396 5e3d cb64 febc 8eb4 843d 42b4 90bd
000001f0: ca23 333d 2bcf 403d d1b6 a33a a678 3cbd
00000200: 374c fdbc 7c70 48bd e142 5c3b 31f6 b8ba
00000210: 85f3 ff3b 321c 1dbd f8d3 2bbc ea07 13bc
00000220: 3bd9 00bc 3c6b b2bc ad04 13bd 81e3 96bc
00000230: cc82 0ebc 271c 3dbd 7f1f eb3b ed1a 263b
00000240: baaa ecbc 0758 d43c c1fe 9b3c 5374 803d
00000250: fb56 383d b26e a5bc fafc 67bd 9f5b 1ebc
00000260: f8c8 5abc 458b 05bd e9f1 e2bc ae95 163c
00000270: f961 4fbd 0c70 a3bc 2fea b1bc c22f 9e3c
00000280: 20e8 a53c 4a6b e13c abf8 c139 b3ef 2cbd
00000290: 45e4 6c3c f06d 233c 0cf7 14bd e4a5 e13c
000002a0: 2f68 3fbd f33c a83c 7c8e 32bd ebc1 17bd
000002b0: 6430 71bd 5773 45bd 211c 96bc 210e c13c
000002c0: 6f27 c63c 75b5 783d 0efc 11bd 6840 7c3d
000002d0: d3ac 01bd d4f3 f13c fd94 70bc f0c1 01bd
000002e0: 08e7 61bc 14e8 04bd 0f34 a83c 5205 183d
000002f0: d284 53bc a640 423d 9b18 1bbd 3d45 463d
00000300: 8439 31bc e966 9c3d 91f4 1dbd cb47 413d
00000310: 9890 16bd 1afa 623c c67b 363a ad6a bdbc
00000320: b2fd 933c 13d3 0abd d86c 053c 8e49 843d
00000330: b09d dfbc 7f55 4c3d 195b 023d 071c 313d
00000340: 43f3 35bd 0d02 643d 1e24 b13c 7c34 6dbd
00000350: f34d 843c aa01 1bbd e907 51bc 4576 0bbd
00000360: 7f01 29bc b281 173d 2db0 e33c 7592 e6bb
00000370: ea46 74bc 055c 313b 1a48 57bc 90a0 4cbc
00000380: df01 2abd 277b 43bd 7908 2f3c e5ec 4ebd
00000390: e886 d63c cb2a 7abc d238 a6bd 8df7 f03c
000003a0: d30b 49bd 2b6b 3fbd 8ffa 993b 2c0c 3bbd
000003b0: 9ee7 413d df52 28bd eb69 533d 4ca8 403d
000003c0: e362 3a3d d827 27bd eed7 48bd 7020 49bd
000003d0: 87af 40bd 8956 3fbd 5939 07bd 348a 42bd
000003e0: ad1e 8ebc 2d60 02bd f802 783b bdbc 81bd
000003f0: 8575 38bd f054 69bd 8cbd 01bd a9b2 2dbd
-0.0018215312 -0.03648648 -0.0056207944 -0.032317262 -0.029210148 -0.004363448 0.007401418 -0.04359145
-0.01360468 -0.0042267726 -0.01783453 -0.020672934 -0.006476674 -0.05023311 -0.01324705 0.008194232
-0.041473195 0.03851435 -0.015927812 0.003620003 0.0228509 -0.007992761 -0.011635694 -0.015989969
-0.04353838 -0.047690373 -0.079350635 -0.0129482895 -0.012020045 0.00414015 -0.016261991 -0.014400324
0.012936731 -0.015130085 -0.026056178 -0.058274787 -0.066678084 -0.067041785 -0.018134763 -0.019251179
0.00027697027 -0.030042194 0.01257366 -0.035564136 0.017028676 -0.0037554237 -0.0048253546 -0.036215477
0.0073786112 -0.05047189 0.016906962 -0.0360563 -0.029782927 -0.012499626 0.014333043 -0.05664701
-0.04165145 -0.015387534 0.0662286 0.068679765 -0.05658645 -0.07046075 -0.066587165 -0.049507808
-0.030181648 0.061056342 -0.029987404 0.05911767 -0.013882058 0.032723326 -0.03192444 -0.021446807
0.018915784 -0.011144416 -0.05819309 -0.024835424 -0.03590762 -0.03432991 -0.016931364 -0.0142459795
0.03724384 0.0071918615 -0.03221153 -0.03038478 0.033293247 -0.05036427 -0.06349787 0.04393766
-0.05961897 -0.057726447 -0.014313713 -0.049051777 -0.049727734 0.040078476 -0.06313147 -0.013135614
0.039081484 0.07176016 -0.06569939 0.061890874 0.014780026 -0.053449683 0.031603053 0.04821748
-0.030833498 0.03623946 -0.051157467 0.023843532 -0.04635373 0.027000695 -0.021110278 -0.0073107383
0.022625148 0.05352539 0.041947875 -0.011995736 -0.016799295 0.025967382 -0.06243922 0.067013554
0.054343056 -0.031053921 0.064797506 -0.070656314 0.043735303 0.04707257 0.0012490397 -0.046013497
-0.030920131 -0.0489354 0.00336092 -0.0014111457 0.007811012 -0.038356967 -0.010487549 -0.008974055
-0.007864292 -0.021779649 -0.03589313 -0.01841903 -0.008698177 -0.046169426 0.0071753855 0.002534564
-0.028890003 0.025920881 0.019042375 0.06272187 0.045004826 -0.020194385 -0.05663774 -0.009665399
-0.013353579 -0.03260352 -0.027703242 0.00919096 -0.050630543 -0.019950889 -0.021718113 0.019309882
0.020252287 0.02751698 0.000369971 -0.042220782 0.014458721 0.009974942 -0.036368415 0.027544923
-0.046730217 0.020536875 -0.043592915 -0.03705017 -0.05888404 -0.0482057 -0.01832396 0.023566308
0.024188725 0.060719926 -0.03564077 0.06158486 -0.03165896 0.029535212 -0.014683959 -0.031679094
-0.013787992 -0.03244789 0.020532636 0.03711445 -0.012910085 0.047424935 -0.037865262 0.048405875
-0.010816935 0.07636816 -0.038563315 0.047187608 -0.03675899 0.013853574 0.00069611927 -0.023122156
0.018065307 -0.033892702 0.008143626 0.06459342 -0.027296871 0.049886223 0.03182516 0.04323962
-0.044421446 0.05566602 0.021623667 -0.05791138 0.01615045 -0.037843384 -0.012758234 -0.034048337
-0.010315298 0.03698892 0.027793968 -0.007036502 -0.014909485 0.0027062905 -0.013139749 -0.012489453
-0.04150569 -0.04772487 0.010683172 -0.05051889 0.026187375 -0.015268992 -0.08116306 0.029414916
-0.049083542 -0.046733063 0.0046990584 -0.045665905 0.047340028 -0.041094657 0.051614683 0.0470355
0.045504462 -0.040809482 -0.04903405 -0.0491032 -0.047042396 -0.046713386 -0.033013675 -0.047495082
-0.017348612 -0.03183 0.0037843566 -0.06334827 -0.04503395 -0.05696577 -0.031674907 -0.04240671

192 f4 [25, 25, 7]
00000000: 9d00 0000 9a05 0080 fb04 0080 f604 0000
00000010: d88f 1a38 ffd6 2aa2 9a05 0080 d2a6 893c
00000020: e406 3b3d eb1a 793d 42ed 9a3d 3db2 b03d
00000030: cfd6 5b3e 6013 933d 9d00 0000 188b 4539
00000040: 060b 0000 1c30 b9bb 3d92 0700 9a05 0000
00000050: 6a68 e138 bc62 003b 9558 eb3a ff19 28b6
00000060: 102d 7a35 d4f5 393c fabc 9d3a 0491 6c35
00000070: e7c7 2c3c 6896 953c 3790 1bbd f8b4 433d
00000080: c2d2 193e 8262 523d 0941 c93d ff1e d53b
00000090: 5973 2d3d 2354 ee38 9a34 983c 7e66 dc3c
000000a0: 1fe9 8a3c 8241 093d 7780 f336 156a 6bbc
000000b0: 4951 aabc 35cc 153a 84d8 b2bc bc2e 3f37
000000c0: 59cc 2b37 4f6a 443d d0f9 953d d6a2 2b3d
000000d0: edc5 073d 5f7a 32bb 283f ac3d 075f 9ebc
000000e0: 2b4b 00bd 4380 35b7 d8ab 8237 4d29 9637
000000f0: 318b b6bc 90b0 e1bb 9ca8 52bc 1c0b 19b3
00000100: b311 8a36 20dd 1032 0344 62b6 4059 01b7
00000110: 8926 beb2 ddfb 3cbb 7b07 1b3b b5b7 44bd
00000120: 0225 93bd 90c5 40bd 8e33 89bc fde7 a03b
00000130: aeef 143d 558a 4f3d c438 253d 93a6 133d
00000140: b758 823d f3b3 4b3d 7027 8e3c 2bcd c3bd
00000150: 60d6 7abd ae62 d3bc d153 42bd 8238 52bd
00000160: aaa2 14bd 53b7 5cbd 3b2c 233d dd43 31bd
00000170: ffa4 98bd 8316 14bd 9a38 64bd 4384 f5bc
00000180: 9b04 8cbd 9d86 4cbd 10f3 f68c 6cca 238e
00000190: 2583 1f0e c492 afba 83b5 9308 413d 0080
000001a0: dcba 0000 8a90 0abd 0400 a1bc dd9e 39bd
000001b0: ebaf 14bd 95ff 00bd 25f6 0bbd e8ef 113d
000001c0: 4462 25bd 1783 e73d 6be4 d0bc 2e39 b7bc
000001d0: fd7b 443b b69b e23d 6124 883e ac89 e821
000001e0: 25d7 8820 28db 63b9 fceb 6fb9 e6d4 123b
000001f0: da2d 07b8 bc89 1eb9 2a80 a13c 876c 373d
00000200: ac1c 8b3c 68c8 14bc 7998 823d ae15 0e3e
00000210: c238 b23d cfe3 a43b 9cf4 e9bc 46f3 b73c
00000220: 62f9 83bb 2122 42bc 567f 7abc a4d4 2ebc
00000230: 5d4b 9539 693d d6b8 9461 48ba 6855 09b6
00000240: 6329 42ba 40e9 f335 cf4e 0936 df98 1c3b
00000250: 29db 9abd 506a 89bd 4e53 19bd dba6 69bc
00000260: b6a0 66bc 37a0 edbd 760f ad3b c4c6 f63c
00000270: 75e9 4bbd 93f6 e23c 5e75 d0bc d40e 3e3c
00000280: dd0c b5bc 6445 dbb0 219f 57b3 7f24 312f
00000290: e7a6 c838 7c43 2137 d286 1732 bd49 9f37
000002a0: d9a1 b115 9800 0080 6305 0080 4463 acb9
000002b0: 6794 15bb 9e7c 84bb 8a04 0080 a204 0080
000002c0: eb57 122f c1cd 6c3b 503b 19b9 a004 0000
000002d0: 2a3d c8b9 5104 0000 7483 af3d 1549 193c
000002e0: 4993 37bc 3f62 26bd ba09 7bbd 876a d7bb
000002f0: c1e9 52bd 6804 0080 a104 0080 6204 0080
00000300: 5f04 0000 8f04 0000 5f04 0000 9604 0080
00000310: b620 9936 4f46 ce36 e516 4e36 daaa d4b8
00000320: 80a9 dcb8 672e feb7 17ee 9836 d38e 8b3e
00000330: ed7e 31bc bcc0 f33d cac1 d03d ee8b 023e
00000340: ee3c c83d 5684 6f3e c72d a53d 397d 733d
00000350: 75e5 2a3d cd69 a03d 4fb7 3c3d 4c88 873d
00000360: c571 42bd 8508 68bc a9c9 cd36 01e0 63bc
00000370: c420 1fb5 52a9 35b6 c24b 9437 17aa ee36
00000380: 01b1 203d d99a debc 5e73 3b3c 2fb1 f63c
00000390: 93f1 163d fd92 763d d9cc 36be e6b3 a6bc
000003a0: c1a4 debc b438 39bb 9ede e6bb dbe2 40bc
000003b0: 333e 8fbc 55de 823d fd2d 083a 9187 f6b2
000003c0: f288 8db3 9657 11ae f8ec 9fba d3ba 9ab2
000003d0: 4ed0 1a3b 3008 253e 8a1a 4f3d 11e4 70bd
000003e0: b68a 083d 08e4 433e 5c9b 363e e181 e23c
000003f0: dca5 523d da05 0b3c 01fd 883b a049 b43c
2.2e-43 -2.01e-42 -1.787e-42 1.78e-42 3.6850426e-05 -2.3153114e-18 -2.01e-42 0.016803179
0.04566087 0.060816687 0.075647846 0.08627746 0.21468662 0.0718143 2.2e-43 0.000188392
3.954e-42 -0.005651487 6.95309e-40 2.01e-42 0.00010748285 0.00195901 0.0017955477 -2.5049083e-06
9.319783e-07 0.011350114 0.0012034469 8.8127877e-07 0.010545707 0.018260196 -0.03797933 0.047780007
0.15021804 0.051363476 0.098268576 0.006503939 0.042346332 0.00011364396 0.01857977 0.02690434
0.016956864 0.03350974 7.2569196e-06 -0.014368554 -0.020790713 0.0005714328 -0.021831758 1.1395368e-05
1.0239973e-05 0.047952946 0.073230386 0.04190334 0.03314774 -0.0027233583 0.084104836 -0.019332422
-0.031321686 -1.0818304e-05 1.5577229e-05 1.7900626e-05 -0.022283169 -0.006887503 -0.012857582 -3.5633192e-08
4.114781e-06 8.432181e-09 -3.3716212e-06 -7.709779e-06 -2.2136435e-08 -0.0028836646 0.0023655582 -0.04802676
-0.07184793 -0.04706341 -0.016748216 0.0049104677 0.03636139 0.050669033 0.04033734 0.03604753
0.06364577 0.04973216 0.01735279 -0.09560617 -0.0612396 -0.02580389 -0.047443215 -0.05132342
-0.03628794 -0.05388577 0.039837103 -0.04327761 -0.074533455 -0.03615428 -0.055718042 -0.029970294
-0.06836816 -0.049933065 -3.804859e-31 -2.0188764e-30 1.9661407e-30 -0.001339518 8.889914e-34 -2.1974e-41
6.7033e-41 -0.03382925 -0.019653328 -0.04531752 -0.03630058 -0.031493742 -0.03417029 0.035629183
-0.040376917 0.113043 -0.025499543 -0.022366133 0.002998113 0.11064856 0.26590255 1.5757373e-18
2.3181667e-19 -0.00021730049 -0.00022880727 0.002240473 -3.222921e-05 -0.00015119364 0.019714434 0.044781234
0.016981445 -0.009080984 0.06376738 0.13875458 0.08702232 0.0050320397 -0.028559022 0.022454869
-0.0040275315 -0.011848957 -0.015289148 -0.010670815 0.00028475645 -0.00010215754 -0.0007643935 -2.0464304e-06
-0.000740668 1.8172796e-06 2.0460463e-06 0.002389483 -0.07561333 -0.067097306 -0.03743296 -0.014260973
-0.014076402 -0.11602824 0.005281384 0.030124076 -0.04978319 0.027705466 -0.02544659 0.011600215
-0.02210086 -1.5954069e-09 -5.0203315e-08 1.6111022e-10 9.567831e-05 9.61206e-06 8.820011e-09 1.8988614e-05
7.174508e-26 -2.13e-43 -1.932e-42 -0.00032880355 -0.002282405 -0.004043176 -1.628e-42 -1.662e-42
1.3309857e-10 0.003613338 -0.00014613313 1.659e-42 -0.00038192543 1.548e-42 0.085699946 0.009355803
-0.011204549 -0.04062104 -0.061288573 -0.0065739783 -0.051492456 -1.58e-42 -1.66e-42 -1.572e-42
1.568e-42 1.635e-42 1.568e-42 -1.645e-42 4.5635634e-06 6.1474634e-06 3.0709718e-06 -0.00010140771
-0.00010521989 -3.0300767e-05 4.5576703e-06 0.27257404 -0.010833484 0.119019955 0.10193212 0.12748691
0.097772464 0.23390326 0.08065372 0.059445594 0.041722734 0.0783268 0.046073254 0.066177934
-0.04747178 -0.014162187 6.1329524e-06 -0.013908387 -5.9279796e-07 -2.706966e-06 1.7678252e-05 7.112754e-06
0.039231304 -0.027173446 0.01144108 0.030113785 0.036851477 0.060198773 -0.1785158 -0.020349454
-0.02717817 -0.0028262557 -0.007045581 -0.011772837 -0.017485714 0.06390063 0.0005194841 -2.8699818e-08
-6.5907344e-08 -3.3046975e-11 -0.001220136 -1.8012917e-08 0.0023622694 0.16116405 0.05056242 -0.05881125
0.03333541 0.19129956 0.17832702 0.027649822 0.051427707 0.008485282 0.004180551 0.022007763
