TCN/mnist_pixel/models/aug_k7l6.pt (torch, 218967 bytes, 76 tensors)

tcn.network.0.conv1.bias f4 [25]
-0.045812063 -0.20437473 -0.23720542 -0.09531568 -0.028435702 0.17620921 -0.36373594 -0.3647174
-0.34337312 0.13894695 0.20636724 0.19328052 0.023770846 0.16961072 0.23808797 -0.45385522
0.3289282 -0.124158636 0.1560505 0.03711275 -0.32913628 -0.7100008 -0.13276052 0.09820471
0.069176115
00000000: 6ea5 3bbd 9c47 51be fae5 72be de34 c3bd
00000010: fdf1 e8bc 3070 343e 993b babe 3dbc babe
00000020: 9ace afbe 1c48 0e3e ef51 533e 54eb 453e
00000030: 14bb c23c 6fae 2d3e 55cd 733e b65f e8be
00000040: 4769 a83e e246 febd b4cb 1f3e 8a03 183d
00000050: 8d84 a8be 9dc2 35bf 60f2 07be 8d1f c93d
00000060: 35ac 8d3d

tcn.network.0.conv1.weight_g f4 [25, 1, 1]
0.5929 0.89811075 0.7261632 0.84970886 0.81673 0.6310951 1.0541825 0.8441744
0.90986335 0.42037076 0.5940965 0.24031758 0.9430094 0.5834061 0.5656108 0.69409585
0.62311065 0.63618165 0.88159186 0.48232424 0.6334022 0.7322899 0.96092266 1.0219284
0.76393545
00000000: 4bc8 173f 96ea 653f d5e5 393f 8586 593f
00000010: 3815 513f 738f 213f 74ef 863f d01b 583f
00000020: ceec 683f d63a d73e b516 183f d015 763e
00000030: 1069 713f 1a5a 153f dfcb 103f 44b0 313f
00000040: 2e84 1f3f cddc 223f 01b0 613f 34f3 f63e
00000050: a626 223f 5a77 3b3f 07ff 753f 8dce 823f
00000060: 4691 433f

tcn.network.0.conv1.weight_v f4 [25, 1, 7]
-0.012556903 0.2743141 -0.20780271 -0.40842736 0.01964949 0.30147982 0.052690133 -0.3037179
0.3562654 0.23124757 -0.2278414 -0.17515582 0.03643579 0.13081622 0.3350669 0.24561797
-0.21285006 -0.23297673 -0.43067795 -0.4479037 0.112956256 -0.4515549 0.053473566 0.06607503
0.17958707 0.0683437 0.062612586 -0.5089443 0.010764852 -0.03172591 0.27537066 -0.2427165
-0.39725128 0.37961614 0.020171897 -0.3697185 -0.14362618 -0.16847144 -0.19065449 -0.22253677
-0.15157881 0.219699 -0.09421564 0.19398844 0.26475522 -0.4028592 -0.34269914 0.45129347
0.023932464 0.31542557 -0.14888524 -0.36360136 0.06551506 0.2609332 -0.2740789 0.29647288
-0.19950521 0.15341294 0.35835096 -0.16045605 -0.35035133 0.010460689 0.21784523 0.05284832
-0.06461722 -0.3078285 0.38403597 -0.040696155 0.29951784 0.29769748 -0.37096334 0.37799874
0.17858209 -0.23663527 0.17866862 0.110549554 0.67001414 0.031646874 0.061530404 0.06754825
0.024621477 0.47347602 0.30198634 0.19634178 -0.4911178 -0.17281546 0.129608 0.28834745
0.3219726 -0.14706172 -0.4508319 -0.6936465 0.025477616 -0.03752511 -0.09814508 0.04933061
-0.074186265 -0.56878304 -0.010665051 -0.3845498 0.39686298 0.0674557 -0.12753546 0.4833812
0.41312495 0.5162494 0.013217205 0.26414588 -0.25457472 -0.14299043 -0.08701743 -0.34622973
0.71621674 0.07708596 0.29281947 -0.0742397 -0.003255985 0.30706018 -0.31109902 -0.3721252
-0.22088453 -0.1042594 0.18065073 0.22330776 0.27785012 -0.055552173 0.3545848 0.054918025
-0.40977654 0.2988673 0.23762986 -0.39904058 0.19454168 0.4158844 0.36841804 0.3673218
0.036061037 0.16186824 -0.032056276 0.101429895 0.48113868 0.09530986 0.3402432 0.00013149063
-0.14235435 -0.27303782 -0.25294954 -0.23113701 0.21908507 0.41700912 0.097721025 -0.09081094
-0.2546035 -0.34036052 -0.023504704 -0.053878404 -0.34715918 0.052397005 0.50393164 0.010528187
-0.35842285 -0.16263895 0.12979007 0.21474615 -0.2052339 -0.50887376 0.41545764 0.035072252
0.4639986 -0.41299742 -0.0061542685 0.24449268 0.23791766 -0.28329748 0.3621455
00000000: 78bb 4dbc e672 8c3e 3cca 54be 641d d1be
00000010: f8f7 a03c 905b 9a3e 9cd1 573d ea80 9bbe
00000020: 6b68 b63e 2acc 6c3e 424f 69be 0c5c 33be
00000030: b23d 153d b0f4 053e e48d ab3e 4783 7b3e
00000040: 5ef5 59be 7491 6ebe d281 dcbe a253 e5be
00000050: 9c55 e73d 3432 e7be 1907 5b3d 5852 873d
00000060: ace5 373e c8f7 8b3d 073b 803d 2c4a 02bf
00000070: 105f 303c 07f3 01bd 62fd 8c3e ad8a 78be
00000080: 8564 cbbe 0c5d c23e 893f a53c be4b bdbe
00000090: be12 13be c783 2cbe ee3a 43be aee0 63be
000000a0: 7a37 1bbe c6f8 603e 21f4 c0bd e8a4 463e
000000b0: ff8d 873e 9043 cebe 4376 afbe f00f e73e
000000c0: 040e c43c 767f a13e 5f75 18be f529 babe
000000d0: c32c 863d 0999 853e 1254 8cbe 4bcb 973e
000000e0: 184b 4cbe 4818 1d3e c779 b73e 974e 24be
000000f0: 4061 b3be 4f63 2b3c d212 5f3e 7b77 583d
00000100: 0856 84bd b29b 9dbe 5da0 c43e 03b1 26bd
00000110: 675a 993e ce6b 983e e8ee bdbe 0d89 c13e
00000120: 39de 363e 8450 72be e8f4 363e ce67 e23d
00000130: 0c86 2b3f 27a0 013d 4e07 7c3d bd56 8a3d
00000140: fbb2 c93c 736b f23e f49d 9a3e d20d 493e
00000150: cb73 fbbe 89f6 30be f6b7 043e 47a2 933e
00000160: 98d9 a43e 5997 16be 70d3 e6be d192 31bf
00000170: 6fb6 d03c eeb3 19bd 4a00 c9bd e50e 4a3d
00000180: f8ee 97bd c49b 11bf 77bc 2ebc b6e3 c4be
00000190: a031 cb3e 3726 8a3d a898 02be be7d f73e
000001a0: 1d85 d33e ec28 043f fa8c 583c 213e 873e
000001b0: 9e57 82be 156c 12be 3236 b2bd 0645 b1be
000001c0: fb59 373f 3edf 9d3d 6fec 953e fc0a 98bd
000001d0: 5d62 55bb fe36 9d3e 5f48 9fbe 3287 bebe
000001e0: 8e2f 62be f485 d5bd 81fc 383e caaa 643e
000001f0: 5f42 8e3e ad8a 63bd 248c b53e b9f1 603d
00000200: 3bce d1be 2205 993e 3e55 733e 0c4f ccbe
00000210: ef35 473e cdee d43e 4aa1 bc3e 9a11 bc3e
00000220: bdb4 133d cac0 253e 714d 03bd 7aba cf3d
00000230: cf57 f63e d131 c33d 5b34 ae3e bfe0 0939
00000240: 57c5 11be 9dcb 8bbe 9a82 81be 2eaf 6cbe
00000250: d657 603e 3882 d53e f621 c83d 16fb b9bd
00000260: 645b 82be bc43 aebe f08c c0bc 9aaf 5cbd
00000270: d9be b1be 3e9e 563d aa01 013f 6b7e 2c3c
00000280: 3383 b7be d38a 26be b0e7 043e 6ae6 5b3e
00000290: d628 52be 8d45 02bf ddb6 d43e eca7 0f3d
000002a0: 3991 ed3e 6674 d3be bfa9 c9bb 4a5c 7a3e
000002b0: b0a0 733e 5e0c 91be 236b b93e

tcn.network.0.conv2.bias f4 [25]
-0.05454481 0.14867704 -0.069915764 0.035336092 -0.1370789 0.11335869 -0.037047017 0.098954976
-0.11082784 0.019035093 0.024076665 0.031134654 -0.14505933 0.16053678 0.011206682 -0.12574275
0.13113344 -0.056755994 0.2838425 -0.19272311 -0.07672942 0.18585435 0.10409649 -0.09108356
-0.062982276
00000000: 616a 5fbd cb3e 183e ff2f 8fbd 94bc 103d
00000010: 695e 0cbe 9a28 e83d 9dbe 17bd e8a8 ca3d
00000020: b5f9 e2bd 7cef 9b3c 6d3c c53c 1a0e ff3c
00000030: 6f8a 14be c163 243e 3b9c 373c b5c2 00be
00000040: d847 063e f978 68bd ce53 913e 3559 45be
00000050: 5024 9dbd 9a50 3e3e 8a30 d53d 048a babd
00000060: dafc 80bd

tcn.network.0.conv2.weight_g f4 [25, 1, 1]
0.5275565 0.4894641 0.54058 0.56135345 1.0375947 0.6426859 0.5821795 0.5988826
0.5545926 0.54115665 0.5594715 0.56178665 0.50210613 0.43409604 0.53877 0.5114
0.84446305 0.5550816 0.94282293 0.60379595 0.57650596 0.71283823 0.7867624 0.5107763
0.6026196
00000000: f10d 073f 0a9b fa3e 7363 0a3f dcb4 0f3f
00000010: e7cf 843f 1087 243f b709 153f 5f50 193f
00000020: c8f9 0d3f 3e89 0a3f 8639 0f3f 40d1 0f3f
00000030: 078a 003f d641 de3e d5ec 093f 1ceb 023f
00000040: bb2e 583f d419 0e3f d85c 713f 5f92 1a3f
00000050: e595 133f 917c 363f 4369 493f 3cc2 023f
00000060: 4745 1a3f

tcn.network.0.conv2.weight_v f4 [25, 25, 7]
-0.0988807 -0.12921415 -0.021431305 -0.022547845 -0.0011999666 -0.03184045 0.030697996 -0.012184196
-0.031380277 -0.067706384 -0.116810374 0.021189662 -0.010870258 -0.023757754 -0.074803226 -0.07264421
0.057376616 0.029839078 -0.029038318 -0.008402211 -0.0350177 0.0016683487 -0.062538095 0.106866725
-0.08376711 0.027017135 0.05989329 -0.06572462 -0.08675299 0.11807378 0.1099879 0.13175477
-0.08504981 0.060102142 -0.1108925 -0.11554582 -0.09756966 0.11701384 -0.115523756 -0.035264466
0.044815954 -0.05323222 -0.045588195 -0.08851558 0.03225658 0.044410855 0.07205634 0.006923395
-0.07738681 0.10539034 0.043112073 -0.04274127 0.02556705 0.012740424 -0.092482455 -0.0077098943
0.008305507 0.081023134 -0.0015781312 0.028254129 -0.07735122 -0.089423805 0.08405148 -0.011055195
-0.10221521 -0.011376625 0.093287304 0.009896589 0.023406915 0.036557868 -0.074388735 -0.06644276
-0.03617363 0.07024064 -0.06661678 -0.0635059 -0.012983021 -0.1395294 -0.071618095 -0.06014207
0.0035132975 0.038105138 0.032332756 -0.10205309 0.033484012 -0.048279636 -0.08641243 -0.09097442
-0.030867603 0.04058111 -0.05638603 0.13258432 -0.03811735 -0.074356124 -0.09894279 -0.06873664
-0.034337193 -0.0413455 -0.13387033 -0.11529207 -0.07798519 -0.06949315 -0.012960214 -0.0557111
-0.008137075 0.08176881 -0.03589126 0.05681927 -0.09909921 -0.07689175 -0.09425063 -0.10183682
0.0049191574 -0.08232401 -0.020356985 -0.10069995 -0.034869123 -0.07915934 -0.054045003 -0.120050214
-0.02010276 -0.06770619 0.06670629 0.081217706 0.10860648 0.0018687827 0.029745223 -0.01818311
0.004693045 -0.045115475 -0.05536307 -0.11110994 0.0212176 -0.10747513 -0.027839646 0.02888275
-0.062044743 0.0077037723 -0.09259912 0.026637228 -0.047305338 -0.043576166 -0.054320365 -0.10432915
-0.07483765 -0.044958726 -0.01443359 0.061609678 0.061114803 -0.090304494 -0.009097919 -0.0021155283
0.12792598 -0.011873467 -0.00654052 -0.07227578 -0.055676997 -0.014527249 -0.04923396 0.03195462
-0.011140209 0.002152559 0.070136845 0.003174236 -0.08412921 0.011050093 -0.016393453 0.01745456
0.026986154 -0.094496 0.017233694 -0.019281425 -0.024906378 0.0043357625 -0.07659246 0.114185005
0.117527544 -0.049759414 -0.07856994 -0.018070089 0.08548719 -0.055780202 0.036502346 0.0017282808
-0.087705486 -0.16819383 -0.12325955 -0.124059714 -0.14228027 -0.30037042 -0.27919152 -0.2958765
-0.09998623 -0.09328673 0.09325347 -0.0061145984 -0.1001148 -0.17224321 -0.27742183 -0.36281866
-0.30354744 -0.39812252 -0.3082117 0.1823893 -0.07347941 0.037513882 -0.17620407 -0.041979887
0.04047472 -0.12891477 0.40894955 0.37286153 0.30770034 0.26145345 0.0065415967 -0.15919772
-0.24089673 0.08373475 -0.16519202 -0.19438551 -0.3213852 -0.16893934 -0.18169422 -0.15655884
-0.3027178 -0.16692363 -0.20649254 -0.21510765 -0.31807533 -0.21458249 -0.30717185 -0.0017900404
-0.21311396 -0.2598303 -0.30789998 -0.1805225 -0.21653132 -0.22478208 0.15103815 0.16527538
0.12440855 0.22801788 0.08895974 0.07450244 0.06044576 0.09079708 0.053740136 0.02475728
0.16051863 0.07088307 0.11072662 0.021675542 0.07979314 0.20367485 0.18660468 0.28933334
00000000: f781 cabd b750 04be b490 afbc 42b6 b8bc
00000010: 3348 9dba 226b 02bd 5d7a fb3c 39a0 47bc
00000020: 9b88 00bd a5a9 8abd 473a efbd f195 ad3c
00000030: 2b19 32bc 9f9f c2bc 6f32 99bd 7dc6 94bd
00000040: be03 6b3d 1571 f43c c4e1 edbc 6da9 09bc
00000050: b86e 0fbd 7eac da3a f913 80bd f1dc da3d
00000060: 178e abbd 0a53 dd3c ab52 753d a19a 86bd
00000070: 8dab b1bd aad0 f13d 5641 e13d b9ea 063e
00000080: 982e aebd aa2d 763d 9b1b e3bd 49a3 ecbd
00000090: 9ad2 c7bd f4a4 ef3d b897 ecbd 7971 10bd
000000a0: ef90 373d 070a 5abd b0ba 3abd a847 b5bd
000000b0: 7a1f 043d 28e8 353d 4692 933d a6dd e23b
000000c0: fa7c 9ebd e4d6 d73d 4996 303d 7811 2fbd
000000d0: fd71 d13c 36bd 503c 7167 bdbd 48a3 fcbb
000000e0: d213 083c 75ef a53d 4cd9 ceba 3475 e73c
000000f0: 516a 9ebd d423 b7bd 2f23 ac3d d920 35bc
00000100: 3556 d1bd 0665 3abc 6a0d bf3d 4e25 223c
00000110: dcbf bf3c b4bd 153d 1f59 98bd 2413 88bd
00000120: cd2a 14bd 53da 8f3d 616e 88bd 620f 82bd
00000130: bdb6 54bc cce0 0ebe 82ac 92bd 8857 76bd
00000140: 5a3f 663b 2214 1c3d 5a6f 043d 3601 d1bd
00000150: 8826 093d dec0 45bd 00f9 b0bd cc50 babd
00000160: 0ede fcbc 6138 263d 0af5 66bd 2fc4 073e
00000170: f020 1cbd 0648 98bd 84a2 cabd ccc5 8cbd
00000180: 28a5 0cbd e659 29bd 4e15 09be 401e ecbd
00000190: b3b6 9fbd 6d52 8ebd 1457 54bc 5331 64bd
000001a0: 5e51 05bc 6876 a73d b702 13bd 53bb 683d
000001b0: 87f4 cabd 6c79 9dbd 7906 c1bd d38f d0bd
000001c0: e230 a13b 7e99 a8bd b1c3 a6bc c63b cebd
000001d0: edd2 0ebd 4b1e a2bd 4b5e 5dbd e3dc f5bd
000001e0: 8bae a4bc 8ba9 8abd 4f9d 883d 7855 a63d
000001f0: 136d de3d f1f1 f43a 41ac f33c bff4 94bc
00000200: 1dc8 993b 01cb 38bd 63c4 62bd 9c8d e3bd
00000210: 88d0 ad3c ec1b dcbd f80f e4bc 849b ec3c
00000220: a122 7ebd ed6f fc3b 9ca4 bdbd 5136 da3c
00000230: 3ec3 41bd ec7c 32bd 087f 5ebd 85aa d5bd
00000240: 7b44 99bd a426 38bd dd7a 6cbc 6e5a 7c3d
00000250: 8453 7a3d 90f1 b8bd 700f 15bc ada4 0abb
00000260: 07ff 023e ee88 42bc dc51 d6bb 5305 94bd
00000270: 900d 64bd b303 6ebc 8da9 49bd d9e2 023d
00000280: 6c85 36bc f311 0d3b e8a3 8f3d d806 503b
00000290: ef4b acbd 730b 353c 904b 86bc defc 8e3c
000002a0: 1112 dd3c 1e87 c1bd ad2d 8d3c 14f4 9dbc
000002b0: 7608 ccbc 0313 8e3b 82dc 9cbd d4d9 e93d
000002c0: 48b2 f03d 87d0 4bbd 47e9 a0bd b907 94bc
000002d0: e813 af3d c879 64bd 7c83 153d 7b87 e23a
000002e0: ef9e b3bd 013b 2cbe 816f fcbd 0513 febd
000002f0: ebb1 11be 27ca 99be 31f2 8ebe 207d 97be
00000300: 95c5 ccbd 1d0d bfbd adfb be3d f85c c8bb
00000310: fd08 cdbd 8660 30be 3c0a 8ebe 5ec3 b9be
00000320: 926a 9bbe b7d6 cbbe edcd 9dbe 43c4 3a3e
00000330: 5f7c 96bd 28a8 193d d76e 34be 1af3 2bbd
00000340: d2c8 253d 3c02 04be d661 d13e b5e7 be3e
00000350: e68a 9d3e 3add 853e e45a d63b ba04 23be
00000360: a2ad 76be 207d ab3d 1928 29be ff0c 47be
00000370: 9a8c a4be 6ffe 2cbe 0d0e 3abe f650 20be
00000380: d4fd 9abe 07ee 2abe c872 53be 2e45 5cbe
00000390: c5da a2be 83bb 5bbe a145 9dbe ca9f eaba
000003a0: 8c3a 5abe 7a08 85be 11a5 9dbe e4da 38be
000003b0: 63ba 5dbe 462d 66be bfa9 1a3e f33d 293e
000003c0: e9c9 fe3d 857d 693e 8630 b63d bc94 983d
000003d0: f995 773d d2f3 b93d 9e1e 5c3d c7cf ca3c
000003e0: ff5e 243e 252b 913d a3c4 e23d e890 b13c
000003f0: 966a a33d 2490 503e 4c15 3f3e 8023 943e

tcn.network.0.net.0.bias f4 [25]
-0.045812063 -0.20437473 -0.23720542 -0.09531568 -0.028435702 0.17620921 -0.36373594 -0.3647174
-0.34337312 0.13894695 0.20636724 0.19328052 0.023770846 0.16961072 0.23808797 -0.45385522
0.3289282 -0.124158636 0.1560505 0.03711275 -0.32913628 -0.7100008 -0.13276052 0.09820471
0.069176115
00000000: 6ea5 3bbd 9c47 51be fae5 72be de34 c3bd
00000010: fdf1 e8bc 3070 343e 993b babe 3dbc babe
00000020: 9ace afbe 1c48 0e3e ef51 533e 54eb 453e
00000030: 14bb c23c 6fae 2d3e 55cd 733e b65f e8be
00000040: 4769 a83e e246 febd b4cb 1f3e 8a03 183d
00000050: 8d84 a8be 9dc2 35bf 60f2 07be 8d1f c93d
00000060: 35ac 8d3d

tcn.network.0.net.0.weight_g f4 [25, 1, 1]
0.5929 0.89811075 0.7261632 0.84970886 0.81673 0.6310951 1.0541825 0.8441744
0.90986335 0.42037076 0.5940965 0.24031758 0.9430094 0.5834061 0.5656108 0.69409585
0.62311065 0.63618165 0.88159186 0.48232424 0.6334022 0.7322899 0.96092266 1.0219284
0.76393545
00000000: 4bc8 173f 96ea 653f d5e5 393f 8586 593f
00000010: 3815 513f 738f 213f 74ef 863f d01b 583f
00000020: ceec 683f d63a d73e b516 183f d015 763e
00000030: 1069 713f 1a5a 153f dfcb 103f 44b0 313f
00000040: 2e84 1f3f cddc 223f 01b0 613f 34f3 f63e
00000050: a626 223f 5a77 3b3f 07ff 753f 8dce 823f
00000060: 4691 433f

tcn.network.0.net.0.weight_v f4 [25, 1, 7]
-0.012556903 0.2743141 -0.20780271 -0.40842736 0.01964949 0.30147982 0.052690133 -0.3037179
0.3562654 0.23124757 -0.2278414 -0.17515582 0.03643579 0.13081622 0.3350669 0.24561797
-0.21285006 -0.23297673 -0.43067795 -0.4479037 0.112956256 -0.4515549 0.053473566 0.06607503
0.17958707 0.0683437 0.062612586 -0.5089443 0.010764852 -0.03172591 0.27537066 -0.2427165
-0.39725128 0.37961614 0.020171897 -0.3697185 -0.14362618 -0.16847144 -0.19065449 -0.22253677
-0.15157881 0.219699 -0.09421564 0.19398844 0.26475522 -0.4028592 -0.34269914 0.45129347
0.023932464 0.31542557 -0.14888524 -0.36360136 0.06551506 0.2609332 -0.2740789 0.29647288
-0.19950521 0.15341294 0.35835096 -0.16045605 -0.35035133 0.010460689 0.21784523 0.05284832
-0.06461722 -0.3078285 0.38403597 -0.040696155 0.29951784 0.29769748 -0.37096334 0.37799874
0.17858209 -0.23663527 0.17866862 0.110549554 0.67001414 0.031646874 0.061530404 0.06754825
0.024621477 0.47347602 0.30198634 0.19634178 -0.4911178 -0.17281546 0.129608 0.28834745
0.3219726 -0.14706172 -0.4508319 -0.6936465 0.025477616 -0.03752511 -0.09814508 0.04933061
-0.074186265 -0.56878304 -0.010665051 -0.3845498 0.39686298 0.0674557 -0.12753546 0.4833812
0.41312495 0.5162494 0.013217205 0.26414588 -0.25457472 -0.14299043 -0.08701743 -0.34622973
0.71621674 0.07708596 0.29281947 -0.0742397 -0.003255985 0.30706018 -0.31109902 -0.3721252
-0.22088453 -0.1042594 0.18065073 0.22330776 0.27785012 -0.055552173 0.3545848 0.054918025
-0.40977654 0.2988673 0.23762986 -0.39904058 0.19454168 0.4158844 0.36841804 0.3673218
0.036061037 0.16186824 -0.032056276 0.101429895 0.48113868 0.09530986 0.3402432 0.00013149063
-0.14235435 -0.27303782 -0.25294954 -0.23113701 0.21908507 0.41700912 0.097721025 -0.09081094
-0.2546035 -0.34036052 -0.023504704 -0.053878404 -0.34715918 0.052397005 0.50393164 0.010528187
-0.35842285 -0.16263895 0.12979007 0.21474615 -0.2052339 -0.50887376 0.41545764 0.035072252
0.4639986 -0.41299742 -0.0061542685 0.24449268 0.23791766 -0.28329748 0.3621455
00000000: 78bb 4dbc e672 8c3e 3cca 54be 641d d1be
00000010: f8f7 a03c 905b 9a3e 9cd1 573d ea80 9bbe
00000020: 6b68 b63e 2acc 6c3e 424f 69be 0c5c 33be
00000030: b23d 153d b0f4 053e e48d ab3e 4783 7b3e
00000040: 5ef5 59be 7491 6ebe d281 dcbe a253 e5be
00000050: 9c55 e73d 3432 e7be 1907 5b3d 5852 873d
00000060: ace5 373e c8f7 8b3d 073b 803d 2c4a 02bf
00000070: 105f 303c 07f3 01bd 62fd 8c3e ad8a 78be
00000080: 8564 cbbe 0c5d c23e 893f a53c be4b bdbe
00000090: be12 13be c783 2cbe ee3a 43be aee0 63be
000000a0: 7a37 1bbe c6f8 603e 21f4 c0bd e8a4 463e
000000b0: ff8d 873e 9043 cebe 4376 afbe f00f e73e
000000c0: 040e c43c 767f a13e 5f75 18be f529 babe
000000d0: c32c 863d 0999 853e 1254 8cbe 4bcb 973e
000000e0: 184b 4cbe 4818 1d3e c779 b73e 974e 24be
000000f0: 4061 b3be 4f63 2b3c d212 5f3e 7b77 583d
00000100: 0856 84bd b29b 9dbe 5da0 c43e 03b1 26bd
00000110: 675a 993e ce6b 983e e8ee bdbe 0d89 c13e
00000120: 39de 363e 8450 72be e8f4 363e ce67 e23d
00000130: 0c86 2b3f 27a0 013d 4e07 7c3d bd56 8a3d
00000140: fbb2 c93c 736b f23e f49d 9a3e d20d 493e
00000150: cb73 fbbe 89f6 30be f6b7 043e 47a2 933e
00000160: 98d9 a43e 5997 16be 70d3 e6be d192 31bf
00000170: 6fb6 d03c eeb3 19bd 4a00 c9bd e50e 4a3d
00000180: f8ee 97bd c49b 11bf 77bc 2ebc b6e3 c4be
00000190: a031 cb3e 3726 8a3d a898 02be be7d f73e
000001a0: 1d85 d33e ec28 043f fa8c 583c 213e 873e
000001b0: 9e57 82be 156c 12be 3236 b2bd 0645 b1be
000001c0: fb59 373f 3edf 9d3d 6fec 953e fc0a 98bd
000001d0: 5d62 55bb fe36 9d3e 5f48 9fbe 3287 bebe
000001e0: 8e2f 62be f485 d5bd 81fc 383e caaa 643e
000001f0: 5f42 8e3e ad8a 63bd 248c b53e b9f1 603d
00000200: 3bce d1be 2205 993e 3e55 733e 0c4f ccbe
00000210: ef35 473e cdee d43e 4aa1 bc3e 9a11 bc3e
00000220: bdb4 133d cac0 253e 714d 03bd 7aba cf3d
00000230: cf57 f63e d131 c33d 5b34 ae3e bfe0 0939
00000240: 57c5 11be 9dcb 8bbe 9a82 81be 2eaf 6cbe
00000250: d657 603e 3882 d53e f621 c83d 16fb b9bd
00000260: 645b 82be bc43 aebe f08c c0bc 9aaf 5cbd
00000270: d9be b1be 3e9e 563d aa01 013f 6b7e 2c3c
00000280: 3383 b7be d38a 26be b0e7 043e 6ae6 5b3e
00000290: d628 52be 8d45 02bf ddb6 d43e eca7 0f3d
000002a0: 3991 ed3e 6674 d3be bfa9 c9bb 4a5c 7a3e
000002b0: b0a0 733e 5e0c 91be 236b b93e

tcn.network.0.net.4.bias f4 [25]
-0.05454481 0.14867704 -0.069915764 0.035336092 -0.1370789 0.11335869 -0.037047017 0.098954976
-0.11082784 0.019035093 0.024076665 0.031134654 -0.14505933 0.16053678 0.011206682 -0.12574275
0.13113344 -0.056755994 0.2838425 -0.19272311 -0.07672942 0.18585435 0.10409649 -0.09108356
-0.062982276
00000000: 616a 5fbd cb3e 183e ff2f 8fbd 94bc 103d
00000010: 695e 0cbe 9a28 e83d 9dbe 17bd e8a8 ca3d
00000020: b5f9 e2bd 7cef 9b3c 6d3c c53c 1a0e ff3c
00000030: 6f8a 14be c163 243e 3b9c 373c b5c2 00be
00000040: d847 063e f978 68bd ce53 913e 3559 45be
00000050: 5024 9dbd 9a50 3e3e 8a30 d53d 048a babd
00000060: dafc 80bd

tcn.network.0.net.4.weight_g f4 [25, 1, 1]
0.5275565 0.4894641 0.54058 0.56135345 1.0375947 0.6426859 0.5821795 0.5988826
0.5545926 0.54115665 0.5594715 0.56178665 0.50210613 0.43409604 0.53877 0.5114
0.84446305 0.5550816 0.94282293 0.60379595 0.57650596 0.71283823 0.7867624 0.5107763
0.6026196
00000000: f10d 073f 0a9b fa3e 7363 0a3f dcb4 0f3f
00000010: e7cf 843f 1087 243f b709 153f 5f50 193f
00000020: c8f9 0d3f 3e89 0a3f 8639 0f3f 40d1 0f3f
00000030: 078a 003f d641 de3e d5ec 093f 1ceb 023f
00000040: bb2e 583f d419 0e3f d85c 713f 5f92 1a3f
00000050: e595 133f 917c 363f 4369 493f 3cc2 023f
00000060: 4745 1a3f

tcn.network.0.net.4.weight_v f4 [25, 25, 7]
-0.0988807 -0.12921415 -0.021431305 -0.022547845 -0.0011999666 -0.03184045 0.030697996 -0.012184196
-0.031380277 -0.067706384 -0.116810374 0.021189662 -0.010870258 -0.023757754 -0.074803226 -0.07264421
0.057376616 0.029839078 -0.029038318 -0.008402211 -0.0350177 0.0016683487 -0.062538095 0.106866725
-0.08376711 0.027017135 0.05989329 -0.06572462 -0.08675299 0.11807378 0.1099879 0.13175477
-0.08504981 0.060102142 -0.1108925 -0.11554582 -0.09756966 0.11701384 -0.115523756 -0.035264466
0.044815954 -0.05323222 -0.045588195 -0.08851558 0.03225658 0.044410855 0.07205634 0.006923395
-0.07738681 0.10539034 0.043112073 -0.04274127 0.02556705 0.012740424 -0.092482455 -0.0077098943
0.008305507 0.081023134 -0.0015781312 0.028254129 -0.07735122 -0.089423805 0.08405148 -0.011055195
-0.10221521 -0.011376625 0.093287304 0.009896589 0.023406915 0.036557868 -0.074388735 -0.06644276
-0.03617363 0.07024064 -0.06661678 -0.0635059 -0.012983021 -0.1395294 -0.071618095 -0.06014207
0.0035132975 0.038105138 0.032332756 -0.10205309 0.033484012 -0.048279636 -0.08641243 -0.09097442
-0.030867603 0.04058111 -0.05638603 0.13258432 -0.03811735 -0.074356124 -0.09894279 -0.06873664
-0.034337193 -0.0413455 -0.13387033 -0.11529207 -0.07798519 -0.06949315 -0.012960214 -0.0557111
-0.008137075 0.08176881 -0.03589126 0.05681927 -0.09909921 -0.07689175 -0.09425063 -0.10183682
0.0049191574 -0.08232401 -0.020356985 -0.10069995 -0.034869123 -0.07915934 -0.054045003 -0.120050214
-0.02010276 -0.06770619 0.06670629 0.081217706 0.10860648 0.0018687827 0.029745223 -0.01818311
0.004693045 -0.045115475 -0.05536307 -0.11110994 0.0212176 -0.10747513 -0.027839646 0.02888275
-0.062044743 0.0077037723 -0.09259912 0.026637228 -0.047305338 -0.043576166 -0.054320365 -0.10432915
-0.07483765 -0.044958726 -0.01443359 0.061609678 0.061114803 -0.090304494 -0.009097919 -0.0021155283
0.12792598 -0.011873467 -0.00654052 -0.07227578 -0.055676997 -0.014527249 -0.04923396 0.03195462
-0.011140209 0.002152559 0.070136845 0.003174236 -0.08412921 0.011050093 -0.016393453 0.01745456
0.026986154 -0.094496 0.017233694 -0.019281425 -0.024906378 0.0043357625 -0.07659246 0.114185005
0.117527544 -0.049759414 -0.07856994 -0.018070089 0.08548719 -0.055780202 0.036502346 0.0017282808
-0.087705486 -0.16819383 -0.12325955 -0.124059714 -0.14228027 -0.30037042 -0.27919152 -0.2958765
-0.09998623 -0.09328673 0.09325347 -0.0061145984 -0.1001148 -0.17224321 -0.27742183 -0.36281866
-0.30354744 -0.39812252 -0.3082117 0.1823893 -0.07347941 0.037513882 -0.17620407 -0.041979887
0.04047472 -0.12891477 0.40894955 0.37286153 0.30770034 0.26145345 0.0065415967 -0.15919772
-0.24089673 0.08373475 -0.16519202 -0.19438551 -0.3213852 -0.16893934 -0.18169422 -0.15655884
-0.3027178 -0.16692363 -0.20649254 -0.21510765 -0.31807533 -0.21458249 -0.30717185 -0.0017900404
-0.21311396 -0.2598303 -0.30789998 -0.1805225 -0.21653132 -0.22478208 0.15103815 0.16527538
0.12440855 0.22801788 0.08895974 0.07450244 0.06044576 0.09079708 0.053740136 0.02475728
0.16051863 0.07088307 0.11072662 0.021675542 0.07979314 0.20367485 0.18660468 0.28933334
00000000: f781 cabd b750 04be b490 afbc 42b6 b8bc
00000010: 3348 9dba 226b 02bd 5d7a fb3c 39a0 47bc
00000020: 9b88 00bd a5a9 8abd 473a efbd f195 ad3c
00000030: 2b19 32bc 9f9f c2bc 6f32 99bd 7dc6 94bd
00000040: be03 6b3d 1571 f43c c4e1 edbc 6da9 09bc
00000050: b86e 0fbd 7eac da3a f913 80bd f1dc da3d
00000060: 178e abbd 0a53 dd3c ab52 753d a19a 86bd
00000070: 8dab b1bd aad0 f13d 5641 e13d b9ea 063e
00000080: 982e aebd aa2d 763d 9b1b e3bd 49a3 ecbd
00000090: 9ad2 c7bd f4a4 ef3d b897 ecbd 7971 10bd
000000a0: ef90 373d 070a 5abd b0ba 3abd a847 b5bd
000000b0: 7a1f 043d 28e8 353d 4692 933d a6dd e23b
000000c0: fa7c 9ebd e4d6 d73d 4996 303d 7811 2fbd
000000d0: fd71 d13c 36bd 503c 7167 bdbd 48a3 fcbb
000000e0: d213 083c 75ef a53d 4cd9 ceba 3475 e73c
000000f0: 516a 9ebd d423 b7bd 2f23 ac3d d920 35bc
00000100: 3556 d1bd 0665 3abc 6a0d bf3d 4e25 223c
00000110: dcbf bf3c b4bd 153d 1f59 98bd 2413 88bd
00000120: cd2a 14bd 53da 8f3d 616e 88bd 620f 82bd
00000130: bdb6 54bc cce0 0ebe 82ac 92bd 8857 76bd
00000140: 5a3f 663b 2214 1c3d 5a6f 043d 3601 d1bd
00000150: 8826 093d dec0 45bd 00f9 b0bd cc50 babd
00000160: 0ede fcbc 6138 263d 0af5 66bd 2fc4 073e
00000170: f020 1cbd 0648 98bd 84a2 cabd ccc5 8cbd
00000180: 28a5 0cbd e659 29bd 4e15 09be 401e ecbd
00000190: b3b6 9fbd 6d52 8ebd 1457 54bc 5331 64bd
000001a0: 5e51 05bc 6876 a73d b702 13bd 53bb 683d
000001b0: 87f4 cabd 6c79 9dbd 7906 c1bd d38f d0bd
000001c0: e230 a13b 7e99 a8bd b1c3 a6bc c63b cebd
000001d0: edd2 0ebd 4b1e a2bd 4b5e 5dbd e3dc f5bd
000001e0: 8bae a4bc 8ba9 8abd 4f9d 883d 7855 a63d
000001f0: 136d de3d f1f1 f43a 41ac f33c bff4 94bc
00000200: 1dc8 993b 01cb 38bd 63c4 62bd 9c8d e3bd
00000210: 88d0 ad3c ec1b dcbd f80f e4bc 849b ec3c
00000220: a122 7ebd ed6f fc3b 9ca4 bdbd 5136 da3c
00000230: 3ec3 41bd ec7c 32bd 087f 5ebd 85aa d5bd
00000240: 7b44 99bd a426 38bd dd7a 6cbc 6e5a 7c3d
00000250: 8453 7a3d 90f1 b8bd 700f 15bc ada4 0abb
00000260: 07ff 023e ee88 42bc dc51 d6bb 5305 94bd
00000270: 900d 64bd b303 6ebc 8da9 49bd d9e2 023d
00000280: 6c85 36bc f311 0d3b e8a3 8f3d d806 503b
00000290: ef4b acbd 730b 353c 904b 86bc defc 8e3c
000002a0: 1112 dd3c 1e87 c1bd ad2d 8d3c 14f4 9dbc
000002b0: 7608 ccbc 0313 8e3b 82dc 9cbd d4d9 e93d
000002c0: 48b2 f03d 87d0 4bbd 47e9 a0bd b907 94bc
000002d0: e813 af3d c879 64bd 7c83 153d 7b87 e23a
000002e0: ef9e b3bd 013b 2cbe 816f fcbd 0513 febd
000002f0: ebb1 11be 27ca 99be 31f2 8ebe 207d 97be
00000300: 95c5 ccbd 1d0d bfbd adfb be3d f85c c8bb
00000310: fd08 cdbd 8660 30be 3c0a 8ebe 5ec3 b9be
00000320: 926a 9bbe b7d6 cbbe edcd 9dbe 43c4 3a3e
00000330: 5f7c 96bd 28a8 193d d76e 34be 1af3 2bbd
00000340: d2c8 253d 3c02 04be d661 d13e b5e7 be3e
00000350: e68a 9d3e 3add 853e e45a d63b ba04 23be
00000360: a2ad 76be 207d ab3d 1928 29be ff0c 47be
00000370: 9a8c a4be 6ffe 2cbe 0d0e 3abe f650 20be
00000380: d4fd 9abe 07ee 2abe c872 53be 2e45 5cbe
00000390: c5da a2be 83bb 5bbe a145 9dbe ca9f eaba
000003a0: 8c3a 5abe 7a08 85be 11a5 9dbe e4da 38be
000003b0: 63ba 5dbe 462d 66be bfa9 1a3e f33d 293e
000003c0: e9c9 fe3d 857d 693e 8630 b63d bc94 983d
000003d0: f995 773d d2f3 b93d 9e1e 5c3d c7cf ca3c
000003e0: ff5e 243e 252b 913d a3c4 e23d e890 b13c
000003f0: 966a a33d 2490 503e 4c15 3f3e 8023 943e

tcn.network.0.downsample.weight f4 [25, 1, 1]
-0.020404914 0.14158665 -0.013953526 0.013120885 -0.14053787 -0.06448964 0.0019022812 0.5021147
-0.0050588343 -0.0070730094 0.0052475226 0.122397244 -0.27672306 -0.05942097 -0.0036560015 -0.12603651
-0.08610079 0.0007171302 0.2602935 -0.076009504 -0.0019540521 -0.07384736 -0.097231835 -0.040856186
0.005990825
00000000: 3528 a7bc 17fc 103e 549d 64bc fbf8 563c
00000010: 29e9 0fbe 2513 84bd f755 f93a 978a 003f
00000020: 94c4 a5bb b4c4 e7bb 69f3 ab3b 68ab fa3d
00000030: a5ae 8dbe 6763 73bd 8799 6fbb b70f 01be
00000040: 9c55 b0bd cbfd 3b3a 3145 853e dfaa 9bbd
00000050: 8e0f 00bb 493d 97bd 7c21 c7bd d158 27bd
00000060: af4e c43b

tcn.network.0.downsample.bias f4 [25]
-0.62198097 0.060545314 -0.012608595 -0.694047 -0.09569249 -0.7107982 -0.013717918 0.21349826
-0.004436799 -0.10742313 -0.2902698 0.034903497 0.40634683 0.019041747 -0.16485536 0.113910474
-0.04481067 -0.8167349 0.1128683 -0.043340094 -0.008565213 -0.069775425 -0.5287522 -0.603982
-0.92860746
00000000: 253a 1fbf 5dfe 773d 4894 4ebc 10ad 31bf
00000010: 6dfa c3bd dff6 35bf 1ec1 60bc 4a9f 5a3e
00000020: 9162 91bb a800 dcbd 3e9e 94be f8f6 0e3d
00000030: b10c d03e 70fd 9b3c d8cf 28be e549 e93d
00000040: 658b 37bd 8a15 51bf 7f27 e73d 6285 31bd
00000050: 1b55 0cbc 6be6 8ebd 4e5c 07bf 909e 1abf
00000060: 38b9 6dbf

tcn.network.1.conv1.bias f4 [25]
-0.008238962 -0.081870325 -0.07076842 -0.0006982466 -0.08526247 0.068942025 -0.008507397 -0.044890787
-0.08258904 -0.066592306 0.010975504 0.022646502 -0.14594325 -0.09189799 -0.011604795 -0.08339376
-0.022235652 -0.053134747 -0.052143853 0.22633342 0.0010031721 -0.102050915 -0.019476129 -0.055584654
0.17009069
00000000: b6fc 06bc a1ab a7bd 09ef 90bd 890a 37ba
00000010: 179e aebd 7a31 8d3d 9c62 0bbc 67df 37bd
00000020: 7124 a9bd 8c61 88bd 9ad2 333c 2885 b93c
00000030: 2672 15be 0335 bcbd 0a22 3ebc 59ca aabd
00000040: 8b27 b6bc d2a3 59bd cb94 55bd f3c3 673e
00000050: df7c 833a 1200 d1bd 678c 9fbc bcac 63bd
00000060: 412c 2e3e

tcn.network.1.conv1.weight_g f4 [25, 1, 1]
0.5720842 0.52574843 0.55144984 0.8075701 0.5250188 0.75101084 0.51359975 0.5012502
0.5143658 0.52257794 0.7758415 0.54589266 0.48477998 0.5029219 0.6035742 0.5988798
0.5278887 0.56997544 0.54375315 0.66994965 0.57373625 0.53766465 0.5405565 0.5441364
0.78452003
00000000: 1c74 123f 7397 063f d12b 0d3f eabc 4e3f
00000010: a267 063f 3f42 403f 467b 033f ef51 003f
00000020: 7aad 033f abc7 053f 8c9d 463f 9fbf 0b3f
00000030: 1535 f83e 7dbf 003f d783 1a3f 3050 193f
00000040: b723 073f e9e9 113f 6833 0b3f d281 2b3f
00000050: 61e0 123f 64a4 093f e961 0a3f 864c 0b3f
00000060: 4ed6 483f

tcn.network.1.conv1.weight_v f4 [25, 25, 7]
-0.038289774 -0.038108803 0.08148262 0.047141466 0.032948174 -0.015511753 0.050464068 0.055444866
0.04379209 -0.013653907 -0.062564164 -0.07242573 -0.06027032 -0.07462028 0.031031473 0.030333519
-0.059232462 -0.06883457 0.034754686 0.015326526 -0.011530093 -0.01750231 -0.013402302 0.04270446
-0.06293569 -0.038757134 0.0739602 -0.045133263 -0.00334502 0.08437097 0.08040742 -0.017079761
-0.012804651 0.013182437 -0.051291704 -0.057632454 -0.006593762 0.02394058 0.022207139 -0.06134771
-0.0809871 -0.03485834 -0.03358453 0.00993863 -0.06595369 -0.040497266 0.011051382 -0.004424019
0.0020633903 -0.12909073 0.04826392 -0.06809804 0.02759137 0.019108517 -0.00263355 -0.11372616
-0.016644375 0.026464427 0.03935928 0.032995425 -0.049153313 -0.014360144 0.040505465 -0.040193226
-0.00643433 -0.0002730073 0.03410685 -0.0020784137 -0.07572343 0.029245911 -0.0241474 0.06411919
0.0578622 0.017673252 0.024100898 -0.028358288 0.029604841 -0.0040325574 -0.0629602 0.04476557
-0.064772286 -0.04382003 -0.07764939 -0.021549145 0.028326666 -0.037134342 0.049346346 0.048840065
0.031790342 -0.016935222 -0.08196381 0.044402797 -0.0039812345 0.044946227 -0.061635476 0.042558443
-0.062559925 -0.07540686 -3.2135128e-07 0.08950736 -0.07676384 0.005816727 0.04287857 -7.936767e-08
0.007177694 0.053674713 -0.023587894 0.022666356 -0.047127057 0.010427731 0.059833333 -0.060066763
-0.05676784 -0.09688319 0.04274912 -0.01916669 -0.023068376 -0.050421044 -0.10151131 -0.056285754
0.06382054 0.08636109 -0.03302265 -0.06862107 0.061476376 -0.030894358 0.06637131 -0.030041179
-0.07886884 -0.07780939 0.021401603 -0.065475844 0.03168119 -0.077737756 -0.0013163754 -0.032689612
0.015226402 -0.05329283 -0.003066944 -0.07076959 -0.023039527 -0.08268405 -0.009153187 -0.04312217
-0.021631427 -0.0375291 0.019757839 -0.06698636 -0.017688898 -0.08036449 -0.08324788 0.014099702
-0.0114801405 -0.0124942865 -0.01905411 -0.0033966047 0.069764085 0.06089107 -0.04725314 -0.08359282
-0.12819058 0.06319727 -0.047773805 0.0141007425 0.03142062 -0.04033666 0.0518218 0.0018690166
-0.041231744 0.04897695 0.031386115 0.08568447 -0.035372887 0.06187938 -0.07843634 0.057973243
-0.023850026 0.04028324 -0.054798774 0.063009 -0.06389217 -0.053508367 0.066227496 0.03849948
-0.02506743 0.011494328 0.025874568 -0.023521481 -0.025153106 0.027080076 -0.041602768 0.022738246
0.065894164 0.052925177 -0.00060626527 0.04188533 -0.016052911 0.0676138 0.09789481 0.06452927
0.0058062426 0.05336283 0.05685636 -0.016662208 -0.019976718 -0.06864982 0.0051911725 -0.008460514
0.06211394 0.020246752 -0.08925438 -0.057180647 -0.081700295 -0.06233135 -0.032272756 -0.11703019
-0.081556484 -0.014848052 -0.015610072 0.068505764 0.046140082 -0.032518998 0.04722678 -0.029620087
-0.06627874 -0.018431067 -0.07053812 0.03138125 -0.055772737 -0.10608237 0.024962394 -0.070709944
0.0095578125 -0.05428834 0.0063146767 -0.058895532 -0.041968253 0.016997615 0.041917067 -0.030839879
0.0583044 -0.016488213 -0.05907737 -0.05909013 -0.013864044 0.075429134 0.097587585 0.06639715
0.04468446 -0.07489678 0.048574902 0.076958224 0.026410965 -0.016950272 0.05966162 -0.027840855
00000000: bdd5 1cbd fa17 1cbd 5ce0 a63d 6917 413d
00000010: aaf4 063d 0225 7ebc 69b3 4e3d 281a 633d
00000020: 565f 333d a3b4 5fbc a421 80bd f153 94bd
00000030: 03de 76bd 84d2 98bd b735 fe3c 007e f83c
00000040: bd9d 72bd 24f9 8cbd ee5a 0e3d 1c1c 7b3c
00000050: b7e8 3cbc 0161 8fbc 5495 5bbc dfea 2e3d
00000060: 6de4 80bd cdbf 1ebd 7278 973d a8dd 38bd
00000070: 2038 5bbb b0ca ac3d a5ac a43d dbea 8bbc
00000080: 99ca 51bc 26fb 573c 4017 52bd 0210 6cbd
00000090: 7c10 d8bb 091f c43c bfeb b53c bd47 7bbd
000000a0: 91dc a5bd 9ec7 0ebd ef8f 09bd a3d5 223c
000000b0: ba12 87bd 76e0 25bd db10 353c 5cf7 90bb
000000c0: f239 073b 5c30 04be 63b0 453d fc76 8bbd
000000d0: 4c07 e23c 7789 9c3c a397 2cbb 43e9 e8bd
000000e0: c959 88bc edcb d83c 3237 213d 3626 073d
000000f0: fc54 49bd cf46 6bbc 0fe9 253d a7a1 24bd
00000100: 12d7 d2bb 6b22 8fb9 a0b3 0b3d ff35 08bb
00000110: e314 9bbd 1f95 ef3c c5d0 c5bc ec50 833d
00000120: ea00 6d3d 7fc7 903c 3f6f c53c a44f e8bc
00000130: da85 f23c 8b23 84bb 47f1 80bd 1a5c 373d
00000140: 55a7 84bd a27c 33bd a506 9fbd d587 b0bc
00000150: 530d e83c 2e1a 18bd 651f 4a3d 850c 483d
00000160: 9736 023d bcbb 8abc a4dc a7bd b5df 353d
00000170: 0475 82bb 8919 383d 7b75 7cbd c351 2e3d
00000180: 6b1f 80bd e96e 9abd 2f86 acb4 a24f b73d
00000190: 5c36 9dbd 3e9a be3b 70a1 2f3d d770 aab3
000001a0: dc32 eb3b 04da 5b3d 663b c1bc cbae b93c
000001b0: 4d08 41bd 13d9 2a3c cc13 753d 9108 76bd
000001c0: 6585 68bd b26a c6bd b419 2f3d 7603 9dbc
000001d0: e4f9 bcbc 4c86 4ebd 29e5 cfbd e48b 66bd
000001e0: 58b4 823d 15de b03d c242 07bd 3489 8cbd
000001f0: a7ce 7b3d 2a16 fdbc aeed 873d eb18 f6bc
00000200: fd85 a1bd 885a 9fbd 6a52 af3c 3318 86bd
00000210: 23c4 013d f934 9fbd 3b8a acba 8be5 05bd
00000220: 2978 793c 9549 5abd c8fe 48bb a6ef 90bd
00000230: 64bd bcbc 4156 a9bd 40f7 15bc dfa0 30bd
00000240: 6434 b1bc 1db8 19bd 31db a13c 2530 89bd
00000250: 4fe8 90bc 2396 a4bd dd7d aabd 7002 673c
00000260: 3317 3cbc d6b4 4cbc 5d17 9cbc 9299 5ebb
00000270: 79e0 8e3d ea68 793d 828c 41bd b632 abbd
00000280: 6444 03be 926d 813d 77ae 43bd cd06 673c
00000290: e8b2 003d 0e38 25bd 1943 543d caf9 f43a
000002a0: 9ee2 28bd 0e9c 483d ba8e 003d 577b af3d
000002b0: 29e3 10bd 3c75 7d3d 3ba3 a0bd 5a75 6d3d
000002c0: 2161 c3bc 0a00 253d ae74 60bd dd0a 813d
000002d0: e6d9 82bd 972b 5bbd 48a2 873d a1b1 1d3d
000002e0: 365a cdbc b552 3c3c e7f6 d33c 1fb0 c0bc
000002f0: e30d cebc 09d7 dd3c aa67 2abd 8f45 ba3c
00000300: 85f3 863d 12c8 583d c6ed 1eba f48f 2b3d
00000310: 6581 83bc 1b79 8a3d 137d c83d ec27 843d
00000320: 4b42 be3b fc92 5a3d 37e2 683d 2f7f 88bc
00000330: 37a6 a3bc 4798 8cbd b61a aa3b f89d 0abc
00000340: 306b 7e3d 84dc a53c 00cb b6bd 4136 6abd
00000350: 7c52 a7bd 284f 7fbd 7030 04bd 86ad efbd
00000360: 1607 a7bd 3e45 73bc 63c1 7fbc c04c 8c3d
00000370: 62fd 3c3d a432 05bd de70 413d d3a5 f2bc
00000380: 26bd 87bd c0fc 96bc 4a76 90bd a089 003d
00000390: f471 64bd b741 d9bd ef7d cc3c 60d0 90bd
000003a0: 5f98 1c3c 735d 5ebd 59eb ce3b 713c 71bd
000003b0: e7e6 2bbd 953e 8b3c 3bb1 2b3d eaa3 fcbc
000003c0: 98d0 6e3d 4a12 87bc 1dfb 71bd 7e08 72bd
000003d0: 0426 63bc 977a 9a3d 00dc c73d 3bfb 873d
000003e0: 0d07 373d 7c63 99bd 7af6 463d 469c 9d3d
000003f0: cf5b d83c 4cdb 8abc be5f 743d 8112 e4bc

tcn.network.1.conv2.bias f4 [25]
-0.07065527 -0.03917511 -0.08887064 -0.11736316 0.097725846 -0.07713194 -0.08054704 -0.058899015
-0.0949191 -0.05518191 0.43219006 -0.067516245 -0.044676848 -0.063832045 0.050881993 -0.06670253
-0.039838724 -0.042989567 0.01169569 0.0617981 -0.0007296962 -0.013358608 -0.0074802022 -0.0040339213
-0.07910308
00000000: b6b3 90bd 1576 20bd cf01 b6bd 195c f0bd
00000010: 7d24 c83d 5af7 9dbd d9f5 a4bd 1840 71bd
00000020: f264 c2bd 6d06 62bd 0448 dd3e f545 8abd
00000030: 12ff 36bd 60ba 82bd a369 503d 569b 88bd
00000040: ee2d 23bd d415 30bd 489f 3f3c 0120 7d3d
00000050: 1549 3fba 10de 5abc 7c1c f5bb fc2e 84bb
00000060: cc00 a2bd

tcn.network.1.conv2.weight_g f4 [25, 1, 1]
0.48564038 0.5657627 0.48434386 0.52304447 0.8212289 0.5115108 0.5429005 0.551005
0.47934043 0.5352332 1.3220055 0.53708655 0.49821723 0.5672014 0.5941652 0.55351
0.5487048 0.5127551 0.45901477 0.67089725 0.64875525 0.5472374 0.5628276 0.5441591
0.44713822
00000000: dba5 f83e d3d5 103f ebfb f73e 3ee6 053f
00000010: 0f3c 523f 5ff2 023f 87fb 0a3f aa0e 0d3f
00000020: 1c6c f53e 0b05 093f 7a37 a93f 817e 093f
00000030: 5416 ff3e 1c34 113f 361b 183f d5b2 0d3f
00000040: eb77 0c3f eb43 033f fc03 eb3e ecbf 2b3f
00000050: d314 263f c017 0c3f 7815 103f 034e 0b3f
00000060: 4def e43e

tcn.network.1.conv2.weight_v f4 [25, 25, 7]
-0.0034639542 -0.069385305 -0.010688906 -0.06145682 -0.05554811 -0.008297846 0.014075067 -0.08289663
-0.025871634 -0.008037933 -0.03391542 -0.039313134 -0.012316508 -0.09552688 -0.025191542 0.01558274
-0.078868404 0.07324165 -0.03028947 0.006884057 0.04345491 -0.015199607 -0.022127269 -0.03040767
-0.0827957 -0.09069143 -0.15089886 -0.024623394 -0.02285818 0.0078732055 -0.030924968 -0.02738469
0.024601415 -0.028772455 -0.049550295 -0.11081951 -0.12679982 -0.12749147 -0.034486365 -0.036609422
0.0005267065 -0.05713039 0.023910973 -0.06763131 0.032382954 -0.007141583 -0.00917624 -0.06886995
0.014031696 -0.095980965 0.03215149 -0.068567246 -0.056637347 -0.023770185 0.027256742 -0.10772402
-0.07920738 -0.029262038 0.12594505 0.13060637 -0.107608855 -0.13399321 -0.12662692 -0.09414759
-0.057395585 0.11610911 -0.057026196 0.11242241 -0.026399115 0.062229022 -0.060709808 -0.040784787
0.035971608 -0.021193022 -0.11066415 -0.047228824 -0.0682845 -0.065284215 -0.032197896 -0.027091177
0.070825554 0.01367656 -0.06125576 -0.057781875 0.06331283 -0.095776305 -0.120752096 0.083555005
-0.11337571 -0.10977675 -0.027219983 -0.093280375 -0.09456582 0.0762161 -0.12005532 -0.024979625
0.07432015 0.13646427 -0.124938674 0.11769612 0.028106757 -0.10164375 0.06009863 0.09169381
-0.058635186 0.06891555 -0.097284704 0.04534257 -0.088149585 0.05134646 -0.04014482 -0.013902624
0.0430256 0.10178771 0.07977109 -0.022811951 -0.031946745 0.049381435 -0.11873889 0.12743779
0.10334265 -0.059054364 0.12322358 -0.13436511 0.08317019 0.08951657 0.0023752635 -0.08750256
-0.058799934 -0.09305906 0.0063913665 -0.0026835357 0.01485398 -0.07294236 -0.019943876 -0.017065706
-0.0149553 -0.04141774 -0.06825695 -0.03502695 -0.016541075 -0.087799095 0.013645228 0.004819908
-0.0549393 0.049293004 0.036212344 0.119276404 0.0855844 -0.03840309 -0.10770639 -0.018380415
-0.025394123 -0.062001195 -0.05268247 0.017478188 -0.09628267 -0.03794004 -0.04130072 0.036721054
0.0385132 0.05232826 0.0007035634 -0.080290064 0.02749574 0.018969065 -0.06916078 0.0523814
-0.08886553 0.039054394 -0.08289941 -0.07045726 -0.111978106 -0.091671415 -0.034846153 0.035362042
0.036296003 0.09111231 -0.05348018 0.09241017 -0.047505338 0.044318587 -0.022033779 -0.047535554
-0.02068935 -0.048689157 0.030809917 0.05569149 -0.01937202 0.07116272 -0.056818113 0.07263465
-0.016231177 0.114593014 -0.057865564 0.07080661 -0.055158112 0.020787757 0.0010445506 -0.03469558
0.027107604 -0.050857145 0.012219787 0.09692461 -0.04095988 0.07485597 0.04775473 0.06488252
-0.06665588 0.08352875 0.032447044 -0.08689799 0.024234299 -0.056785278 -0.01914416 -0.051090684
-0.0154784545 0.055503126 0.04170579 -0.010558509 -0.022372188 0.0040608807 -0.01971664 -0.018740846
-0.062280692 -0.07161278 0.016030462 -0.07580531 0.039295044 -0.02291164 -0.12178792 0.044138078
-0.07365152 -0.070124544 0.0070510963 -0.068523236 0.07103532 -0.061663922 0.077449575 0.07057836
0.06828099 -0.061236005 -0.073577255 -0.07368101 -0.07058871 -0.07009502 -0.04953814 -0.07126798
-0.02603218 -0.047761995 0.0056785555 -0.09505622 -0.06757497 -0.085479066 -0.04752927 -0.063632704
00000000: 8203 63bb e219 8ebd 8520 2fbc 26ba 7bbd
00000010: 6a86 63bd b0f3 07bc 1c9b 663c b5c5 a9bd
00000020: c0f0 d3bc 89b1 03bc e5ea 0abd cf06 21bd
00000030: 2ecb 49bc 99a3 c3bd 7e5e cebc c04e 7f3c
00000040: c285 a1bd b8ff 953d 9f21 f8bc a893 e13b
00000050: c7fd 313d c607 79bc 3f44 b5bc 8219 f9bc
00000060: cb90 a9bd 6ebc b9bd 3b85 1abe 00b7 c9bc
00000070: 1441 bbbc 9efe 003c 5c56 fdbc db55 e0bc
00000080: e888 c93c 36b4 ebbc 40f5 4abd 57f5 e2bd
00000090: d0d7 01be 208d 02be 9341 0dbd c3f3 15bd
000000a0: ad12 0a3a 8e01 6abd f2e0 c33c 4982 8abd
000000b0: fda3 043d f103 eabb f157 16bc b00b 8dbd
000000c0: 33e5 653c ab91 c4bd 48b1 033d fc6c 8cbd
000000d0: 90fc 67bd b1b9 c2bc 8849 df3c 699e dcbd
000000e0: 7b37 a2bd f1b6 efbc bdf7 003e adbd 053e
000000f0: 0862 dcbd 8435 09be 7daa 01be 74d0 c0bd
00000100: a217 6bbd 9dca ed3d 4d94 69bd b83d e63d
00000110: f542 d8bc dce3 7e3d d9aa 78bd f30d 27bd
00000120: f756 133d fd9c adbc e3a3 e2bd 0373 41bd
00000130: bed8 8bbd bbb3 85bd f1e1 03bd 51ee ddbc
00000140: fd0c 913d a613 603c 52e7 7abd b0ac 6cbd
00000150: 28aa 813d 5e26 c4bd e04c f7bd e31e ab3d
00000160: 8631 e8bd a2d2 e0bd 71fc debc c809 bfbd
00000170: baab c1bd 3017 9c3d 90df f5bd 12a2 ccbc
00000180: 2a35 983d 4abd 0b3e d9df ffbd aa0a f13d
00000190: 2440 e63c 992a d0bd fb29 763d f7c9 bb3d
000001a0: 732b 70bd 9923 8d3d 343d c7bd 21b9 393d
000001b0: c587 b4bd aa50 523d e56e 24bd d5c7 63bc
000001c0: 9d3b 303d 1376 d03d 065f a33d 21e0 babc
000001d0: 97da 02bd 3044 4a3d 602d f3bd 0d7f 023e
000001e0: 50a5 d33d fde2 71bd a55c fc3d 0297 09be
000001f0: 2255 aa3d 7754 b73d 4faa 1b3b 8b34 b3bd
00000200: 33d8 70bd c095 bebd ab6e d13b 42de 2fbb
00000210: 1c5e 733c ce62 95bd 5761 a3bc 61cd 8bbc
00000220: 1307 75bc a6a5 29bd 4dca 8bbd 6b78 0fbd
00000230: 2681 87bc 03d0 b3bd 3c90 5f3c 52f0 9d3b
00000240: 0808 61bd 76e7 493d 6553 143d 3047 f43d
00000250: e046 af3d 8f4c 1dbd 2b95 dcbd 8692 96bc
00000260: 5607 d0bc f7f4 7dbd 93c9 57bd 6b2e 8f3c
00000270: d92f c5bd 0467 1bbd f22a 29bd d168 163d
00000280: 04c0 1d3d 2856 563d 576f 383a 1e6f a4bd
00000290: bf3e e13c 0365 9b3c 2ba4 8dbd e18d 563d
000002a0: 22ff b5bd 80f7 1f3d 2ac7 a9bd e54b 90bd
000002b0: c754 e5bd 39be bbbd d7ba 0ebd cad7 103d
000002c0: 1eab 143d 1799 ba3d 090e 5bbd 8b41 bd3d
000002d0: f594 42bd 6887 353d 2f80 b4bc a4b4 42bd
000002e0: b67c a9bc 486e 47bd 1465 fc3c c31c 643d
000002f0: 12b2 9ebc c3bd 913d 1cba 68bd 7ac1 943d
00000300: 3ff7 84bc beaf ea3d 7104 6dbd 0e03 913d
00000310: 79ed 61bd 164b aa3c 4de9 883a f41c 0ebd
00000320: c410 de3c 954f 50bd 8035 483c 6980 c63d
00000330: 8cc5 27bd 164e 993d 779a 433d 20e1 843d
00000340: e182 88bd 1f11 ab3d 31e7 043d 93f7 b1bd
00000350: 0287 c63c ae97 68bd 37d4 9cbc 7744 51bd
00000360: 5899 7dbc 3f57 633d b1d3 2a3d 99fd 2cbc
00000370: e145 b7bc 2311 853b ca84 a1bc 6786 99bc
00000380: 0a1a 7fbd b9a9 92bd 5152 833c d03f 9bbd
00000390: d7f3 203d 31b1 bbbc f26b f9bd 21ca 343d
000003a0: 9cd6 96bd 759d 8fbd e20c e73b e955 8cbd
000003b0: f77a 913d 4f93 7cbd e29d 9e3d 638b 903d
000003c0: e7d6 8b3d 9bd2 7abd acaf 96bd 12e6 96bd
000003d0: d090 90bd fa8d 8fbd 81e8 4abd f2f4 91bd
000003e0: 7041 d5bc 15a2 43bd 2d13 ba3b d6ac c2bd
000003f0: bf64 8abd a60f afbd 0dae 42bd dd51 82bd

tcn.network.1.net.0.bias f4 [25]
-0.008238962 -0.081870325 -0.07076842 -0.0006982466 -0.08526247 0.068942025 -0.008507397 -0.044890787
-0.08258904 -0.066592306 0.010975504 0.022646502 -0.14594325 -0.09189799 -0.011604795 -0.08339376
-0.022235652 -0.053134747 -0.052143853 0.22633342 0.0010031721 -0.102050915 -0.019476129 -0.055584654
0.17009069
00000000: b6fc 06bc a1ab a7bd 09ef 90bd 890a 37ba
00000010: 179e aebd 7a31 8d3d 9c62 0bbc 67df 37bd
00000020: 7124 a9bd 8c61 88bd 9ad2 333c 2885 b93c
00000030: 2672 15be 0335 bcbd 0a22 3ebc 59ca aabd
00000040: 8b27 b6bc d2a3 59bd cb94 55bd f3c3 673e
00000050: df7c 833a 1200 d1bd 678c 9fbc bcac 63bd
00000060: 412c 2e3e

tcn.network.1.net.0.weight_g f4 [25, 1, 1]
0.5720842 0.52574843 0.55144984 0.8075701 0.5250188 0.75101084 0.51359975 0.5012502
0.5143658 0.52257794 0.7758415 0.54589266 0.48477998 0.5029219 0.6035742 0.5988798
0.5278887 0.56997544 0.54375315 0.66994965 0.57373625 0.53766465 0.5405565 0.5441364
0.78452003
00000000: 1c74 123f 7397 063f d12b 0d3f eabc 4e3f
00000010: a267 063f 3f42 403f 467b 033f ef51 003f
00000020: 7aad 033f abc7 053f 8c9d 463f 9fbf 0b3f
00000030: 1535 f83e 7dbf 003f d783 1a3f 3050 193f
00000040: b723 073f e9e9 113f 6833 0b3f d281 2b3f
00000050: 61e0 123f 64a4 093f e961 0a3f 864c 0b3f
00000060: 4ed6 483f

tcn.network.1.net.0.weight_v f4 [25, 25, 7]
-0.038289774 -0.038108803 0.08148262 0.047141466 0.032948174 -0.015511753 0.050464068 0.055444866
0.04379209 -0.013653907 -0.062564164 -0.07242573 -0.06027032 -0.07462028 0.031031473 0.030333519
-0.059232462 -0.06883457 0.034754686 0.015326526 -0.011530093 -0.01750231 -0.013402302 0.04270446
-0.06293569 -0.038757134 0.0739602 -0.045133263 -0.00334502 0.08437097 0.08040742 -0.017079761
-0.012804651 0.013182437 -0.051291704 -0.057632454 -0.006593762 0.02394058 0.022207139 -0.06134771
-0.0809871 -0.03485834 -0.03358453 0.00993863 -0.06595369 -0.040497266 0.011051382 -0.004424019
0.0020633903 -0.12909073 0.04826392 -0.06809804 0.02759137 0.019108517 -0.00263355 -0.11372616
-0.016644375 0.026464427 0.03935928 0.032995425 -0.049153313 -0.014360144 0.040505465 -0.040193226
-0.00643433 -0.0002730073 0.03410685 -0.0020784137 -0.07572343 0.029245911 -0.0241474 0.06411919
0.0578622 0.017673252 0.024100898 -0.028358288 0.029604841 -0.0040325574 -0.0629602 0.04476557
-0.064772286 -0.04382003 -0.07764939 -0.021549145 0.028326666 -0.037134342 0.049346346 0.048840065
0.031790342 -0.016935222 -0.08196381 0.044402797 -0.0039812345 0.044946227 -0.061635476 0.042558443
-0.062559925 -0.07540686 -3.2135128e-07 0.08950736 -0.07676384 0.005816727 0.04287857 -7.936767e-08
0.007177694 0.053674713 -0.023587894 0.022666356 -0.047127057 0.010427731 0.059833333 -0.060066763
-0.05676784 -0.09688319 0.04274912 -0.01916669 -0.023068376 -0.050421044 -0.10151131 -0.056285754
0.06382054 0.08636109 -0.03302265 -0.06862107 0.061476376 -0.030894358 0.06637131 -0.030041179
-0.07886884 -0.07780939 0.021401603 -0.065475844 0.03168119 -0.077737756 -0.0013163754 -0.032689612
0.015226402 -0.05329283 -0.003066944 -0.07076959 -0.023039527 -0.08268405 -0.009153187 -0.04312217
-0.021631427 -0.0375291 0.019757839 -0.06698636 -0.017688898 -0.08036449 -0.08324788 0.014099702
-0.0114801405 -0.0124942865 -0.01905411 -0.0033966047 0.069764085 0.06089107 -0.04725314 -0.08359282
-0.12819058 0.06319727 -0.047773805 0.0141007425 0.03142062 -0.04033666 0.0518218 0.0018690166
-0.041231744 0.04897695 0.031386115 0.08568447 -0.035372887 0.06187938 -0.07843634 0.057973243
-0.023850026 0.04028324 -0.054798774 0.063009 -0.06389217 -0.053508367 0.066227496 0.03849948
-0.02506743 0.011494328 0.025874568 -0.023521481 -0.025153106 0.027080076 -0.041602768 0.022738246
0.065894164 0.052925177 -0.00060626527 0.04188533 -0.016052911 0.0676138 0.09789481 0.06452927
0.0058062426 0.05336283 0.05685636 -0.016662208 -0.019976718 -0.06864982 0.0051911725 -0.008460514
0.06211394 0.020246752 -0.08925438 -0.057180647 -0.081700295 -0.06233135 -0.032272756 -0.11703019
-0.081556484 -0.014848052 -0.015610072 0.068505764 0.046140082 -0.032518998 0.04722678 -0.029620087
-0.06627874 -0.018431067 -0.07053812 0.03138125 -0.055772737 -0.10608237 0.024962394 -0.070709944
0.0095578125 -0.05428834 0.0063146767 -0.058895532 -0.041968253 0.016997615 0.041917067 -0.030839879
0.0583044 -0.016488213 -0.05907737 -0.05909013 -0.013864044 0.075429134 0.097587585 0.06639715
0.04468446 -0.07489678 0.048574902 0.076958224 0.026410965 -0.016950272 0.05966162 -0.027840855
00000000: bdd5 1cbd fa17 1cbd 5ce0 a63d 6917 413d
00000010: aaf4 063d 0225 7ebc 69b3 4e3d 281a 633d
00000020: 565f 333d a3b4 5fbc a421 80bd f153 94bd
00000030: 03de 76bd 84d2 98bd b735 fe3c 007e f83c
00000040: bd9d 72bd 24f9 8cbd ee5a 0e3d 1c1c 7b3c
00000050: b7e8 3cbc 0161 8fbc 5495 5bbc dfea 2e3d
00000060: 6de4 80bd cdbf 1ebd 7278 973d a8dd 38bd
00000070: 2038 5bbb b0ca ac3d a5ac a43d dbea 8bbc
00000080: 99ca 51bc 26fb 573c 4017 52bd 0210 6cbd
00000090: 7c10 d8bb 091f c43c bfeb b53c bd47 7bbd
000000a0: 91dc a5bd 9ec7 0ebd ef8f 09bd a3d5 223c
000000b0: ba12 87bd 76e0 25bd db10 353c 5cf7 90bb
000000c0: f239 073b 5c30 04be 63b0 453d fc76 8bbd
000000d0: 4c07 e23c 7789 9c3c a397 2cbb 43e9 e8bd
000000e0: c959 88bc edcb d83c 3237 213d 3626 073d
000000f0: fc54 49bd cf46 6bbc 0fe9 253d a7a1 24bd
00000100: 12d7 d2bb 6b22 8fb9 a0b3 0b3d ff35 08bb
00000110: e314 9bbd 1f95 ef3c c5d0 c5bc ec50 833d
00000120: ea00 6d3d 7fc7 903c 3f6f c53c a44f e8bc
00000130: da85 f23c 8b23 84bb 47f1 80bd 1a5c 373d
00000140: 55a7 84bd a27c 33bd a506 9fbd d587 b0bc
00000150: 530d e83c 2e1a 18bd 651f 4a3d 850c 483d
00000160: 9736 023d bcbb 8abc a4dc a7bd b5df 353d
00000170: 0475 82bb 8919 383d 7b75 7cbd c351 2e3d
00000180: 6b1f 80bd e96e 9abd 2f86 acb4 a24f b73d
00000190: 5c36 9dbd 3e9a be3b 70a1 2f3d d770 aab3
000001a0: dc32 eb3b 04da 5b3d 663b c1bc cbae b93c
000001b0: 4d08 41bd 13d9 2a3c cc13 753d 9108 76bd
000001c0: 6585 68bd b26a c6bd b419 2f3d 7603 9dbc
000001d0: e4f9 bcbc 4c86 4ebd 29e5 cfbd e48b 66bd
000001e0: 58b4 823d 15de b03d c242 07bd 3489 8cbd
000001f0: a7ce 7b3d 2a16 fdbc aeed 873d eb18 f6bc
00000200: fd85 a1bd 885a 9fbd 6a52 af3c 3318 86bd
00000210: 23c4 013d f934 9fbd 3b8a acba 8be5 05bd
00000220: 2978 793c 9549 5abd c8fe 48bb a6ef 90bd
00000230: 64bd bcbc 4156 a9bd 40f7 15bc dfa0 30bd
00000240: 6434 b1bc 1db8 19bd 31db a13c 2530 89bd
00000250: 4fe8 90bc 2396 a4bd dd7d aabd 7002 673c
00000260: 3317 3cbc d6b4 4cbc 5d17 9cbc 9299 5ebb
00000270: 79e0 8e3d ea68 793d 828c 41bd b632 abbd
00000280: 6444 03be 926d 813d 77ae 43bd cd06 673c
00000290: e8b2 003d 0e38 25bd 1943 543d caf9 f43a
000002a0: 9ee2 28bd 0e9c 483d ba8e 003d 577b af3d
000002b0: 29e3 10bd 3c75 7d3d 3ba3 a0bd 5a75 6d3d
000002c0: 2161 c3bc 0a00 253d ae74 60bd dd0a 813d
000002d0: e6d9 82bd 972b 5bbd 48a2 873d a1b1 1d3d
000002e0: 365a cdbc b552 3c3c e7f6 d33c 1fb0 c0bc
000002f0: e30d cebc 09d7 dd3c aa67 2abd 8f45 ba3c
00000300: 85f3 863d 12c8 583d c6ed 1eba f48f 2b3d
00000310: 6581 83bc 1b79 8a3d 137d c83d ec27 843d
00000320: 4b42 be3b fc92 5a3d 37e2 683d 2f7f 88bc
00000330: 37a6 a3bc 4798 8cbd b61a aa3b f89d 0abc
00000340: 306b 7e3d 84dc a53c 00cb b6bd 4136 6abd
00000350: 7c52 a7bd 284f 7fbd 7030 04bd 86ad efbd
00000360: 1607 a7bd 3e45 73bc 63c1 7fbc c04c 8c3d
00000370: 62fd 3c3d a432 05bd de70 413d d3a5 f2bc
00000380: 26bd 87bd c0fc 96bc 4a76 90bd a089 003d
00000390: f471 64bd b741 d9bd ef7d cc3c 60d0 90bd
000003a0: 5f98 1c3c 735d 5ebd 59eb ce3b 713c 71bd
000003b0: e7e6 2bbd 953e 8b3c 3bb1 2b3d eaa3 fcbc
000003c0: 98d0 6e3d 4a12 87bc 1dfb 71bd 7e08 72bd
000003d0: 0426 63bc 977a 9a3d 00dc c73d 3bfb 873d
000003e0: 0d07 373d 7c63 99bd 7af6 463d 469c 9d3d
000003f0: cf5b d83c 4cdb 8abc be5f 743d 8112 e4bc
