TCN/mnist_pixel/models/aug_k7l6.onnx (onnx, 203775 bytes, 28 tensors)

183 f4 [25, 1, 7]
000000 a0 04 46 bc b7 2e 87 3e a4 cf 4c be 13 46 c9 be
       -0.012086064 0.26402828 -0.20001084 -0.39311275
000010 d0 ee 9a 3c de 91 94 3e f2 b9 4f 3d 62 77 e4 be
       0.018912703 0.29017538 0.05071444 -0.44622332
000020 43 ff 05 3f ab f3 ad 3e bd 63 ab be 00 c2 83 be
       0.52342623 0.33974966 -0.33474532 -0.25733948
000030 ee 43 5b 3d ed ce 44 3e 7c 13 98 3e cb f4 5e 3e
       0.05353158 0.19219561 0.29702365 0.21773069
000040 2d 36 41 be 38 7b 53 be 8c 78 c3 be 03 4a cb be
       -0.18868323 -0.20652473 -0.38177907 -0.39704904
000050 a2 11 cd 3d 81 68 09 bf 15 2d 82 3d 66 da a0 3d
       0.10013129 -0.53675085 0.06356255 0.07854156
000060 ed 97 5a 3e 3f 60 a6 3d 94 6c 98 3d 2f df 1a bf
       0.21347018 0.08123826 0.07442585 -0.604968
000070 eb 9b 59 3c 41 55 20 bd 72 f4 ad 3e ad 53 99 be
       0.013281803 -0.039143804 0.3397556 -0.29946652
000080 c2 f2 fa be d7 ce ef 3e 9b e2 cb 3c dd 08 cc be
       -0.49013335 0.46837494 0.024888327 -0.39850512
000090 44 86 1e be 69 f2 39 be 56 6e 52 be d5 9e 75 be
       -0.15480906 -0.18158878 -0.20549902 -0.23986371
0000a0 52 4d 27 be 00 7d 72 3e 70 3c 03 be 41 1b 87 3e
       -0.16338089 0.23680496 -0.12816024 0.2638798
0000b0 a6 64 b8 3e fa 49 0c bf b1 ad ee be c8 27 1d 3f
       0.3601429 -0.5480038 -0.4661689 0.61388826
0000c0 64 58 05 3d 67 e8 c2 3e 95 ff 37 be 35 ad e0 be
       0.032555 0.38067934 -0.1796859 -0.43882146
0000d0 ac ee a1 3d 62 3c a1 3e e0 5b a9 be 52 32 b7 3e
       0.07906851 0.3149138 -0.33077908 0.3578058
0000e0 dd 3d 95 be 1b 86 65 3e a8 08 06 3f a7 0f 70 be
       -0.2914876 0.22414438 0.5235696 -0.23443471
0000f0 ae 0a 03 bf 22 68 7a 3c 09 f6 a2 3e a8 e5 0a 3d
       -0.5118817 0.015283616 0.31828335 0.033910424
000100 10 d4 29 bd a7 42 4a be 3a 55 7c 3e c2 ea d5 bc
       -0.041462004 -0.19751988 0.24641886 -0.026112918
000110 c1 cc 44 3e 8f 9a 43 3e 4d 26 73 be d1 c2 77 3e
       0.19218732 0.19101928 -0.2374508 0.2419541
000120 da 1a ea 3d 8a 1a 1b be e3 37 ea 3d a0 eb 90 3d
       0.11430903 -0.15146843 0.11436441 0.07076192
000130 f8 94 db 3e 8f 90 4e 3c 52 cf c8 3c 1b 73 dc 3c
       0.42887092 0.012607708 0.02451292 0.026910355
000140 6d b5 20 3c 60 27 41 3e c4 63 f6 3d d5 31 a0 3d
       0.00980888 0.18862677 0.120307475 0.07822005
000150 d7 c0 0d bf 8b 85 47 be 19 a3 15 3e 29 74 a6 3e
       -0.55372375 -0.19484536 0.14612998 0.32510498
000160 4d dd b9 3e bd c9 29 be 1a 20 02 bf 7b 36 e4 be
       0.36301652 -0.16580863 -0.50830233 -0.44572815
000170 b2 1d 86 3c ee 88 c5 bc 23 29 81 bd 06 d7 01 3d
       0.016371582 -0.024113145 -0.06306674 0.031699203
000180 cb 42 43 bd d7 21 bb be b4 3f e7 bb 90 48 82 be
       -0.04767112 -0.36549255 -0.0070571546 -0.25445986
000190 81 74 86 3e 3f d4 36 3d 58 d5 ac bd 5a c4 a3 3e
       0.2626076 0.044636007 -0.084391296 0.31985742
0001a0 ed f6 8b 3e f9 91 f7 3e 08 d4 4a 3c 5f 58 7d 3e
       0.27336827 0.48353556 0.012379654 0.24740742
0001b0 56 2a 74 be c8 24 09 be 32 eb a6 bd 4e 09 a6 be
       -0.23844275 -0.13392937 -0.08150329 -0.32428974
0001c0 ca 44 ff 3e 98 cb 5b 3d a8 ba 50 3e 04 ae 53 bd
       0.4985717 0.05366096 0.20383704 -0.051679626
0001d0 6c 8a 14 bb 59 e1 5a 3e 5f c2 5d be 29 c2 c9 be
       -0.0022665514 0.21375026 -0.21656178 -0.39405945
0001e0 94 84 6f be e8 1b e2 bd d9 e3 43 3e 42 25 72 3e
       -0.23390418 -0.11040479 0.19129886 0.23647025
0001f0 fd a4 96 3e 28 f4 70 bd f1 22 c8 3e 0f fa 77 3d
       0.2942275 -0.058826596 0.39089158 0.06054121
000200 bf 49 e7 be 29 b0 a8 3e cc 1f 86 3e 7b 3a e1 be
       -0.4517345 0.329469 0.26196134 -0.4398993
000210 bc 9b 5b 3e 32 dd 93 3e e0 fc 82 3e 19 99 82 3e
       0.21446127 0.28879696 0.25583553 0.2550743
000220 93 23 cd 3c 0d 34 e6 3d 74 5b b6 bc 02 40 90 3d
       0.025041377 0.11240397 -0.022260405 0.070434585
000230 01 66 d9 3e 84 42 ac 3d 6c bc 99 3e f9 5a f3 38
       0.42460635 0.08411124 0.30026567 0.00011604088
000240 ab a4 00 be 5c bd 76 be 14 96 64 be d1 cd 7b be
       -0.12562816 -0.24095672 -0.22322875 -0.24590231
000250 a7 ac 6e 3e d9 25 e3 3e d8 ea d4 3d 8a dc c5 bd
       0.23308049 0.44364813 0.103963554 -0.09661205
000260 32 af 8a be 96 65 b9 be e5 a3 01 bd 4b 95 94 bd
       -0.27086788 -0.36210316 -0.031650443 -0.07255038
000270 35 58 ef be 73 7f 90 3d f7 b6 2d 3f db 45 68 3c
       -0.46746984 0.07055559 0.6785731 0.014176811
000280 34 1c f7 be 28 8f 62 be d2 cc 34 3e a1 92 95 3e
       -0.48263705 -0.22124922 0.17656258 0.2921343
000290 89 f2 8e be bf 37 31 bf 66 af 10 3f e1 6c 43 3d
       -0.27919415 -0.69225687 0.56517637 0.047711257
0002a0 c0 d3 d6 3e cd 36 bf be 17 5c b6 bb 53 65 62 3e
       0.41958427 -0.37346497 -0.005565177 0.22108965
0002b0 b6 4e 5c 3e 07 2a 83 be 8c ab a7 3e
       0.21514401 -0.25618002 0.32748067

186 f4 [25, 25, 7]
000000 13 1a 74 bd 05 7e 9f bd 25 a0 53 bc a5 a6 5e bc
       -0.05959518 -0.07787708 -0.012916599 -0.013589536
000010 49 96 3d ba b3 34 9d bc b2 90 97 3c ce a0 f0 bb
       -0.0007232172 -0.019190168 0.018501613 -0.007343388
000020 10 ef 9a bc b4 24 27 bd 95 2e 90 bd 4c 3d 51 3c
       -0.018912822 -0.040806487 -0.07040135 0.012770962
000030 cd ad d6 bb 2b 99 6a bc ba a9 38 bd 49 55 33 bd
       -0.0065514804 -0.014318745 -0.04508374 -0.043782506
000040 8d a4 0d 3d 11 53 93 3c f3 5e 8f bc dc ef a5 bb
       0.034580756 0.017983945 -0.01750133 -0.005063994
000050 94 e4 ac bc 51 cb 83 3a 7a 62 1a bd 84 e8 83 3d
       -0.021105088 0.00100551 -0.03769157 0.06440833
000060 ab ca 4e bd 47 64 85 3c 07 db 13 3d 47 40 22 bd
       -0.050486248 0.016283168 0.036097553 -0.03961208
000070 ab 29 56 bd ce bd 91 3d c5 c2 87 3d d3 a0 a2 3d
       -0.05228583 0.071162805 0.06628946 0.07940831
000080 4e f5 51 bd 04 5f 14 3d 9c e0 88 bd 00 9f 8e bd
       -0.05125933 0.036223426 -0.06683466 -0.069639206
000090 88 dd 70 bd e0 6e 90 3d 07 98 8e bd 7b 1c ae bc
       -0.05880502 0.07052398 -0.06962591 -0.021253815
0000a0 13 45 dd 3c 67 69 03 bd 25 15 e1 bc 95 83 5a bd
       0.027010476 -0.03208294 -0.027475903 -0.053348143
0000b0 ab 42 9f 3c 0c 45 db 3c c4 e1 31 3d 45 bb 88 3b
       0.01944097 0.026766323 0.043428198 0.004172715
0000c0 7c 0a 3f bd 00 16 82 3d 74 db d4 3c c7 06 d3 bc
       -0.046640858 0.063518524 0.02598355 -0.025760068
0000d0 e2 76 7c 3c fa 9c fb 3b 8b 4e 64 bd a6 43 98 bb
       0.015409203 0.007678625 -0.055738967 -0.004646736
0000e0 f2 06 a4 3b 8d 04 48 3d ab 55 79 ba c6 7f 8b 3c
       0.0050057108 0.048832465 -0.0009511362 0.0170287
0000f0 fe f3 3e bd 8e c1 5c bd 63 7e 4f 3d ce 54 da bb
       -0.046619408 -0.053895526 0.05065764 -0.0066629415
000100 65 55 7c bd e3 ad e0 bb 31 4b 66 3d 21 73 c3 3b
       -0.061604876 -0.0068566664 0.056224052 0.005964652
000110 49 22 67 3c 46 7f b4 3c c7 a3 37 bd 20 06 24 bd
       0.014107295 0.022033345 -0.044833925 -0.040044904
000120 9e 99 b2 bc 4a 66 2d 3d 1a 74 24 bd 1b c6 1c bd
       -0.021801766 0.04233388 -0.040149786 -0.038274866
000130 c0 33 00 bc 82 39 ac bd ce cc 30 bd 40 78 14 bd
       -0.007824838 -0.08409406 -0.043164067 -0.03624749
000140 07 c5 0a 3b f1 22 bc 3c f3 a2 9f 3c f1 ee 7b bd
       0.0021174566 0.02296588 0.01948688 -0.06150717
000150 14 52 a5 3c fd 5e ee bc 72 52 55 bd 81 95 60 bd
       0.02018074 -0.029098028 -0.05208058 -0.054830078
000160 13 67 98 bc 73 5c c8 3c 87 32 0b bd f3 a6 a3 3d
       -0.018603837 0.024458146 -0.033983734 0.079908274
000170 61 32 bc bc 2c 8f 37 bd 50 41 74 bd cd af 29 bd
       -0.022973241 -0.044814274 -0.0596326 -0.041427422
000180 75 88 a9 bc 98 22 cc bc 50 3d a5 bd d2 4e 8e bd
       -0.02069495 -0.02491884 -0.08068335 -0.069486275
000190 a5 84 40 bd e5 8d 2b bd 31 f4 ff bb fd 87 09 bd
       -0.0470015 -0.041883368 -0.0078110923 -0.033576954
0001a0 63 b3 a0 bb cc db 49 3d b8 34 b1 bc 53 44 0c 3d
       -0.004904197 0.04928188 -0.021631584 0.034244847
0001b0 2b a4 74 bd 9e d1 3d bd fd ab 68 bd 45 66 7b bd
       -0.059726875 -0.046342485 -0.056804646 -0.06137683
0001c0 82 4c 42 3b ac 3a 4b bd 60 04 49 bc ca 97 78 bd
       0.0029647653 -0.0496165 -0.0122691095 -0.060691632
0001d0 ca 28 ac bc ae 6a 43 bd 0f 6b 05 bd 55 2e 94 bd
       -0.021015543 -0.04770916 -0.032572802 -0.072354
0001e0 b8 81 46 bc 95 24 27 bd ac ac 24 3d 83 7f 48 3d
       -0.012115888 -0.04080637 0.040203735 0.04894973
0001f0 42 0e 86 3d bc a0 93 3a 71 dc 92 3c 0b 8d 33 bc
       0.06545688 0.0011263113 0.01792738 -0.01095892
000200 27 5e 39 3b a6 bf de bc 0b ac 08 bd 52 25 89 bd
       0.002828488 -0.027190994 -0.033367198 -0.066965714
000210 ec 83 51 3c c4 a8 84 bd e4 73 89 bc 52 9a 8e 3c
       0.0127878 -0.06477502 -0.016778894 0.01740757
000220 b0 2a 19 bd b2 24 98 3b 47 98 64 bd 18 84 83 3c
       -0.037394226 0.0046430463 -0.055809285 0.016054198
000230 87 8f e9 bc 0c 26 d7 bc 15 19 06 bd ad c6 80 bd
       -0.028510822 -0.02626326 -0.032738764 -0.062878944
000240 7b bf 38 bd 87 f9 dd bc a3 86 0e bc be 17 18 3d
       -0.045104485 -0.027096523 -0.008699092 0.037132017
000250 fe de 16 3d 21 ee 5e bd 37 ad b3 bb b6 1e a7 ba
       0.036833756 -0.054426316 -0.0054832953 -0.0012750241
000260 f9 e6 9d 3d d2 7d ea bb 88 2b 81 bb 72 6c 32 bd
       0.0771007 -0.007156112 -0.003941957 -0.043560453
000270 70 72 09 bd 66 73 0f bc 36 15 f3 bc 02 c5 9d 3c
       -0.0335564 -0.0087555405 -0.0296732 0.01925898
000280 9d 02 dc bb 98 0b aa 3a b2 24 2d 3d 27 c1 fa 3a
       -0.0067141787 0.0012973426 0.042271324 0.001913105
000290 82 af 4f bd 02 3b da 3b f9 e0 21 bc 58 5b 2c 3c
       -0.050704487 0.0066598663 -0.009880298 0.010519825
0002a0 1e 3d 85 3c 0d 47 69 bd 04 2d 2a 3c 77 65 3e bc
       0.016264495 -0.056952525 0.010386709 -0.011620871
0002b0 c6 f0 75 bc 75 41 2b 3b 7a 14 3d bd 0c a5 c4 3c
       -0.015011018 0.0026131545 -0.046162106 0.024004482
0002c0 ad 66 ca 3c 21 63 2b bc 56 4f 87 bc dc f4 78 bb
       0.024707163 -0.010460646 -0.016517323 -0.0037987744
0002d0 f6 38 93 3c ee 1f 40 bc 8b 73 fb 3b e9 7c be 39
       0.017971497 -0.011726363 0.007673686 0.0003633269
0002e0 f3 0a 97 bc 08 d4 10 bd c4 45 d4 bc 89 a6 d5 bc
       -0.018437838 -0.03535846 -0.025912173 -0.026080387
0002f0 7b 07 f5 bc 47 52 81 bd f4 67 70 bd ed c5 7e bd
       -0.029910794 -0.06314521 -0.058692887 -0.062200475
000300 32 31 ac bc 92 a7 a0 bc e8 98 a0 3c 26 7c a8 ba
       -0.021019552 -0.019611154 0.019604161 -0.0012854382
000310 e0 69 ac bc a9 50 14 bd d9 e1 6e bd 35 35 9c bd
       -0.021046579 -0.036209736 -0.058320854 -0.07627336
000320 70 b0 82 bd 55 68 ab bd 88 b2 84 bd 3a 0d 1d 3d
       -0.06381309 -0.08369509 -0.06479365 0.038342692
000330 1e 16 7d bc b1 35 01 3c c7 b9 17 bd 91 97 10 bc
       -0.015447168 0.007886336 -0.037042405 -0.008825199
000340 65 68 0b 3c ff 02 de bc ab 11 b0 3d 1d 88 a0 3d
       0.008508776 -0.027101038 0.0859712 0.078384615
000350 2a 7a 84 3d d6 21 61 3d 2d 40 b4 3a f5 14 09 bd
       0.064686134 0.05496391 0.0013752036 -0.03346725
000360 64 6e 4f bd 5d 34 90 3c 52 3e 0e bd a0 61 27 bd
       -0.050642386 0.017603094 -0.034727402 -0.040864587
000370 7d 5e 8a bd 5e 78 11 bd 02 74 1c bd 41 cf 06 bd
       -0.067563035 -0.03551518 -0.03819657 -0.032912496
000380 00 55 82 bd 08 bc 0f bd 75 ce 31 bd 8a 39 39 bd
       -0.06363869 -0.03509143 -0.043409783 -0.04522089
000390 ae f1 88 bd c6 c5 38 bd eb 3f 84 bd 83 4b c5 b9
       -0.06686722 -0.045110486 -0.06457504 -0.0003763103
0003a0 0f 82 37 bd 09 bc 5f bd 2c 90 84 bd b7 71 1b bd
       -0.044801768 -0.054622684 -0.06472811 -0.037950244
0003b0 5f 73 3a bd 22 8e 41 bd 4c 0e 02 3d b3 50 0e 3d
       -0.045520183 -0.04725469 0.031751916 0.03474493
0003c0 54 40 d6 3c 6d 57 44 3d ea 33 99 3c 16 4e 80 3c
       0.02615372 0.04793494 0.018701512 0.015662234
0003d0 c4 31 50 3c f3 5d 9c 3c 1d 19 39 3c 3a 8b aa 3b
       0.012707178 0.019087767 0.011297491 0.0052045854
0003e0 23 38 0a 3d d1 24 74 3c 56 b0 be 3c 9d 50 95 3b
       0.033744942 0.014901356 0.023277443 0.004556729
0003f0 9c 6a 89 3c 55 61 2f 3d 73 ae 20 3d 94 23 79 3d
       0.016774468 0.042817432 0.039228868 0.060824946

189 f4 [25, 25, 7]
000000 65 4c 06 bd e6 a9 05 bd a0 e5 8e 3d 55 58 25 3d
       -0.0327877 -0.03263273 0.06977391 0.040367443
000010 57 20 e7 3c 05 a0 59 bc b1 ff 30 3d f4 77 42 3d
       0.028213663 -0.013282781 0.043212596 0.047477677
000020 ed 98 19 3d 61 8f 3f bc 5f 70 5b bd 12 07 7e bd
       0.037499357 -0.011691899 -0.053573962 -0.06201846
000030 ba 64 53 bd c7 dc 82 bd 54 ae d9 3c f1 c8 d4 3c
       -0.051609732 -0.06389766 0.026572384 0.025974723
000040 d6 c0 4f bd 93 6e 71 bd 79 cc f3 3c c2 06 57 3c
       -0.050721012 -0.058943342 0.029760586 0.01312417
000050 7d c3 21 bc 4e 8d 75 bc b7 07 3c bc 57 c8 15 3d
       -0.009873268 -0.014987303 -0.011476449 0.036568012
000060 f6 bd 5c bd 09 f0 07 bd 70 b4 81 3d 29 4d 1e bd
       -0.0538921 -0.0331879 0.06333244 -0.038647804
000070 e7 b7 3b bb 5a f6 93 3d eb 02 8d 3d ae 9f 6f bc
       -0.002864355 0.07224722 0.06885322 -0.014625473
000080 31 a5 33 bc 0d f2 38 3c d4 e6 33 bd 30 24 4a bd
       -0.010964678 0.011288178 -0.043921307 -0.049350917
000090 51 04 b9 bb 7f f0 a7 3c 96 c7 9b 3c 1e 2c 57 bd
       -0.0056462665 0.02050042 0.019016068 -0.052532308
0000a0 2a 07 8e bd 9d 86 f4 bc 1c 97 eb bc 97 6f 0b 3c
       -0.0693496 -0.029849345 -0.028758578 0.008510492
0000b0 d2 53 67 bd 80 0a 0e bd 26 0c 1b 3c 3c 45 78 bb
       -0.05647642 -0.034677982 0.009463346 -0.0037883064
0000c0 fd 96 e7 3a 4a 63 e2 bd 2d 48 29 3d 3d d9 6e bd
       0.0017668899 -0.11054094 0.041328598 -0.058312643
0000d0 97 8c c1 3c 14 0b 86 3c a3 ca 13 bb 5f 71 c7 bd
       0.023626609 0.016362704 -0.00225512 -0.09738421
0000e0 f2 83 69 bc d3 a4 b9 3c b4 0c 0a 3d 32 75 e7 3c
       -0.01425265 0.022661602 0.03370352 0.028254125
0000f0 c4 66 2c bd e7 77 49 bc dd 11 0e 3d 81 f9 0c bd
       -0.042090192 -0.012296653 0.034685005 -0.034417633
000100 15 8b b4 bb 1e 22 75 b9 17 41 ef 3c a7 46 e9 ba
       -0.005509744 -0.0002337773 0.029205842 -0.0017797545
000110 0a cc 84 bd d0 27 cd 3c e9 63 a9 bc a2 e4 60 3d
       -0.0648423 0.025043398 -0.020677524 0.05490554
000120 7a f2 4a 3d 43 f3 77 3c 66 10 a9 3c d2 ed c6 bc
       0.04954765 0.015133682 0.020637702 -0.024283323
000130 62 ac cf 3c 57 4d 62 bb f9 d3 5c bd 03 03 1d 3d
       0.025350753 -0.0034530961 -0.05391309 0.03833295
000140 0b 2f 63 bd 03 b2 19 bd b3 2c 88 bd f6 29 97 bc
       -0.055464786 -0.03752328 -0.06649151 -0.018452626
000150 09 b5 c6 3c ee 3e 02 bd 17 14 2d 3d 81 4d 2b 3d
       0.024256246 -0.031798296 0.042255487 0.04182196
000160 1b 01 df 3c 8d 98 6d bc a8 bd 8f bd 47 bd 1b 3d
       0.027222207 -0.014501703 -0.07018596 0.038022306
000170 04 6c 5f bb 39 a5 1d 3d 81 2e 58 bd 3b 45 15 3d
       -0.0034091482 0.038487647 -0.052778725 0.036442976
000180 91 6c 5b bd ea 3d 84 bd b2 bb 93 b4 55 f8 9c 3d
       -0.053570334 -0.06457122 -2.751745e-07 0.07664553
000190 21 9f 86 bd b8 36 a3 3b ac 64 16 3d fd f2 91 b3
       -0.0657332 0.004980888 0.036717102 -6.796288e-08
0001a0 d2 66 c9 3b 88 42 3c 3d 26 77 a5 bc 3f 00 9f 3c
       0.0061462903 0.045961887 -0.020198416 0.019409297
0001b0 64 4b 25 bd 3f 4c 12 3c 5c dc 51 3d f5 ad 52 bd
       -0.0403551 0.008929311 0.05123554 -0.05143543
0001c0 da 1b 47 bd b8 e7 a9 bd 71 f0 15 3d 8c 73 86 bc
       -0.048610546 -0.0829615 0.036606256 -0.016412519
0001d0 32 d2 a1 bc 10 d9 30 bd 82 05 b2 bd fc 6a 45 bd
       -0.01975355 -0.043175757 -0.08692457 -0.04819773
0001e0 79 d8 5f 3d d1 73 97 3d 15 a6 e7 bc de ae 70 bd
       0.054649804 0.07395137 -0.028277436 -0.058760516
0001f0 a6 9f 57 3d 18 b8 d8 bc ce ca 68 3d f4 bb d2 bc
       0.052642487 -0.02645497 0.056834035 -0.025724389
000200 2c 50 8a bd 89 74 88 bd 01 21 96 3c c5 a6 65 bd
       -0.06753573 -0.06662852 0.018326284 -0.056067247
000210 18 3d de 3c 5f 54 88 bd 29 bf 93 ba 03 50 e5 bc
       0.027128741 -0.066567175 -0.001127218 -0.027992254
000220 28 9f 55 3c a3 eb 3a bd f3 1c 2c bb 07 38 78 bd
       0.013038434 -0.045634877 -0.0026262372 -0.060600307
000230 64 9e a1 bc 02 01 91 bd 98 6a 00 bc 66 3f 17 bd
       -0.019728847 -0.0708027 -0.007837914 -0.036925696
000240 b9 bd 97 bc 62 a1 03 bd 22 99 8a 3c 0f f3 6a bd
       -0.018523084 -0.03213633 0.016918723 -0.057360705
000250 75 2b 78 bc a4 ef 8c bd 24 fe 91 bd 80 d0 45 3c
       -0.01514708 -0.06881645 -0.071285516 0.012073636
000260 14 10 21 bc 7c 4a 2f bc 60 a9 85 bc fd 9c 3e bb
       -0.0098304935 -0.010698911 -0.016316116 -0.0029085272
000270 2e b1 74 3d 19 92 55 3d 9a bc 25 bd 00 99 92 bd
       0.059739284 0.052141283 -0.040463068 -0.07158089
000280 2b cf e0 bd d7 a8 5d 3d 1b 90 27 bd 3c d4 45 3c
       -0.10977014 0.054116096 -0.040908914 0.012074526
000290 28 69 dc 3c 4b 7a 0d bd cd c2 35 3d 17 c6 d1 3a
       0.026905611 -0.034540456 0.04437523 0.001600447
0002a0 fd 9d 10 bd 69 c8 2b 3d 31 2b dc 3c 0d 44 96 3d
       -0.03530692 0.041939173 0.026876064 0.073371984
0002b0 a3 22 f8 bc 81 09 59 3d 00 8e 89 bd 48 0a 37 3d
       -0.030289954 0.05298758 -0.067165375 0.04468754
0002c0 ba 9a 96 bc d1 5f fe 3c 71 04 2d bd 8e f0 46 3d
       -0.018384326 0.031051548 -0.042240564 0.048569255
0002d0 66 ba 49 bd 70 f1 28 bd fc 19 51 3d 47 1c f3 3c
       -0.04925003 -0.041245878 0.05105017 0.02967657
0002e0 b8 4a 9e bc 48 2a 11 3c 7f 63 a3 3c 9e 87 94 bc
       -0.019322738 0.008860178 0.019944904 -0.018131074
0002f0 38 d5 9e bc 42 00 ab 3c 73 5a 03 bd 7b 95 8f 3c
       -0.01938878 0.020874146 -0.03206868 0.017527333
000300 8f 0c 50 3d 0f 1a 27 3d aa 03 f5 b9 d6 3e 04 3d
       0.050793227 0.040796336 -0.0004673277 0.032286488
000310 9f bc 4a bc 7f 7a 55 3d ee 8a 9a 3d 5a bd 4b 3d
       -0.012374072 0.052118775 0.0754603 0.049741127
000320 4c a8 92 3b ce 7b 28 3d 89 83 33 3d 8a 6e 52 bc
       0.004475629 0.041133694 0.043826614 -0.012843737
000330 ac 4a 7c bc e3 bf 58 bd 21 1f 83 3b 54 b3 d5 bb
       -0.015398663 -0.052917372 0.0040015136 -0.0065216217
000340 1a 1d 44 3d b8 b3 7f 3c 02 e7 8c bd a6 89 34 bd
       0.047879316 0.015606813 -0.06879999 -0.044076584
000350 20 fa 80 bd d4 cc 44 bd 7a ca cb bc 3f c0 b8 bd
       -0.062977076 -0.0480469 -0.024876822 -0.09021043
000360 01 c0 80 bd 32 85 3b bc e1 24 45 bc 72 4b 58 3d
       -0.06286622 -0.01144533 -0.012032718 0.052806325
000370 d7 ad 11 3d 8a 58 cd bc 31 1c 15 3d 4f 0a bb bc
       0.035566177 -0.025066633 0.03640384 -0.022832064
000380 67 43 51 bd 6f c5 68 bc 26 b6 5e bd 50 29 c6 3c
       -0.05108967 -0.014207228 -0.05437293 0.024189621
000390 ac 17 30 bd d4 77 a7 bd ec a0 9d 3c 08 41 5f bd
       -0.042991325 -0.08177152 0.019241773 -0.054505378
0003a0 ac 6a f1 3b de 67 2b bd ed 7f 9f 3b be f3 39 bd
       0.0073674526 -0.041847102 0.004867545 -0.045398466
0003b0 dc 81 04 bd f0 aa 56 3c 7d 58 04 3d 2a be c2 bc
       -0.032350406 0.013102278 0.03231095 -0.023772318
0003c0 f3 15 38 3d ff 3b 50 bc b8 86 3a bd 08 91 3a bd
       0.044942807 -0.012709617 -0.045538634 -0.04554847
0003d0 ce 17 2f bc 6e 27 6e 3d c5 0e 9a 3d 1c a3 51 3d
       -0.010686828 0.05814307 0.07522348 0.051180944
0003e0 4d 15 0d 3d 25 79 6c bd d8 5d 19 3d 5b fb 72 3d
       0.034444142 -0.05773272 0.037443012 0.059321743
0003f0 9c c6 a6 3c e0 11 56 bc f4 5e 3c 3d 18 ce af bc
       0.020358376 -0.013065785 0.04598899 -0.021460578

192 f4 [25, 25, 7]
000000 72 c0 ee ba d9 72 15 bd a4 2e b8 bb 1b 5f 04 bd
       -0.0018215312 -0.03648648 -0.0056207944 -0.032317262
000010 1f 4a ef bc 41 fb 8e bb 98 87 f2 3b f3 8c 32 bd
       -0.029210148 -0.004363448 0.007401418 -0.04359145
000020 2a e6 5e bc bd 80 8a bb b8 19 92 bc 49 5a a9 bc
       -0.01360468 -0.0042267726 -0.01783453 -0.020672934
000030 48 3a d4 bb 3c c1 4d bd 28 0a 59 bc 1a 41 06 3c
       -0.006476674 -0.05023311 -0.01324705 0.008194232
000040 cc df 29 bd 39 c1 1d 3d 0b 7b 82 bc 92 3d 6d 3b
       -0.041473195 0.03851435 -0.015927812 0.003620003
000050 d0 31 bb 3c 12 f4 02 bc a3 a3 3e bc 65 fd 82 bc
       0.0228509 -0.007992761 -0.011635694 -0.015989969
000060 4d 55 32 bd fb 56 43 bd 96 82 a2 bd 10 25 54 bc
       -0.04353838 -0.047690373 -0.079350635 -0.0129482895
000070 b9 ef 44 bc 18 aa 87 3b de 37 85 bc 56 ef 6b bc
       -0.012020045 0.00414015 -0.016261991 -0.014400324
000080 95 f4 53 3c 2d e4 77 bc c4 73 d5 bc 8b b1 6e bd
       0.012936731 -0.015130085 -0.026056178 -0.058274787
000090 85 8e 88 bd 34 4d 89 bd 5b 8f 94 bc a6 b4 9d bc
       -0.066678084 -0.067041785 -0.018134763 -0.019251179
0000a0 52 36 91 39 0c 1b f6 bc c1 01 4e 3c b3 ab 11 bd
       0.00027697027 -0.030042194 0.01257366 -0.035564136
0000b0 b9 7f 8b 3c 8e 1d 76 bb 02 1e 9e bb ae 56 14 bd
       0.017028676 -0.0037554237 -0.0048253546 -0.036215477
0000c0 47 c8 f1 3b 9d bb 4e bd 78 80 8a 3c c5 af 13 bd
       0.0073786112 -0.05047189 0.016906962 -0.0360563
0000d0 53 fb f3 bc 3b cb 4c bc 24 d5 6a 3c b2 06 68 bd
       -0.029782927 -0.012499626 0.014333043 -0.05664701
0000e0 b6 9a 2a bd ff 1b 7c bc dc a2 87 3d fa a7 8c 3d
       -0.04165145 -0.015387534 0.0662286 0.068679765
0000f0 32 c7 67 bd ba 4d 90 bd da 5e 88 bd b3 c8 4a bd
       -0.05658645 -0.07046075 -0.066587165 -0.049507808
000100 81 3f f7 bc 37 16 7a 3d 25 a8 f5 bc 5f 25 72 3d
       -0.030181648 0.061056342 -0.029987404 0.05911767
000110 92 71 63 bc e5 08 06 3d 34 c3 02 bd 37 b1 af bc
       -0.013882058 0.032723326 -0.03192444 -0.021446807
000120 46 f5 9a 3c 12 97 36 bc e1 5b 6e bd a9 73 cb bc
       0.018915784 -0.011144416 -0.05819309 -0.024835424
000130 de 13 13 bd 85 9d 0c bd a5 b3 8a bc f8 67 69 bc
       -0.03590762 -0.03432991 -0.016931364 -0.0142459795
000140 ff 8c 18 3d b5 a9 eb 3b 3d f0 03 bd 81 e9 f8 bc
       0.03724384 0.0071918615 -0.03221153 -0.03038478
000150 80 5e 08 3d c4 4a 4e bd 2c 0b 82 bd fa f7 33 3d
       0.033293247 -0.05036427 -0.06349787 0.04393766
000160 05 33 74 bd 91 72 6c bd 10 84 6a bc 84 ea 48 bd
       -0.05961897 -0.057726447 -0.014313713 -0.049051777
000170 4f af 4b bd 54 29 24 3d 12 4b 81 bd c2 36 57 bc
       -0.049727734 0.040078476 -0.06313147 -0.013135614
000180 e8 13 20 3d fe f6 92 3d 67 8d 86 bd 49 81 7d 3d
       0.039081484 0.07176016 -0.06569939 0.061890874
000190 ec 27 72 3c 0e ee 5a bd 34 72 01 3d b1 7f 45 3d
       0.014780026 -0.053449683 0.031603053 0.04821748
0001a0 88 96 fc bc d4 6f 14 3d 7e 8a 51 bd 83 53 c3 3c
       -0.030833498 0.03623946 -0.051157467 0.023843532
0001b0 69 dd 3d bd 90 30 dd 3c 76 ef ac bc eb 8e ef bb
       -0.04635373 0.027000695 -0.021110278 -0.0073107383
0001c0 60 58 b9 3c 70 3d 5b 3d 89 d1 2b 3d c3 89 44 bc
       0.022625148 0.05352539 0.041947875 -0.011995736
0001d0 ad 9e 89 bc 8c b9 d4 3c 44 c0 7f bd 67 3e 89 3d
       -0.016799295 0.025967382 -0.06243922 0.067013554
0001e0 d3 96 5e 3d cb 64 fe bc 8e b4 84 3d 42 b4 90 bd
       0.054343056 -0.031053921 0.064797506 -0.070656314
0001f0 ca 23 33 3d 2b cf 40 3d d1 b6 a3 3a a6 78 3c bd
       0.043735303 0.04707257 0.0012490397 -0.046013497
000200 37 4c fd bc 7c 70 48 bd e1 42 5c 3b 31 f6 b8 ba
       -0.030920131 -0.0489354 0.00336092 -0.0014111457
000210 85 f3 ff 3b 32 1c 1d bd f8 d3 2b bc ea 07 13 bc
       0.007811012 -0.038356967 -0.010487549 -0.008974055
000220 3b d9 00 bc 3c 6b b2 bc ad 04 13 bd 81 e3 96 bc
       -0.007864292 -0.021779649 -0.03589313 -0.01841903
000230 cc 82 0e bc 27 1c 3d bd 7f 1f eb 3b ed 1a 26 3b
       -0.008698177 -0.046169426 0.0071753855 0.002534564
000240 ba aa ec bc 07 58 d4 3c c1 fe 9b 3c 53 74 80 3d
       -0.028890003 0.025920881 0.019042375 0.06272187
000250 fb 56 38 3d b2 6e a5 bc fa fc 67 bd 9f 5b 1e bc
       0.045004826 -0.020194385 -0.05663774 -0.009665399
000260 f8 c8 5a bc 45 8b 05 bd e9 f1 e2 bc ae 95 16 3c
       -0.013353579 -0.03260352 -0.027703242 0.00919096
000270 f9 61 4f bd 0c 70 a3 bc 2f ea b1 bc c2 2f 9e 3c
       -0.050630543 -0.019950889 -0.021718113 0.019309882
000280 20 e8 a5 3c 4a 6b e1 3c ab f8 c1 39 b3 ef 2c bd
       0.020252287 0.02751698 0.000369971 -0.042220782
000290 45 e4 6c 3c f0 6d 23 3c 0c f7 14 bd e4 a5 e1 3c
       0.014458721 0.009974942 -0.036368415 0.027544923
0002a0 2f 68 3f bd f3 3c a8 3c 7c 8e 32 bd eb c1 17 bd
       -0.046730217 0.020536875 -0.043592915 -0.03705017
0002b0 64 30 71 bd 57 73 45 bd 21 1c 96 bc 21 0e c1 3c
       -0.05888404 -0.0482057 -0.01832396 0.023566308
0002c0 6f 27 c6 3c 75 b5 78 3d 0e fc 11 bd 68 40 7c 3d
       0.024188725 0.060719926 -0.03564077 0.06158486
0002d0 d3 ac 01 bd d4 f3 f1 3c fd 94 70 bc f0 c1 01 bd
       -0.03165896 0.029535212 -0.014683959 -0.031679094
0002e0 08 e7 61 bc 14 e8 04 bd 0f 34 a8 3c 52 05 18 3d
       -0.013787992 -0.03244789 0.020532636 0.03711445
0002f0 d2 84 53 bc a6 40 42 3d 9b 18 1b bd 3d 45 46 3d
       -0.012910085 0.047424935 -0.037865262 0.048405875
000300 84 39 31 bc e9 66 9c 3d 91 f4 1d bd cb 47 41 3d
       -0.010816935 0.07636816 -0.038563315 0.047187608
000310 98 90 16 bd 1a fa 62 3c c6 7b 36 3a ad 6a bd bc
       -0.03675899 0.013853574 0.00069611927 -0.023122156
000320 b2 fd 93 3c 13 d3 0a bd d8 6c 05 3c 8e 49 84 3d
       0.018065307 -0.033892702 0.008143626 0.06459342
000330 b0 9d df bc 7f 55 4c 3d 19 5b 02 3d 07 1c 31 3d
       -0.027296871 0.049886223 0.03182516 0.04323962
000340 43 f3 35 bd 0d 02 64 3d 1e 24 b1 3c 7c 34 6d bd
       -0.044421446 0.05566602 0.021623667 -0.05791138
000350 f3 4d 84 3c aa 01 1b bd e9 07 51 bc 45 76 0b bd
       0.01615045 -0.037843384 -0.012758234 -0.034048337
000360 7f 01 29 bc b2 81 17 3d 2d b0 e3 3c 75 92 e6 bb
       -0.010315298 0.03698892 0.027793968 -0.007036502
000370 ea 46 74 bc 05 5c 31 3b 1a 48 57 bc 90 a0 4c bc
       -0.014909485 0.0027062905 -0.013139749 -0.012489453
000380 df 01 2a bd 27 7b 43 bd 79 08 2f 3c e5 ec 4e bd
       -0.04150569 -0.04772487 0.010683172 -0.05051889
000390 e8 86 d6 3c cb 2a 7a bc d2 38 a6 bd 8d f7 f0 3c
       0.026187375 -0.015268992 -0.08116306 0.029414916
0003a0 d3 0b 49 bd 2b 6b 3f bd 8f fa 99 3b 2c 0c 3b bd
       -0.049083542 -0.046733063 0.0046990584 -0.045665905
0003b0 9e e7 41 3d df 52 28 bd eb 69 53 3d 4c a8 40 3d
       0.047340028 -0.041094657 0.051614683 0.0470355
0003c0 e3 62 3a 3d d8 27 27 bd ee d7 48 bd 70 20 49 bd
       0.045504462 -0.040809482 -0.04903405 -0.0491032
0003d0 87 af 40 bd 89 56 3f bd 59 39 07 bd 34 8a 42 bd
       -0.047042396 -0.046713386 -0.033013675 -0.047495082
0003e0 ad 1e 8e bc 2d 60 02 bd f8 02 78 3b bd bc 81 bd
       -0.017348612 -0.03183 0.0037843566 -0.06334827
0003f0 85 75 38 bd f0 54 69 bd 8c bd 01 bd a9 b2 2d bd
       -0.04503395 -0.05696577 -0.031674907 -0.04240671

195 f4 [25, 25, 7]
000000 9d 00 00 00 9a 05 00 80 fb 04 00 80 f6 04 00 00
       2.2e-43 -2.01e-42 -1.787e-42 1.78e-42
000010 d8 8f 1a 38 ff d6 2a a2 9a 05 00 80 d2 a6 89 3c
       3.6850426e-05 -2.3153114e-18 -2.01e-42 0.016803179
000020 e4 06 3b 3d eb 1a 79 3d 42 ed 9a 3d 3d b2 b0 3d
       0.04566087 0.060816687 0.075647846 0.08627746
000030 cf d6 5b 3e 60 13 93 3d 9d 00 00 00 18 8b 45 39
       0.21468662 0.0718143 2.2e-43 0.000188392
000040 06 0b 00 00 1c 30 b9 bb 3d 92 07 00 9a 05 00 00
       3.954e-42 -0.005651487 6.95309e-40 2.01e-42
000050 6a 68 e1 38 bc 62 00 3b 95 58 eb 3a ff 19 28 b6
       0.00010748285 0.00195901 0.0017955477 -2.5049083e-06
000060 10 2d 7a 35 d4 f5 39 3c fa bc 9d 3a 04 91 6c 35
       9.319783e-07 0.011350114 0.0012034469 8.8127877e-07
000070 e7 c7 2c 3c 68 96 95 3c 37 90 1b bd f8 b4 43 3d
       0.010545707 0.018260196 -0.03797933 0.047780007
000080 c2 d2 19 3e 82 62 52 3d 09 41 c9 3d ff 1e d5 3b
       0.15021804 0.051363476 0.098268576 0.006503939
000090 59 73 2d 3d 23 54 ee 38 9a 34 98 3c 7e 66 dc 3c
       0.042346332 0.00011364396 0.01857977 0.02690434
0000a0 1f e9 8a 3c 82 41 09 3d 77 80 f3 36 15 6a 6b bc
       0.016956864 0.03350974 7.2569196e-06 -0.014368554
0000b0 49 51 aa bc 35 cc 15 3a 84 d8 b2 bc bc 2e 3f 37
       -0.020790713 0.0005714328 -0.021831758 1.1395368e-05
0000c0 59 cc 2b 37 4f 6a 44 3d d0 f9 95 3d d6 a2 2b 3d
       1.0239973e-05 0.047952946 0.073230386 0.04190334
0000d0 ed c5 07 3d 5f 7a 32 bb 28 3f ac 3d 07 5f 9e bc
       0.03314774 -0.0027233583 0.084104836 -0.019332422
0000e0 2b 4b 00 bd 43 80 35 b7 d8 ab 82 37 4d 29 96 37
       -0.031321686 -1.0818304e-05 1.5577229e-05 1.7900626e-05
0000f0 31 8b b6 bc 90 b0 e1 bb 9c a8 52 bc 1c 0b 19 b3
       -0.022283169 -0.006887503 -0.012857582 -3.5633192e-08
000100 b3 11 8a 36 20 dd 10 32 03 44 62 b6 40 59 01 b7
       4.114781e-06 8.432181e-09 -3.3716212e-06 -7.709779e-06
000110 89 26 be b2 dd fb 3c bb 7b 07 1b 3b b5 b7 44 bd
       -2.2136435e-08 -0.0028836646 0.0023655582 -0.04802676
000120 02 25 93 bd 90 c5 40 bd 8e 33 89 bc fd e7 a0 3b
       -0.07184793 -0.04706341 -0.016748216 0.0049104677
000130 ae ef 14 3d 55 8a 4f 3d c4 38 25 3d 93 a6 13 3d
       0.03636139 0.050669033 0.04033734 0.03604753
000140 b7 58 82 3d f3 b3 4b 3d 70 27 8e 3c 2b cd c3 bd
       0.06364577 0.04973216 0.01735279 -0.09560617
000150 60 d6 7a bd ae 62 d3 bc d1 53 42 bd 82 38 52 bd
       -0.0612396 -0.02580389 -0.047443215 -0.05132342
000160 aa a2 14 bd 53 b7 5c bd 3b 2c 23 3d dd 43 31 bd
       -0.03628794 -0.05388577 0.039837103 -0.04327761
000170 ff a4 98 bd 83 16 14 bd 9a 38 64 bd 43 84 f5 bc
       -0.074533455 -0.03615428 -0.055718042 -0.029970294
000180 9b 04 8c bd 9d 86 4c bd 10 f3 f6 8c 6c ca 23 8e
       -0.06836816 -0.049933065 -3.804859e-31 -2.0188764e-30
000190 25 83 1f 0e c4 92 af ba 83 b5 93 08 41 3d 00 80
       1.9661407e-30 -0.001339518 8.889914e-34 -2.1974e-41
0001a0 dc ba 00 00 8a 90 0a bd 04 00 a1 bc dd 9e 39 bd
       6.7033e-41 -0.03382925 -0.019653328 -0.04531752
0001b0 eb af 14 bd 95 ff 00 bd 25 f6 0b bd e8 ef 11 3d
       -0.03630058 -0.031493742 -0.03417029 0.035629183
0001c0 44 62 25 bd 17 83 e7 3d 6b e4 d0 bc 2e 39 b7 bc
       -0.040376917 0.113043 -0.025499543 -0.022366133
0001d0 fd 7b 44 3b b6 9b e2 3d 61 24 88 3e ac 89 e8 21
       0.002998113 0.11064856 0.26590255 1.5757373e-18
0001e0 25 d7 88 20 28 db 63 b9 fc eb 6f b9 e6 d4 12 3b
       2.3181667e-19 -0.00021730049 -0.00022880727 0.002240473
0001f0 da 2d 07 b8 bc 89 1e b9 2a 80 a1 3c 87 6c 37 3d
       -3.222921e-05 -0.00015119364 0.019714434 0.044781234
000200 ac 1c 8b 3c 68 c8 14 bc 79 98 82 3d ae 15 0e 3e
       0.016981445 -0.009080984 0.06376738 0.13875458
000210 c2 38 b2 3d cf e3 a4 3b 9c f4 e9 bc 46 f3 b7 3c
       0.08702232 0.0050320397 -0.028559022 0.022454869
000220 62 f9 83 bb 21 22 42 bc 56 7f 7a bc a4 d4 2e bc
       -0.0040275315 -0.011848957 -0.015289148 -0.010670815
000230 5d 4b 95 39 69 3d d6 b8 94 61 48 ba 68 55 09 b6
       0.00028475645 -0.00010215754 -0.0007643935 -2.0464304e-06
000240 63 29 42 ba 40 e9 f3 35 cf 4e 09 36 df 98 1c 3b
       -0.000740668 1.8172796e-06 2.0460463e-06 0.002389483
000250 29 db 9a bd 50 6a 89 bd 4e 53 19 bd db a6 69 bc
       -0.07561333 -0.067097306 -0.03743296 -0.014260973
000260 b6 a0 66 bc 37 a0 ed bd 76 0f ad 3b c4 c6 f6 3c
       -0.014076402 -0.11602824 0.005281384 0.030124076
000270 75 e9 4b bd 93 f6 e2 3c 5e 75 d0 bc d4 0e 3e 3c
       -0.04978319 0.027705466 -0.02544659 0.011600215
000280 dd 0c b5 bc 64 45 db b0 21 9f 57 b3 7f 24 31 2f
       -0.02210086 -1.5954069e-09 -5.0203315e-08 1.6111022e-10
000290 e7 a6 c8 38 7c 43 21 37 d2 86 17 32 bd 49 9f 37
       9.567831e-05 9.61206e-06 8.820011e-09 1.8988614e-05
0002a0 d9 a1 b1 15 98 00 00 80 63 05 00 80 44 63 ac b9
       7.174508e-26 -2.13e-43 -1.932e-42 -0.00032880355
0002b0 67 94 15 bb 9e 7c 84 bb 8a 04 00 80 a2 04 00 80
       -0.002282405 -0.004043176 -1.628e-42 -1.662e-42
0002c0 eb 57 12 2f c1 cd 6c 3b 50 3b 19 b9 a0 04 00 00
       1.3309857e-10 0.003613338 -0.00014613313 1.659e-42
0002d0 2a 3d c8 b9 51 04 00 00 74 83 af 3d 15 49 19 3c
       -0.00038192543 1.548e-42 0.085699946 0.009355803
0002e0 49 93 37 bc 3f 62 26 bd ba 09 7b bd 87 6a d7 bb
       -0.011204549 -0.04062104 -0.061288573 -0.0065739783
0002f0 c1 e9 52 bd 68 04 00 80 a1 04 00 80 62 04 00 80
       -0.051492456 -1.58e-42 -1.66e-42 -1.572e-42
000300 5f 04 00 00 8f 04 00 00 5f 04 00 00 96 04 00 80
       1.568e-42 1.635e-42 1.568e-42 -1.645e-42
000310 b6 20 99 36 4f 46 ce 36 e5 16 4e 36 da aa d4 b8
       4.5635634e-06 6.1474634e-06 3.0709718e-06 -0.00010140771
000320 80 a9 dc b8 67 2e fe b7 17 ee 98 36 d3 8e 8b 3e
       -0.00010521989 -3.0300767e-05 4.5576703e-06 0.27257404
000330 ed 7e 31 bc bc c0 f3 3d ca c1 d0 3d ee 8b 02 3e
       -0.010833484 0.119019955 0.10193212 0.12748691
000340 ee 3c c8 3d 56 84 6f 3e c7 2d a5 3d 39 7d 73 3d
       0.097772464 0.23390326 0.08065372 0.059445594
000350 75 e5 2a 3d cd 69 a0 3d 4f b7 3c 3d 4c 88 87 3d
       0.041722734 0.0783268 0.046073254 0.066177934
000360 c5 71 42 bd 85 08 68 bc a9 c9 cd 36 01 e0 63 bc
       -0.04747178 -0.014162187 6.1329524e-06 -0.013908387
000370 c4 20 1f b5 52 a9 35 b6 c2 4b 94 37 17 aa ee 36
       -5.9279796e-07 -2.706966e-06 1.7678252e-05 7.112754e-06
000380 01 b1 20 3d d9 9a de bc 5e 73 3b 3c 2f b1 f6 3c
       0.039231304 -0.027173446 0.01144108 0.030113785
000390 93 f1 16 3d fd 92 76 3d d9 cc 36 be e6 b3 a6 bc
       0.036851477 0.060198773 -0.1785158 -0.020349454
0003a0 c1 a4 de bc b4 38 39 bb 9e de e6 bb db e2 40 bc
       -0.02717817 -0.0028262557 -0.007045581 -0.011772837
0003b0 33 3e 8f bc 55 de 82 3d fd 2d 08 3a 91 87 f6 b2
       -0.017485714 0.06390063 0.0005194841 -2.8699818e-08
0003c0 f2 88 8d b3 96 57 11 ae f8 ec 9f ba d3 ba 9a b2
       -6.5907344e-08 -3.3046975e-11 -0.001220136 -1.8012917e-08
0003d0 4e d0 1a 3b 30 08 25 3e 8a 1a 4f 3d 11 e4 70 bd
       0.0023622694 0.16116405 0.05056242 -0.05881125
0003e0 b6 8a 08 3d 08 e4 43 3e 5c 9b 36 3e e1 81 e2 3c
       0.03333541 0.19129956 0.17832702 0.027649822
0003f0 dc a5 52 3d da 05 0b 3c 01 fd 88 3b a0 49 b4 3c
       0.051427707 0.008485282 0.004180551 0.022007763

198 f4 [25, 25, 7]
000000 44 6d 01 be 3a 1e 1f bd 41 c1 47 bd e2 12 36 bd
       -0.12639338 -0.038847186 -0.048768286 -0.0444516
000010 ff af c4 bd 08 41 b5 3d 25 3c 7b 3e 4f f1 b6 bd
       -0.09603881 0.08850294 0.24534662 -0.08932745
000020 34 26 11 be a2 16 0d be f4 21 37 be b2 bd 3e be
       -0.1417473 -0.13778165 -0.17884046 -0.1862705
000030 de 67 9d 3d ea ad 8b 3e 0e 33 3b be cd 2b 4c be
       0.07685827 0.27281123 -0.18281195 -0.19938584
000040 71 1d 79 be 5d 3b 63 be 9b 80 2e bc df 41 85 3e
       -0.24327637 -0.22190614 -0.010650779 0.26026818
000050 92 58 9a 3e 02 7c 65 be 50 8c 80 be f5 c6 7b be
       0.301457 -0.22410586 -0.2510705 -0.24587615
000060 2d 4f 90 be f7 fa 09 bd 15 1d 19 3e 31 8d 17 3e
       -0.28185406 -0.033686604 0.149525 0.14799954
000070 0e 0e 00 80 ca 14 00 00 c9 15 00 00 ae 18 00 80
       -5.042e-42 7.458e-42 7.815e-42 -8.853e-42
000080 4c 1d 00 00 0b 0e 00 80 05 95 78 b9 ec 18 00 00
       1.051e-41 -5.038e-42 -0.00023706637 8.94e-42
000090 e1 18 00 00 b6 14 00 80 99 ba 12 bc be 0d 00 00
       8.925e-42 -7.43e-42 -0.008955621 4.93e-42
0000a0 5c 13 00 80 5d 17 00 00 c3 16 00 80 31 44 f8 bb
       -6.945e-42 8.381e-42 -8.165e-42 -0.0075764884
0000b0 0c 0e 00 00 cf 14 00 00 17 ee 87 38 d5 0d 00 80
       5.039e-42 7.465e-42 6.481649e-05 -4.962e-42
0000c0 a9 14 00 80 59 13 00 00 4a 17 00 80 fe 59 a1 ac
       -7.411e-42 6.94e-42 -8.355e-42 -4.5858864e-12
0000d0 fb 07 00 00 79 18 00 80 0a 0e 00 00 eb 18 00 80
       2.863e-42 -8.779e-42 5.036e-42 -8.939e-42
0000e0 48 17 00 00 ec 18 00 00 ae 18 00 00 ca 14 00 00
       8.352e-42 8.94e-42 8.853e-42 7.458e-42
0000f0 46 17 00 80 33 15 00 80 62 13 00 80 5d 3a d6 13
       -8.349e-42 -7.605e-42 -6.953e-42 5.4078745e-27
000100 0f 0e 00 80 cf 14 00 80 49 1d 00 00 9f 0c 00 00
       -5.043e-42 -7.465e-42 1.0506e-41 4.528e-42
000110 d3 14 00 00 e1 18 00 00 1e 30 42 be cf 03 5d be
       7.47e-42 8.925e-42 -0.18963668 -0.21583484
000120 9d a2 77 be 03 ef 81 be d8 05 b5 bd 4e 19 0c 3e
       -0.24183126 -0.25377664 -0.08839005 0.13681528
000130 3e 08 21 3e cf 68 1a 3e e5 a4 5e 3a 59 5b 89 bc
       0.157258 0.15079044 0.0008493199 -0.01676719
000140 b5 9a 78 bd 39 dc de 3d f3 56 a2 3e 7c 88 97 3e
       -0.060694415 0.10881848 0.31706962 0.29596317
000150 b8 6b 11 bd db 1e a7 b8 8d 15 03 bd f7 78 a3 bd
       -0.03550312 -7.968928e-05 -0.032002974 -0.079820566
000160 4a 60 af bd 3e 50 02 be 45 fa 8a be 16 55 64 bb
       -0.085632876 -0.12725922 -0.27144065 -0.0034840754
000170 6e f1 33 bd c1 03 3e 3d be 59 19 3e 89 5b 6d 3b
       -0.043931417 0.0463903 0.1497564 0.003621789
000180 80 11 2d 3e aa 22 0c 3e 68 78 55 35 b2 ba 25 2c
       0.16901207 0.13685098 7.95239e-07 2.3551547e-12
000190 9c d8 3d 34 de b7 b0 37 d2 44 a3 b5 34 9d ed 2e
       1.7680799e-07 2.1066455e-05 -1.2164476e-06 1.0805437e-10
0001a0 b5 c1 af 3b d2 16 9e bc 40 c1 00 3d 28 af 5d bd
       0.005363668 -0.019297991 0.031434298 -0.05412212
0001b0 17 e7 f0 bd ff cd 16 bc 10 ea 11 bd b5 cd 5a be
       -0.11762827 -0.009204387 -0.03562361 -0.21367534
0001c0 ba 18 00 00 af 18 00 80 0f 0e 00 80 c5 13 00 00
       8.87e-42 -8.855e-42 -5.043e-42 7.092e-42
0001d0 46 17 00 00 ec 18 00 00 ce 14 00 80 be 14 00 80
       8.349e-42 8.94e-42 -7.463e-42 -7.441e-42
0001e0 ba 14 00 00 f7 13 00 00 91 1f a2 36 b2 14 02 2b
       7.435e-42 7.162e-42 4.831651e-06 4.6214e-13
0001f0 d9 5d 7c 36 75 dc 91 28 65 13 00 80 21 01 72 3b
       3.7605553e-06 1.6193842e-14 -6.957e-42 0.0036926942
000200 c3 16 00 00 c5 14 00 80 48 1d 00 80 a1 0c 00 80
       8.165e-42 -7.451e-42 -1.0504e-41 -4.53e-42
000210 cb 13 00 00 ca 61 1e be 64 5d 89 bd 5d 77 3d bd
       7.1e-42 -0.15466991 -0.06707266 -0.04625641
000220 44 4d 60 bd ed 1d 46 bd 4a 5a 04 be d4 38 55 be
       -0.054761186 -0.048368383 -0.12925068 -0.2082246
000230 b5 8c 4b 16 ae 88 75 2f da 27 57 16 56 42 2a 2e
       1.6442609e-25 2.2331179e-10 1.7380137e-25 3.8712443e-11
000240 02 ff b0 16 8f 1e 81 2f 14 46 31 17 7a c5 19 be
       2.8595266e-25 2.3486676e-10 5.7280236e-25 -0.15016738
000250 04 e4 16 be b1 ef 26 bc bb 2d e8 3d e5 cb 02 3e
       -0.14735419 -0.010188983 0.113368474 0.12773092
000260 b9 49 71 3d 3b c3 81 bd 2b 5d 08 be 34 b6 73 be
       0.058908198 -0.063360654 -0.13316791 -0.23799974
000270 f8 79 35 be 3d d2 9e bd 86 18 86 3d 41 0f 45 3e
       -0.17722309 -0.077549435 0.06547646 0.192441
000280 41 3f 2d 3e c8 15 00 80 a1 0c 00 00 c9 15 00 00
       0.1691866 -7.814e-42 4.53e-42 7.815e-42
000290 da 15 00 80 1e 0e 00 80 42 17 00 00 cb 15 00 80
       -7.839e-42 -5.064e-42 8.343e-42 -7.818e-42
0002a0 0f 0e 00 00 e1 18 00 80 c1 14 00 00 55 8d 04 81
       5.043e-42 -8.925e-42 7.445e-42 -2.4345972e-38
0002b0 88 0f 00 00 95 18 00 80 15 0e 00 00 a1 6a 71 bd
       5.572e-42 -8.818e-42 5.052e-42 -0.05893958
0002c0 c8 88 ac 3c 22 9c aa 3c 10 03 26 3c 44 af 36 bc
       0.021061316 0.020826403 0.010132566 -0.011150185
0002d0 39 4b 12 bd ae 6b 6e bc 7d 8f 6c bd c5 a9 85 bd
       -0.03571627 -0.01455204 -0.05775403 -0.065265216
0002e0 a6 e9 b3 bc 7c cc 5a bd 32 c1 5c bd f5 85 a3 bc
       -0.021961998 -0.053417668 -0.053895183 -0.019961337
0002f0 a8 bc 35 bc f9 19 b4 3b ee 5d 0b bd 5b ea 83 bd
       -0.011092342 0.0054962602 -0.034025125 -0.06441184
000300 45 8f ad bc b5 8e 1f 3d 60 91 1c bd ce 2c 88 bc
       -0.02118648 0.038954455 -0.038224578 -0.016622927
000310 86 2d e3 3c b5 d4 95 ba e6 50 a1 3b 42 bb 6d bb
       0.027731668 -0.001143119 0.004922974 -0.0036274944
000320 ba cd ad bb 1e 67 1e 3a 5a e9 6f bd b8 dc 1c bd
       -0.0053040655 0.00060425873 -0.05857215 -0.03829643
000330 b6 b7 54 bd 0d 10 29 3d 4f 44 64 bc dd 1c 1b 3d
       -0.051933013 0.041275073 -0.013932302 0.037869323
000340 ef aa 23 3d 0e 05 5b bd 05 99 c1 bc 7b 85 cf 3b
       0.039957937 -0.053471617 -0.023632536 0.006333051
000350 e1 64 6e 3d 12 36 01 bd 51 4d d7 3b 52 72 0f 3d
       0.058201674 -0.031545706 0.006570496 0.035021134
000360 41 17 1e bd 74 2d 6a bd 75 c6 8d bd f1 db 55 bd
       -0.038596395 -0.057172254 -0.06922618 -0.052211706
000370 ec 39 ba bc 90 6a dd 3c de 52 56 3d bd 1c 99 bd
       -0.022732697 0.027028352 0.052325122 -0.074761845
000380 a3 a4 1b 3d 8c 4e fb 3c 10 43 6d bd 55 97 5d 3d
       0.037998807 0.030677103 -0.057925284 0.0540994
000390 8a e1 53 bd 3d 95 50 bd b5 eb 8f bb f5 e3 25 bd
       -0.051728763 -0.050923575 -0.004392112 -0.0405006
0003a0 77 e8 5a bd 8d f3 6a bd 67 67 60 3d 98 67 01 bd
       -0.053444352 -0.057361174 0.054786112 -0.031592935
0003b0 32 36 93 3d 97 df 7c bd ca 11 1a bd a0 ed 5b 3d
       0.07188071 -0.06173667 -0.03761462 0.053693414
0003c0 44 31 56 3d bf 94 95 bd 9b 11 12 3d 92 4a 21 3d
       0.052293077 -0.07303762 0.03566132 0.039377756
0003d0 b2 3c 34 bd cc f8 07 3d 9c 54 45 bb 50 d3 2f 3d
       -0.044003196 0.033196256 -0.0030110246 0.042926133
0003e0 6a 64 72 bc 9d 7b de bc 43 71 56 bd 94 0a 8b 3c
       -0.014794448 -0.027158553 -0.05235411 0.016972817
0003f0 3f f1 43 bd 5a d1 0f bc 8e 6d ac bc 4d 6b dc 3c
       -0.047837492 -0.008777941 -0.021048333 0.026906634

201 f4 [25, 25, 7]
000000 40 df 21 3d 6b 7d 9b 3d 2a cc 69 3d 83 5a 42 3d
       0.03951955 0.07592281 0.05707947 0.0474496
000010 bc da 32 bd 1b 17 14 bd d4 56 6a bd ec 0f 41 bd
       -0.043665633 -0.036154848 -0.057211712 -0.047134325
000020 62 65 80 bd c0 b6 54 bc dc 04 93 3c f2 2a 1c 3c
       -0.06269337 -0.012983024 0.017946653 0.009531723
000030 14 45 26 bc 07 51 73 bd 4f 4f 76 bc 58 df ac 3a
       -0.010148305 -0.059403446 -0.015033557 0.001318912
000040 a1 f1 31 bd cd 30 cd bc 86 87 3e 3d 4f 63 0c 3d
       -0.043443326 -0.025047684 0.046515964 0.034274396
000050 e8 f4 93 3b ed 52 76 bb 46 91 18 bd 31 c8 26 3c
       0.004515279 -0.0037586049 -0.03724792 0.010179565
000060 b1 04 33 3d 7f 7c 8e bd 8b 16 57 3d 49 c4 2e bd
       0.043705646 -0.069573395 0.052511733 -0.04266766
000070 4d d2 9b bc 54 49 75 bd 7d b2 05 bd 0b b6 98 bb
       -0.019021178 -0.059884384 -0.032640923 -0.004660373
000080 69 d2 5a bd be 73 c5 3b 95 65 77 bc c8 1b af bd
       -0.05342332 0.0060257604 -0.015099903 -0.08550221
000090 7f 2c af 3c b8 60 03 bd f1 9b d4 bc 03 15 a1 ba
       0.021383522 -0.03207466 -0.025953265 -0.0012289587
0000a0 a9 e5 0a bd 82 65 3b 3c c7 96 1f bd dc ec 2f 38
       -0.033910427 0.011437776 -0.03896215 4.1943844e-05
0000b0 c9 bd 03 3d a2 a3 04 bd 2f 91 6a bd 89 73 2c 3d
       0.032163415 -0.032382615 -0.057267364 0.04210237
0000c0 25 b8 ba bc a0 c1 5c bd 3b f3 b3 bc 69 82 68 bd
       -0.022792885 -0.053895593 -0.021966567 -0.056764994
0000d0 9a 55 10 3d 5c e9 8b bd 63 a0 78 bd 58 dc cf bc
       0.035237886 -0.06831619 -0.06069983 -0.025373623
0000e0 b2 c2 6e bd 31 f4 33 3d 55 5e 7e bc d8 fb 2e 3d
       -0.058291145 0.04393405 -0.01552542 0.042720646
0000f0 4b b4 87 bc c7 c7 54 bd 34 e3 81 ba bc 92 12 3d
       -0.016565463 -0.051948335 -0.0009909631 0.035784468
000100 0d 79 b6 bc 8f b1 b3 bc 4d 33 8f 3c 56 5d 9e 3c
       -0.022274518 -0.021935252 0.017480517 0.019331615
000110 08 fb 67 bd f3 2b 31 3d 4a 4d 1e bd 7c d0 64 bd
       -0.056635886 0.043254804 -0.038647927 -0.05586289
000120 3e e1 21 bc 0e 0b 82 bb 34 b6 09 bd c5 8a a5 bc
       -0.009880362 -0.003968603 -0.033621028 -0.020207772
000130 69 d2 2c bc dc 57 9c bc cd e6 c9 bc 46 37 49 ba
       -0.010548213 -0.019084863 -0.024646187 -0.0007675778
000140 e9 6c bd 3c c8 dc 79 bd 12 ac a5 bb 07 5f d2 bd
       0.023123221 -0.06100157 -0.005055913 -0.10272031
000150 63 57 ff bc 26 35 64 3c d9 a8 51 3a c4 ec 00 3b
       -0.031169599 0.013928687 0.00079978775 0.0019672373
000160 cc 98 75 bb 0a 6b 34 3c 0f 85 cc bc 93 ca 51 bd
       -0.0037475107 0.011011848 -0.024965791 -0.05121858
000170 74 fd 5e bc 32 a7 85 bc 42 74 22 bd 18 b9 2b bd
       -0.013610233 -0.016315077 -0.039661653 -0.041924566
000180 0c ed e3 bc c4 d4 dd 3c 7d 61 fe bc 6d 1a 4e bd
       -0.027822994 0.027078994 -0.031052345 -0.05031817
000190 43 a6 9a bd c7 ea 19 bb 39 fb b5 bd b3 99 04 bd
       -0.07551243 -0.0023485885 -0.088858075 -0.03237314
0001a0 0f ea b8 bd 9f bf 19 3d 79 07 4c 3b 3e d0 29 bd
       -0.09029018 0.03753626 0.0031132384 -0.04145836
0001b0 65 43 ca 3c 44 56 d4 bc 83 6e 36 bd 47 59 5a bd
       0.02469034 -0.02592004 -0.044538986 -0.053307798
0001c0 6b 99 f0 3a 73 39 e3 3c 9f dd 4d bd 12 ca 0d bd
       0.0018356269 0.027737355 -0.050260182 -0.034616537
0001d0 72 76 b0 bc 29 97 5b bd 92 29 1c bd f9 e9 42 bc
       -0.021540854 -0.053610954 -0.038125582 -0.011896604
0001e0 2d c2 e3 3b 7a 7a 80 bb 50 0a f2 3c 19 d6 62 bd
       0.006950638 -0.0039208503 0.029545933 -0.05537996
0001f0 2e 47 3b bd 70 ad 45 3c 7d 05 07 bd c5 c4 07 bd
       -0.04572218 0.0120652765 -0.03296422 -0.03314664
000200 4e dd e9 3c 40 14 d3 bc 58 d9 2f bd 42 82 5b 3c
       0.02854791 -0.025766492 -0.042931885 0.013397755
000210 e9 29 79 bd 30 c7 19 3a b9 6a 61 bd 6e d0 06 3b
       -0.060830984 0.0005866168 -0.05503342 0.002057101
000220 bf 01 75 3c 0f ba 1d 3d d5 36 1a 3d 1d e7 b9 bc
       0.01495403 0.038507517 0.03764995 -0.022693211
000230 4b c6 e2 bc 14 a9 31 bd 72 45 e3 bc 68 11 c5 bc
       -0.027682444 -0.043374136 -0.027743075 -0.024056152
000240 73 21 0f 3d 1e 44 1b bd 25 fb 36 bd 27 0d 71 3b
       0.03494401 -0.03790676 -0.044673104 0.003678152
000250 14 36 a7 3a 80 e1 58 bd 58 a7 4e bd 61 69 e6 3b
       0.0012757205 -0.05294943 -0.05045256 0.007031605
000260 39 d3 a3 bc 8a ce 4b 3c e6 c6 1d bd 5a ba 9d 3b
       -0.01999818 0.0124393795 -0.038519762 0.0048134746
000270 f9 d3 6a bd 27 88 56 bc 51 b6 af 3c 32 48 eb 3b
       -0.05733106 -0.013093985 0.02144924 0.007180237
000280 10 2f d0 3c 5c 50 0a bd 2b 66 ab 3d f3 94 26 3d
       0.025413066 -0.033768043 0.08369096 0.040669393
000290 ae dd 1a 3d eb 05 cf bc ca d2 69 3d 34 b3 69 3d
       0.037809066 -0.025271377 0.05708579 0.057055667
0002a0 8a 3d 43 bd 26 3d 8a bd 1f c8 99 3d 2b 16 1d 3d
       -0.04766611 -0.067499444 0.07508873 0.03835122
0002b0 3d 60 64 bd c2 0a 0d 3d c9 ee 10 3d b0 c1 8f 3d
       -0.055755842 0.034434088 0.035383973 0.07019365
0002c0 91 c4 72 bc bb ae 0b bd f9 27 a1 3d 93 d9 79 bd
       -0.014817373 -0.034102183 0.07868952 -0.06099851
0002d0 e8 fc cb bb ec 64 2b bd 5c 95 c6 bc 1c 44 8b 3c
       -0.006225217 -0.041844293 -0.024241142 0.01700025
0002e0 c1 d3 63 3c 46 4f 34 bd b5 36 78 bc 3e 6c 8b bd
       0.0139054665 -0.044020914 -0.015149762 -0.06807755
0002f0 ca 05 e6 3c 0f 62 83 bd ee b8 42 bc d2 4c a3 bd
       0.028078932 -0.064151876 -0.011884911 -0.07973637
000300 eb 31 90 3c 41 80 b6 bc d6 cb 01 3d cd 46 7f bc
       0.017601928 -0.022277953 0.031688534 -0.015580845
000310 95 9a 7d bc a0 23 85 bc 2b 77 8f bd 93 9b 06 bc
       -0.01547875 -0.016252339 -0.07005151 -0.008215803
000320 0c 87 9b bc 45 cb 08 3d 97 83 1a bd f0 01 97 bc
       -0.018985294 0.033396978 -0.03772315 -0.018433541
000330 a9 a7 99 3c de 77 10 bd 36 a0 5b bd 3c 27 0d 3b
       0.018756704 -0.035270564 -0.053619586 0.0021538278
000340 a1 b0 b6 bc dd a1 13 bd d9 fd a1 bd e9 5b ca bc
       -0.02230102 -0.036043037 -0.07909746 -0.02470203
000350 c4 b0 43 3d 2f 57 af 3c 7e 0b 8e bd 34 7e aa bc
       0.047776 0.021403877 -0.06935786 -0.020812131
000360 3b ec 17 bd 08 78 26 3c b2 8e 68 bd 52 f3 08 3d
       -0.03709052 0.010160454 -0.05677671 0.033435173
000370 08 10 74 bb b7 b7 b1 3c 9f 6d 8f bd 99 e3 0b 3d
       -0.0037241 0.021694047 -0.070033304 0.0341526
000380 c3 56 43 3c 22 47 98 bd 4d 1e 5c bd c9 4a f6 bc
       0.011922541 -0.074354425 -0.053739835 -0.030064957
000390 81 c7 7a bd a0 96 0b 3c 28 77 68 bd 7d aa 33 bc
       -0.061225418 0.0085197985 -0.05675426 -0.010965941
0003a0 a2 e5 57 bc c8 05 36 3c af e0 98 bd 42 8b c1 3c
       -0.013177307 0.011109777 -0.0746473 0.023625974
0003b0 38 3c 28 ba 6e cb 17 bd 09 4b 61 bd 73 3e 35 3c
       -0.00064176647 -0.03705924 -0.0550032 0.011062252
0003c0 06 ce 82 3c 9e f0 8f bd 48 60 40 bb 4f 17 9d bd
       0.01596738 -0.07028316 -0.0029354263 -0.076704614
0003d0 45 c3 24 bd 94 f3 fe bb 5c 75 05 3d 51 73 83 bd
       -0.040225286 -0.0077805016 0.032582626 -0.06418479
0003e0 25 8c 82 bd 93 24 45 bc ac 1b fe bb 18 a4 74 bb
       -0.06374387 -0.012032646 -0.0077547636 -0.0037329253
0003f0 59 38 bf bc f9 03 21 bb 82 bd fe 39 9e b0 fa bc
       -0.023342298 -0.0024569018 0.0004858785 -0.030601796
