TCN/mnist_pixel/models/k5l6.pth (torch, 163695 bytes, 76 tensors)

tcn.network.0.conv1.bias f4 [25]
00000000: 756c f4be 29b3 c23e 5909 203e aaf7 603e
00000010: 6ea2 9cbe c878 053e 23dc 6d3b efe9 263d
00000020: 86cb 29bd 0ec6 573d 50c7 e8be 8964 c1bd
00000030: 90a5 133e 0ab3 063e 36c5 193e fdb3 c43c
00000040: 040b fdbd 60e7 053e 72b5 afbe cb80 253e
00000050: d583 253e d234 3f3e 4694 02bf 77c3 7fbd
00000060: 94f5 a23d
-0.47738996 0.38027313 0.15628566 0.21969476 -0.30592674 0.13034356 0.0036294542 0.04075044
-0.04145386 0.052679114 -0.45464563 -0.09443004 0.14418626 0.13154235 0.15016636 0.024011606
-0.12355617 0.13076544 -0.3431812 0.16162412 0.16163571 0.18672493 -0.510075 -0.06244227
0.079569966

tcn.network.0.conv1.weight_g f4 [25, 1, 1]
00000000: 9afe 4c3f a38b fa3e 1ccb 083f b355 0a3f
00000010: cc97 373f 0ba6 ed3e 2c9d 773f 2faa 573f
00000020: e615 bd3f 37fc ba3f 2ade 493f 5c29 593f
00000030: 2772 3c3f a227 373f 9256 883f 6149 733f
00000040: 0158 b13e 462e 403f 3860 b63f bf72 5d3f
00000050: 412a a73e 7379 3d3f e585 fb3e fab2 063f
00000060: 5d4a d03e
0.8007599 0.4893466 0.5343492 0.54037017 0.71716 0.46415743 0.967242 0.84244055
1.4772308 1.460822 0.7885462 0.84828734 0.7361168 0.7154485 1.0651419 0.9503384
0.34637454 0.7507061 1.4248114 0.86503214 0.32649425 0.7401344 0.4912559 0.52616847
0.40681735

tcn.network.0.conv1.weight_v f4 [25, 1, 5]
00000000: df6f 1abe 97b5 bdbe f3d1 f53e 1605 7d3d
00000010: fee2 db3e 7acb 563d 69b3 6a3a 2c11 d63e
00000020: 7e3e ce3e d425 d53e 2c51 3bbe 5dcc 993e
00000030: 017f b93e fa70 a93e 44bd a8be b0a3 3dbc
00000040: e329 8e3e 61eb e73e 7ac4 a63e 2ab8 b7be
00000050: aa46 e3be 0501 87be 9c70 74be b5bd 54be
00000060: dd99 9cbe 8133 733e 0f74 bd3e 0ef8 683e
00000070: c863 a9be b52a d2bd d367 a63c c56a c7be
00000080: 398e b7bd 9ad3 873e 73a0 a23e c757 33bf
00000090: ea1f 2dbe 1fbb b7be 961c a8be d070 54be
000000a0: 7e66 993e a039 c4be ab43 20be 2ece d93e
000000b0: 9e0f 28be 0733 de3e b160 95be 63c3 0abf
000000c0: d4a0 dfbd 2289 ff3e a4f7 843e 73a5 443f
000000d0: ed8a 263e f1c3 e5be 3e3b dfbc 3165 eebe
000000e0: 3c79 67be dd3d 86be dc4c 7ebe 7784 97be
000000f0: cbf9 323e d35c 1a3f 0cda b4be 4c5b 973e
00000100: 91c8 aabe 56e5 a13e 352d ca3e 0864 8abd
00000110: 9fb4 bebe b1e1 123b 4fbb ebbe effb d23e
00000120: 313a 9a3e 221b a1be aa97 cb3e 4a54 f0be
00000130: bea6 d4bd 8486 a93e eef1 a83e 7d31 723c
00000140: 495f 86be b19c 08be d12d 28be d3bd 15be
00000150: 62c5 09be 5b53 01bf a0a7 ce3e 8fc7 4b3e
00000160: 3120 0d3e 02c9 543d f304 a6be 86df 8c3e
00000170: 34ef b53e a4fd a3be a4ed b6bc 50b0 a93e
00000180: 227c c23d 136b 093f 20a9 03bf 9f3c a4bd
00000190: cef5 3fbe 8d12 4b3e 2977 023f 0080 993c
000001a0: 0e54 1f3e fffe 253e 3dbe 9f3e c1ce 0b3f
000001b0: 59a5 b0bc f0f2 01bf 5032 713e e9c2 b33e
000001c0: e59b 033f a45b 833e 137e 8ebc 164b cbbe
000001d0: 95fd 3dbe 1042 40be 4b1c aebe 8bcf 553d
000001e0: 0836 143e 9872 9b3e bda1 06bd e01e ce3e
000001f0: e5fa bc3e
-0.15081738 -0.37052605 0.4801174 0.06177243 0.4294662 0.052440144 0.0008953126 0.41809976
0.40282053 0.41630423 -0.18292683 0.3003873 0.3622971 0.33094007 -0.32956898 -0.011574671
0.27766332 0.45296767 0.32571775 -0.35882694 -0.4438985 -0.26367965 -0.23871082 -0.20775492
-0.30586138 0.23750116 0.37002608 0.22750875 -0.3308394 -0.10262052 0.02031318 -0.38948646
-0.08962674 0.26528627 0.31763038 -0.7005581 -0.16906705 -0.3588495 -0.3283431 -0.2074616
0.29961008 -0.38325214 -0.15650813 0.42540115 -0.16412207 0.43398306 -0.29175332 -0.54204386
-0.109193474 0.49909312 0.25970185 0.76814955 0.16263933 -0.44876054 -0.027249929 -0.46561578
-0.22604841 -0.26219073 -0.24834007 -0.2959325 0.17478101 0.6029789 -0.35322607 0.2956184
-0.33356145 0.31620282 0.39487615 -0.06757361 -0.37247178 0.0022412355 -0.46041343 0.41207835
0.30122522 -0.31466013 0.39764148 -0.46939307 -0.10383366 0.3311044 0.32997078 0.014782307
-0.26244572 -0.13341023 -0.16423728 -0.14623193 -0.13454202 -0.50517815 0.40362263 0.19900344
0.13781811 0.05194951 -0.3242565 0.27514285 0.3553406 -0.3202945 -0.022330113 0.33142328
0.09496333 0.5367901 -0.5142994 -0.08019375 -0.18746111 0.19831295 0.50963074 0.018737793
0.15559408 0.16210555 0.31199828 0.54612356 -0.021563219 -0.5076132 0.23554349 0.35109642
0.5140975 0.25655854 -0.017394101 -0.39705724 -0.18553765 -0.18775201 -0.3400596 0.05219988
0.14473736 0.30360866 -0.03286909 0.4025793 0.36910167

tcn.network.0.conv2.bias f4 [25]
00000000: f364 d6bd bf39 8cbd c052 413e 9e81 0bbd
00000010: 13dd 253e de06 3c3d 413b c0bd 3870 11bc
00000020: 67b9 d6bd fc32 c83c 0d0d 08be c853 81bd
00000030: 91c9 60bd 5c68 a7bd 20fa bcbd 3b98 893e
00000040: 6fbc e4bd 74c4 373d 6e3c 3ebd cd48 dbbd
00000050: 4f08 a8bd a961 6c3d df94 c3bd 048c f9bd
00000060: a113 23be
-0.10468473 -0.06846952 0.18879223 -0.03405916 0.16197614 0.045904987 -0.09386302 -0.008876853
-0.104845814 0.024438374 -0.13286228 -0.06314808 -0.05487973 -0.08174202 -0.09227395 0.26873955
-0.11168753 0.044865087 -0.04644435 -0.10707245 -0.0820471 0.057710323 -0.09549879 -0.12184909
-0.15925457

tcn.network.0.conv2.weight_g f4 [25, 1, 1]
00000000: 8bd7 283f 32d2 5e3f 7adf 3c3f a8d3 0c3f
00000010: d45b 163f 85e7 183f 3496 0b3f f6bf 023f
00000020: ad6c 053f 17a8 9b3f a7f5 fc3e 6145 0e3f
00000030: 7a20 e63e effe 2f3f 6e3b 0d3f 6579 173f
00000040: f91d 083f eeff 103f 3553 103f bc74 113f
00000050: a2ec 0c3f d57a 0c3f e072 0c3f 49d5 c93e
00000060: 61fc 8f3f
0.6595389 0.8703948 0.737785 0.5501046 0.5873387 0.5972827 0.54526067 0.5107416
0.5211895 1.2160672 0.49406168 0.55574614 0.44946653 0.6874837 0.5516881 0.5916961
0.53170735 0.5664052 0.56376964 0.5681875 0.55048573 0.54874927 0.54862785 0.39420536
1.1248895

tcn.network.0.conv2.weight_v f4 [25, 25, 5]
00000000: 6d62 d53e c36b 873d 92f0 dcbd 4ab9 b8be
00000010: 9fc0 6f3c 7b5f 653d 9901 123c 2a69 1b3e
00000020: fd2c 353e 648b 023e fb79 473d ac33 323e
00000030: 87cc 29bd 4a71 15be de65 823d 73f9 983d
00000040: 4176 d53d 97d0 1bbc ae57 e0bd e655 db3d
00000050: 2c09 53be 9d35 16be 0bc4 463e 8f1d 473e
00000060: 5e1a ad3d 0a4c 933e f1ab 453e 05a5 1a3e
00000070: 18d8 92bd 1060 cfbd 494d 603e 931e 813d
00000080: a632 f3be 0dc4 1fbd 2bee cb3e 47a8 73be
00000090: 4013 09be 85b6 743e d1cd 893e dd0c 203b
000000a0: 5925 223e 3bf4 f53e 28a2 563c 6fe0 c13e
000000b0: 4228 ff3e e9bc ed3e ffbb 043e 87fb 9f3d
000000c0: 3674 9f39 1e0f d8bb 857b 813e cb6b 873e
000000d0: 07a7 6f3e 787c 2fbd baed 7dbe bd41 b4be
000000e0: 8635 4fbe cf5a 5c3e c86f 5c3e f8d8 b9bd
000000f0: ff55 0a3e 77ec 073e 541a 193d f4a7 01be
00000100: f064 523c 9e11 313e 72f4 553e 6151 ae3d
00000110: 616e 58bd 1b44 8cbe 2978 673e eec4 5a3d
00000120: e9ad d43d 08af babd 3477 bcbe 203c 143e
00000130: c4e1 413e 9932 0dbd 6649 06bf fa0a 05bd
00000140: 9c2e 09be 0162 aabc ffaa cf3d f76d 0a3e
00000150: ec69 133d 922c 913e 329d 7f3e 4acc 013d
00000160: ec24 44be 9d43 b0be aeb3 1f3e e568 a53e
00000170: 0459 593e 45fb dd3d c8a8 b23d 87fd 523e
00000180: f833 943e a8eb 7d3c 055c 73be beab 00be
00000190: f356 293e c351 b23d a5a2 203e 724e 94bc
000001a0: 4853 a2bd 9612 563e fecb f43d b97d 94bc
000001b0: f0fe 8dbe 8d0c 943d 7c08 5d3e 7f21 673e
000001c0: 81ad 043e a761 c23d 8559 e43c d2bd d6bd
000001d0: da23 1bbe 96dd 673e e155 2e3e 783c e43c
000001e0: e1e2 703d 8a39 e83c ae2a c63d 9fa7 8f3e
000001f0: 353f fd3d 64f9 17be fbcb 813e cef0 e53e
00000200: db03 a23e 1a72 a1bd 61b1 d83c 5d74 843d
00000210: 448c 4d3d 37b6 e23d ed11 b2bc 8780 93be
00000220: 3559 bbbd 7fa3 043e 5fbe 4b3e 1e00 0b3e
00000230: bda3 a5be 28ea 4abd c034 f43d fff0 203e
00000240: c871 e63d 80eb b63e 9907 313e f466 2ebd
00000250: 8e97 3ebe b1f8 06be e400 66be ba0a 86be
00000260: 1757 213d 5a02 e23d e71c 0b3e ade0 0abe
00000270: d7f9 4d3e a5c3 873e e372 8b3e b000 65be
00000280: 44ac 803e 6d4f 323e 917b 1d3a 7ad7 3abe
00000290: 7342 00be 4059 373d b3a8 6f3e 57e6 1d3c
000002a0: 58ce 513d 731c 993e 4089 b33e 9184 a03e
000002b0: 871f 303e aad3 e83c 6b88 83bd ae7b 72be
000002c0: ca3c c1be 8477 edba c44f 7f3e c913 6c3e
000002d0: 9a25 b13e 473b ee3d d54e 57bc b8c0 8cbe
000002e0: 5682 52be 9e80 dcbd 8a3c 64be a6d1 afbc
000002f0: 0ed8 fd3d 1455 453e c0e7 afbd a58f f8be
00000300: 9a26 88bd fc82 243e ac20 2b3e 477c 73be
00000310: 0281 b4bd a2b1 ec3d 5b6f c23e b48b 03be
00000320: c6b1 a2be d933 09be e411 833e 96fb ba3e
00000330: 772e e43d 53ba 423e b5f4 bc3d aa58 61bc
00000340: e092 81bd 6f5b 47bd 494d 80be c80d 68be
00000350: 0134 0e3a b0f3 733e 7413 703e 5989 ddbe
00000360: e79f e5be d042 273d d51b 623e 1a77 a53e
00000370: 7d2e c9be 0d82 86be 8d70 603d 8626 8f3d
00000380: 441a fb3d 1734 7dbe 4622 d0bd 25fe cf3d
00000390: 85aa 223e 1349 8c3d 7df8 edbe c7ed 91bd
000003a0: a283 be3d ff7d ce3d 96e7 113e 70a0 05ba
000003b0: 2b94 203e 48d9 033e 70f2 2c3e c621 273e
000003c0: 0e9e 2c3e 03dd 623e 378e 853d 7336 0bbd
000003d0: 1c8f 56be 8a73 0e3e 2e43 073e 8d7c 8dbd
000003e0: f697 b73d 5de8 ed3c f44a ff3c 7b5a 3a3e
000003f0: 28b6 d13d 0970 723d 5b3f f0bd 4e66 803e
0.41676655 0.06612351 -0.10788073 -0.36078864 0.014633327 0.05599926 0.008911514 0.15176836
0.17692943 0.12748486 0.048700314 0.17402524 -0.041454818 -0.14593998 0.06367086 0.07469454
0.10422946 -0.009510181 -0.109542236 0.10709743 -0.20608968 -0.1466889 0.19410722 0.1944487
0.08452295 0.2876895 0.19303872 0.15102012 -0.07170123 -0.10125744 0.21904482 0.0630466
-0.4749958 -0.039005328 0.39830145 -0.23794661 -0.1338625 0.2389775 0.26914838 0.002442173
0.1583456 0.48037896 0.0131001845 0.37866542 0.49835402 0.4643319 0.1296234 0.07811647
0.00030413427 -0.006593599 0.2528955 0.26449427 0.2340356 -0.042843312 -0.24797717 -0.35206404
-0.20235261 0.21519016 0.21527016 -0.09074587 0.13509367 0.13273798 0.037378624 -0.12661725
0.012841448 0.17291877 0.2089403 0.085116155 -0.05283964 -0.2739571 0.22604431 0.053410463
0.10384733 -0.09115416 -0.36809695 0.14476061 0.18933779 -0.03447208 -0.5245575 -0.03248117
-0.13396686 -0.020798685 0.10140037 0.13518511 0.035989687 0.28354317 0.24962309 0.031688966
-0.1915471 -0.34426585 0.15595886 0.3230659 0.21225363 0.108389415 0.08723599 0.20604526
0.289459 0.015498079 -0.23765571 -0.12565514 0.16537075 0.08707001 0.15687044 -0.018103812
-0.07926041 0.20905527 0.11952971 -0.018126355 -0.27733564 0.07228956 0.21585268 0.22571371
0.12956811 0.09491282 0.027874717 -0.10485424 -0.15150395 0.22643122 0.17024948 0.027860865
0.05881012 0.02834775 0.09676109 0.28057572 0.123655714 -0.14841229 0.25350937 0.44910282
0.31643566 -0.07883091 0.026451768 0.06467507 0.050182596 0.11069911 -0.021737063 -0.28808996
-0.09147874 0.12952994 0.1989684 0.13574263 -0.32351485 -0.049539715 0.11924124 0.15716933
0.11252171 0.35726547 0.17288055 -0.042578653 -0.18612501 -0.13180806 -0.22461277 -0.2618006
0.039389696 0.11035605 0.13585244 -0.1356227 0.20114838 0.26516452 0.2723609 -0.22363544
0.25131428 0.17413111 0.00060074875 -0.1824626 -0.12525348 0.04476285 0.23404197 0.009637437
0.051222175 0.29904518 0.3506565 0.3135114 0.17199527 0.028421242 -0.06422504 -0.23679993
-0.3774169 -0.0018117283 0.24932772 0.23054422 0.34599 0.116324 -0.013141354 -0.27490783
-0.20557532 -0.10766719 -0.22288719 -0.021462273 0.12394725 0.19270736 -0.08589125 -0.48547092
-0.06647988 0.16065592 0.16711682 -0.23777877 -0.08813669 0.11557318 0.37975582 -0.12846261
-0.31776255 -0.13398685 0.25599587 0.3652007 0.11141675 0.1901639 0.09226362 -0.013754049
-0.06326842 -0.048671182 -0.25058964 -0.22661507 0.00054246193 0.23823428 0.23444921 -0.4326885
-0.44848558 0.0408352 0.2208093 0.3231743 -0.3929328 -0.26271096 0.054794837 0.0698977
0.12260869 -0.24726902 -0.10162787 0.10155896 0.1588536 0.06849875 -0.46478644 -0.071254306
0.09302451 0.100826256 0.142485 -0.00050974544 0.15681522 0.12875855 0.16889358 0.16321477
0.16857168 0.22154622 0.06521266 -0.033987474 -0.2095303 0.13911262 0.13209221 -0.06908522
0.08964531 0.029041464 0.03116367 0.18198578 0.10239822 0.059188876 -0.11730834 0.25078052

tcn.network.0.net.0.bias f4 [25]
00000000: 756c f4be 29b3 c23e 5909 203e aaf7 603e
00000010: 6ea2 9cbe c878 053e 23dc 6d3b efe9 263d
00000020: 86cb 29bd 0ec6 573d 50c7 e8be 8964 c1bd
00000030: 90a5 133e 0ab3 063e 36c5 193e fdb3 c43c
00000040: 040b fdbd 60e7 053e 72b5 afbe cb80 253e
00000050: d583 253e d234 3f3e 4694 02bf 77c3 7fbd
00000060: 94f5 a23d
-0.47738996 0.38027313 0.15628566 0.21969476 -0.30592674 0.13034356 0.0036294542 0.04075044
-0.04145386 0.052679114 -0.45464563 -0.09443004 0.14418626 0.13154235 0.15016636 0.024011606
-0.12355617 0.13076544 -0.3431812 0.16162412 0.16163571 0.18672493 -0.510075 -0.06244227
0.079569966

tcn.network.0.net.0.weight_g f4 [25, 1, 1]
00000000: 9afe 4c3f a38b fa3e 1ccb 083f b355 0a3f
00000010: cc97 373f 0ba6 ed3e 2c9d 773f 2faa 573f
00000020: e615 bd3f 37fc ba3f 2ade 493f 5c29 593f
00000030: 2772 3c3f a227 373f 9256 883f 6149 733f
00000040: 0158 b13e 462e 403f 3860 b63f bf72 5d3f
00000050: 412a a73e 7379 3d3f e585 fb3e fab2 063f
00000060: 5d4a d03e
0.8007599 0.4893466 0.5343492 0.54037017 0.71716 0.46415743 0.967242 0.84244055
1.4772308 1.460822 0.7885462 0.84828734 0.7361168 0.7154485 1.0651419 0.9503384
0.34637454 0.7507061 1.4248114 0.86503214 0.32649425 0.7401344 0.4912559 0.52616847
0.40681735

tcn.network.0.net.0.weight_v f4 [25, 1, 5]
00000000: df6f 1abe 97b5 bdbe f3d1 f53e 1605 7d3d
00000010: fee2 db3e 7acb 563d 69b3 6a3a 2c11 d63e
00000020: 7e3e ce3e d425 d53e 2c51 3bbe 5dcc 993e
00000030: 017f b93e fa70 a93e 44bd a8be b0a3 3dbc
00000040: e329 8e3e 61eb e73e 7ac4 a63e 2ab8 b7be
00000050: aa46 e3be 0501 87be 9c70 74be b5bd 54be
00000060: dd99 9cbe 8133 733e 0f74 bd3e 0ef8 683e
00000070: c863 a9be b52a d2bd d367 a63c c56a c7be
00000080: 398e b7bd 9ad3 873e 73a0 a23e c757 33bf
00000090: ea1f 2dbe 1fbb b7be 961c a8be d070 54be
000000a0: 7e66 993e a039 c4be ab43 20be 2ece d93e
000000b0: 9e0f 28be 0733 de3e b160 95be 63c3 0abf
000000c0: d4a0 dfbd 2289 ff3e a4f7 843e 73a5 443f
000000d0: ed8a 263e f1c3 e5be 3e3b dfbc 3165 eebe
000000e0: 3c79 67be dd3d 86be dc4c 7ebe 7784 97be
000000f0: cbf9 323e d35c 1a3f 0cda b4be 4c5b 973e
00000100: 91c8 aabe 56e5 a13e 352d ca3e 0864 8abd
00000110: 9fb4 bebe b1e1 123b 4fbb ebbe effb d23e
00000120: 313a 9a3e 221b a1be aa97 cb3e 4a54 f0be
00000130: bea6 d4bd 8486 a93e eef1 a83e 7d31 723c
00000140: 495f 86be b19c 08be d12d 28be d3bd 15be
00000150: 62c5 09be 5b53 01bf a0a7 ce3e 8fc7 4b3e
00000160: 3120 0d3e 02c9 543d f304 a6be 86df 8c3e
00000170: 34ef b53e a4fd a3be a4ed b6bc 50b0 a93e
00000180: 227c c23d 136b 093f 20a9 03bf 9f3c a4bd
00000190: cef5 3fbe 8d12 4b3e 2977 023f 0080 993c
000001a0: 0e54 1f3e fffe 253e 3dbe 9f3e c1ce 0b3f
000001b0: 59a5 b0bc f0f2 01bf 5032 713e e9c2 b33e
000001c0: e59b 033f a45b 833e 137e 8ebc 164b cbbe
000001d0: 95fd 3dbe 1042 40be 4b1c aebe 8bcf 553d
000001e0: 0836 143e 9872 9b3e bda1 06bd e01e ce3e
000001f0: e5fa bc3e
-0.15081738 -0.37052605 0.4801174 0.06177243 0.4294662 0.052440144 0.0008953126 0.41809976
0.40282053 0.41630423 -0.18292683 0.3003873 0.3622971 0.33094007 -0.32956898 -0.011574671
0.27766332 0.45296767 0.32571775 -0.35882694 -0.4438985 -0.26367965 -0.23871082 -0.20775492
-0.30586138 0.23750116 0.37002608 0.22750875 -0.3308394 -0.10262052 0.02031318 -0.38948646
-0.08962674 0.26528627 0.31763038 -0.7005581 -0.16906705 -0.3588495 -0.3283431 -0.2074616
0.29961008 -0.38325214 -0.15650813 0.42540115 -0.16412207 0.43398306 -0.29175332 -0.54204386
-0.109193474 0.49909312 0.25970185 0.76814955 0.16263933 -0.44876054 -0.027249929 -0.46561578
-0.22604841 -0.26219073 -0.24834007 -0.2959325 0.17478101 0.6029789 -0.35322607 0.2956184
-0.33356145 0.31620282 0.39487615 -0.06757361 -0.37247178 0.0022412355 -0.46041343 0.41207835
0.30122522 -0.31466013 0.39764148 -0.46939307 -0.10383366 0.3311044 0.32997078 0.014782307
-0.26244572 -0.13341023 -0.16423728 -0.14623193 -0.13454202 -0.50517815 0.40362263 0.19900344
0.13781811 0.05194951 -0.3242565 0.27514285 0.3553406 -0.3202945 -0.022330113 0.33142328
0.09496333 0.5367901 -0.5142994 -0.08019375 -0.18746111 0.19831295 0.50963074 0.018737793
0.15559408 0.16210555 0.31199828 0.54612356 -0.021563219 -0.5076132 0.23554349 0.35109642
0.5140975 0.25655854 -0.017394101 -0.39705724 -0.18553765 -0.18775201 -0.3400596 0.05219988
0.14473736 0.30360866 -0.03286909 0.4025793 0.36910167

tcn.network.0.net.4.bias f4 [25]
00000000: f364 d6bd bf39 8cbd c052 413e 9e81 0bbd
00000010: 13dd 253e de06 3c3d 413b c0bd 3870 11bc
00000020: 67b9 d6bd fc32 c83c 0d0d 08be c853 81bd
00000030: 91c9 60bd 5c68 a7bd 20fa bcbd 3b98 893e
00000040: 6fbc e4bd 74c4 373d 6e3c 3ebd cd48 dbbd
00000050: 4f08 a8bd a961 6c3d df94 c3bd 048c f9bd
00000060: a113 23be
-0.10468473 -0.06846952 0.18879223 -0.03405916 0.16197614 0.045904987 -0.09386302 -0.008876853
-0.104845814 0.024438374 -0.13286228 -0.06314808 -0.05487973 -0.08174202 -0.09227395 0.26873955
-0.11168753 0.044865087 -0.04644435 -0.10707245 -0.0820471 0.057710323 -0.09549879 -0.12184909
-0.15925457

tcn.network.0.net.4.weight_g f4 [25, 1, 1]
00000000: 8bd7 283f 32d2 5e3f 7adf 3c3f a8d3 0c3f
00000010: d45b 163f 85e7 183f 3496 0b3f f6bf 023f
00000020: ad6c 053f 17a8 9b3f a7f5 fc3e 6145 0e3f
00000030: 7a20 e63e effe 2f3f 6e3b 0d3f 6579 173f
00000040: f91d 083f eeff 103f 3553 103f bc74 113f
00000050: a2ec 0c3f d57a 0c3f e072 0c3f 49d5 c93e
00000060: 61fc 8f3f
0.6595389 0.8703948 0.737785 0.5501046 0.5873387 0.5972827 0.54526067 0.5107416
0.5211895 1.2160672 0.49406168 0.55574614 0.44946653 0.6874837 0.5516881 0.5916961
0.53170735 0.5664052 0.56376964 0.5681875 0.55048573 0.54874927 0.54862785 0.39420536
1.1248895

tcn.network.0.net.4.weight_v f4 [25, 25, 5]
00000000: 6d62 d53e c36b 873d 92f0 dcbd 4ab9 b8be
00000010: 9fc0 6f3c 7b5f 653d 9901 123c 2a69 1b3e
00000020: fd2c 353e 648b 023e fb79 473d ac33 323e
00000030: 87cc 29bd 4a71 15be de65 823d 73f9 983d
00000040: 4176 d53d 97d0 1bbc ae57 e0bd e655 db3d
00000050: 2c09 53be 9d35 16be 0bc4 463e 8f1d 473e
00000060: 5e1a ad3d 0a4c 933e f1ab 453e 05a5 1a3e
00000070: 18d8 92bd 1060 cfbd 494d 603e 931e 813d
00000080: a632 f3be 0dc4 1fbd 2bee cb3e 47a8 73be
00000090: 4013 09be 85b6 743e d1cd 893e dd0c 203b
000000a0: 5925 223e 3bf4 f53e 28a2 563c 6fe0 c13e
000000b0: 4228 ff3e e9bc ed3e ffbb 043e 87fb 9f3d
000000c0: 3674 9f39 1e0f d8bb 857b 813e cb6b 873e
000000d0: 07a7 6f3e 787c 2fbd baed 7dbe bd41 b4be
000000e0: 8635 4fbe cf5a 5c3e c86f 5c3e f8d8 b9bd
000000f0: ff55 0a3e 77ec 073e 541a 193d f4a7 01be
00000100: f064 523c 9e11 313e 72f4 553e 6151 ae3d
00000110: 616e 58bd 1b44 8cbe 2978 673e eec4 5a3d
00000120: e9ad d43d 08af babd 3477 bcbe 203c 143e
00000130: c4e1 413e 9932 0dbd 6649 06bf fa0a 05bd
00000140: 9c2e 09be 0162 aabc ffaa cf3d f76d 0a3e
00000150: ec69 133d 922c 913e 329d 7f3e 4acc 013d
00000160: ec24 44be 9d43 b0be aeb3 1f3e e568 a53e
00000170: 0459 593e 45fb dd3d c8a8 b23d 87fd 523e
00000180: f833 943e a8eb 7d3c 055c 73be beab 00be
00000190: f356 293e c351 b23d a5a2 203e 724e 94bc
000001a0: 4853 a2bd 9612 563e fecb f43d b97d 94bc
000001b0: f0fe 8dbe 8d0c 943d 7c08 5d3e 7f21 673e
000001c0: 81ad 043e a761 c23d 8559 e43c d2bd d6bd
000001d0: da23 1bbe 96dd 673e e155 2e3e 783c e43c
000001e0: e1e2 703d 8a39 e83c ae2a c63d 9fa7 8f3e
000001f0: 353f fd3d 64f9 17be fbcb 813e cef0 e53e
00000200: db03 a23e 1a72 a1bd 61b1 d83c 5d74 843d
00000210: 448c 4d3d 37b6 e23d ed11 b2bc 8780 93be
00000220: 3559 bbbd 7fa3 043e 5fbe 4b3e 1e00 0b3e
00000230: bda3 a5be 28ea 4abd c034 f43d fff0 203e
00000240: c871 e63d 80eb b63e 9907 313e f466 2ebd
00000250: 8e97 3ebe b1f8 06be e400 66be ba0a 86be
00000260: 1757 213d 5a02 e23d e71c 0b3e ade0 0abe
00000270: d7f9 4d3e a5c3 873e e372 8b3e b000 65be
00000280: 44ac 803e 6d4f 323e 917b 1d3a 7ad7 3abe
00000290: 7342 00be 4059 373d b3a8 6f3e 57e6 1d3c
000002a0: 58ce 513d 731c 993e 4089 b33e 9184 a03e
000002b0: 871f 303e aad3 e83c 6b88 83bd ae7b 72be
000002c0: ca3c c1be 8477 edba c44f 7f3e c913 6c3e
000002d0: 9a25 b13e 473b ee3d d54e 57bc b8c0 8cbe
000002e0: 5682 52be 9e80 dcbd 8a3c 64be a6d1 afbc
000002f0: 0ed8 fd3d 1455 453e c0e7 afbd a58f f8be
00000300: 9a26 88bd fc82 243e ac20 2b3e 477c 73be
00000310: 0281 b4bd a2b1 ec3d 5b6f c23e b48b 03be
00000320: c6b1 a2be d933 09be e411 833e 96fb ba3e
00000330: 772e e43d 53ba 423e b5f4 bc3d aa58 61bc
00000340: e092 81bd 6f5b 47bd 494d 80be c80d 68be
00000350: 0134 0e3a b0f3 733e 7413 703e 5989 ddbe
00000360: e79f e5be d042 273d d51b 623e 1a77 a53e
00000370: 7d2e c9be 0d82 86be 8d70 603d 8626 8f3d
00000380: 441a fb3d 1734 7dbe 4622 d0bd 25fe cf3d
00000390: 85aa 223e 1349 8c3d 7df8 edbe c7ed 91bd
000003a0: a283 be3d ff7d ce3d 96e7 113e 70a0 05ba
000003b0: 2b94 203e 48d9 033e 70f2 2c3e c621 273e
000003c0: 0e9e 2c3e 03dd 623e 378e 853d 7336 0bbd
000003d0: 1c8f 56be 8a73 0e3e 2e43 073e 8d7c 8dbd
000003e0: f697 b73d 5de8 ed3c f44a ff3c 7b5a 3a3e
000003f0: 28b6 d13d 0970 723d 5b3f f0bd 4e66 803e
0.41676655 0.06612351 -0.10788073 -0.36078864 0.014633327 0.05599926 0.008911514 0.15176836
0.17692943 0.12748486 0.048700314 0.17402524 -0.041454818 -0.14593998 0.06367086 0.07469454
0.10422946 -0.009510181 -0.109542236 0.10709743 -0.20608968 -0.1466889 0.19410722 0.1944487
0.08452295 0.2876895 0.19303872 0.15102012 -0.07170123 -0.10125744 0.21904482 0.0630466
-0.4749958 -0.039005328 0.39830145 -0.23794661 -0.1338625 0.2389775 0.26914838 0.002442173
0.1583456 0.48037896 0.0131001845 0.37866542 0.49835402 0.4643319 0.1296234 0.07811647
0.00030413427 -0.006593599 0.2528955 0.26449427 0.2340356 -0.042843312 -0.24797717 -0.35206404
-0.20235261 0.21519016 0.21527016 -0.09074587 0.13509367 0.13273798 0.037378624 -0.12661725
0.012841448 0.17291877 0.2089403 0.085116155 -0.05283964 -0.2739571 0.22604431 0.053410463
0.10384733 -0.09115416 -0.36809695 0.14476061 0.18933779 -0.03447208 -0.5245575 -0.03248117
-0.13396686 -0.020798685 0.10140037 0.13518511 0.035989687 0.28354317 0.24962309 0.031688966
-0.1915471 -0.34426585 0.15595886 0.3230659 0.21225363 0.108389415 0.08723599 0.20604526
0.289459 0.015498079 -0.23765571 -0.12565514 0.16537075 0.08707001 0.15687044 -0.018103812
-0.07926041 0.20905527 0.11952971 -0.018126355 -0.27733564 0.07228956 0.21585268 0.22571371
0.12956811 0.09491282 0.027874717 -0.10485424 -0.15150395 0.22643122 0.17024948 0.027860865
0.05881012 0.02834775 0.09676109 0.28057572 0.123655714 -0.14841229 0.25350937 0.44910282
0.31643566 -0.07883091 0.026451768 0.06467507 0.050182596 0.11069911 -0.021737063 -0.28808996
-0.09147874 0.12952994 0.1989684 0.13574263 -0.32351485 -0.049539715 0.11924124 0.15716933
0.11252171 0.35726547 0.17288055 -0.042578653 -0.18612501 -0.13180806 -0.22461277 -0.2618006
0.039389696 0.11035605 0.13585244 -0.1356227 0.20114838 0.26516452 0.2723609 -0.22363544
0.25131428 0.17413111 0.00060074875 -0.1824626 -0.12525348 0.04476285 0.23404197 0.009637437
0.051222175 0.29904518 0.3506565 0.3135114 0.17199527 0.028421242 -0.06422504 -0.23679993
-0.3774169 -0.0018117283 0.24932772 0.23054422 0.34599 0.116324 -0.013141354 -0.27490783
-0.20557532 -0.10766719 -0.22288719 -0.021462273 0.12394725 0.19270736 -0.08589125 -0.48547092
-0.06647988 0.16065592 0.16711682 -0.23777877 -0.08813669 0.11557318 0.37975582 -0.12846261
-0.31776255 -0.13398685 0.25599587 0.3652007 0.11141675 0.1901639 0.09226362 -0.013754049
-0.06326842 -0.048671182 -0.25058964 -0.22661507 0.00054246193 0.23823428 0.23444921 -0.4326885
-0.44848558 0.0408352 0.2208093 0.3231743 -0.3929328 -0.26271096 0.054794837 0.0698977
0.12260869 -0.24726902 -0.10162787 0.10155896 0.1588536 0.06849875 -0.46478644 -0.071254306
0.09302451 0.100826256 0.142485 -0.00050974544 0.15681522 0.12875855 0.16889358 0.16321477
0.16857168 0.22154622 0.06521266 -0.033987474 -0.2095303 0.13911262 0.13209221 -0.06908522
0.08964531 0.029041464 0.03116367 0.18198578 0.10239822 0.059188876 -0.11730834 0.25078052

tcn.network.0.downsample.weight f4 [25, 1, 1]
00000000: ff20 db3d 1d71 083c 84b6 103f 5088 22bd
00000010: 5d8e ddbc 5161 9f3d 49b3 39bb cf7c 453a
00000020: b4b4 153b 3278 fd3e c00b 413d 196a febc
00000030: ce33 02bc 3930 fb3d 871a ee38 85cd 2fbe
00000040: 5adf cdbc c330 a0be 11ba e2bc 98ea b6bb
00000050: 10a6 45bc 5716 3d3e c4d7 62bc 142a e6bc
00000060: 6ccb 2e3d
0.10699653 0.00832775 0.56528497 -0.03968078 -0.027045423 0.077822335 -0.0028335622 0.00075335515
0.0022843303 0.49505764 0.047130346 -0.03105645 -0.0079469215 0.12265057 0.000113536655 -0.17168243
-0.025130916 -0.31287202 -0.027676614 -0.005582165 -0.012063518 0.18465553 -0.013845388 -0.028096236
0.042674467

tcn.network.0.downsample.bias f4 [25]
00000000: ed26 2bbf f5d5 debd 82b1 953e cd46 41bf
00000010: 0aaf 82bc 6ce4 b0bb 57dd 1fbc b778 76bd
00000020: a40b 24bc fcc6 333e a28a 0cbe 1bcd 0cbf
00000030: f98a 1cbc c048 60bf d0d1 6fbf ed7d 12bf
00000040: bef3 07be 177a d23c 744c 21bf 18f6 22bc
00000050: 6a0c cabe 4aba 9c3d 1210 5dbc ccc1 bbbc
00000060: 1be7 94be
-0.6685627 -0.10880653 0.2923699 -0.7549866 -0.015952606 -0.0053983238 -0.009757361 -0.060173716
-0.010012541 0.17556375 -0.13724759 -0.55000466 -0.009554618 -0.8761101 -0.93679523 -0.572234
-0.13276574 0.025692983 -0.63007283 -0.009946369 -0.39462596 0.07652719 -0.013492601 -0.022919558
-0.2908257

tcn.network.1.conv1.bias f4 [25]
00000000: 9409 34be e7f0 8abd 01dd 87bd 4215 c3bd
00000010: 8c2a a6bd 28ab 22be 547d 8b3e 01b2 9bbd
00000020: 08b5 11bd df38 45bd 5e5c cb3d e93c f9bd
00000030: 19cc 97be a57a 75bb 41de 82bd 5d56 ff3d
00000040: 0ff2 903d 0b0e 92bd 05a9 b73e cf4f 54bd
00000050: faf3 edbd 7e30 eabd a8bf fbbd 4a05 05bd
00000060: b58d 3abd
-0.17581779 -0.0678423 -0.0663395 -0.09525539 -0.08113584 -0.15885603 0.27244055 -0.07602311
-0.035573035 -0.04814994 0.09929727 -0.12169821 -0.29647902 -0.0037457135 -0.06390048 0.12467644
0.07077419 -0.07131585 0.3587114 -0.051833924 -0.116188005 -0.114350304 -0.12292415 -0.032475747
-0.0455453

tcn.network.1.conv1.weight_g f4 [25, 1, 1]
00000000: f5d8 eb3e 8d1d 5e3f 7b1a 043f d8fd fc3e
00000010: f47d 9e3f 32d0 023f 7902 813f 49fb 0d3f
00000020: 94b1 2d3f a423 063f c35c 0b3f ae48 e33e
00000030: 3571 5b3f 6f0d 653f fa82 e03e 03b3 363f
00000040: 3b3c 133f b027 ff3e e3e7 783f f856 033f
00000050: a705 153f 3565 743f a388 f93e 95fd 063f
00000060: 8834 153f
0.46063963 0.8676384 0.51602906 0.49412417 1.2382188 0.5109893 1.007888 0.55461556
0.6784909 0.52398133 0.5443842 0.44391388 0.85719615 0.89473623 0.43849927 0.713669
0.5751378 0.49834967 0.9722883 0.5130458 0.5821175 0.9546693 0.48737058 0.52730685
0.5828328

tcn.network.1.conv1.weight_v f4 [25, 25, 5]
00000000: 1fd8 98bd 63b0 a9bc 0090 90bd 4e7d 2dbd
00000010: 11e8 a8bd e87b dcbd e018 7b3d 0e1a a0bd
00000020: 8a89 d7b9 86f6 543b e17c 96bd 7854 0cbe
00000030: 84ee c6bc 1f04 eb3c 742b a7bd cb46 a6bd
00000040: 034e 21bc 124a 0bbe 948c 0e3e 6403 bd3d
00000050: 1a88 b6bd 9a7a 77bc 97f8 d03c f0c9 75bd
00000060: f5ec b8bd 43d0 98bd 6fa8 6dbd 7b9f 00be
00000070: e1b1 413d 9568 05be 6268 823d e675 96bd
00000080: e330 773d 9ed7 82bd 468d 963d 8890 cd3d
00000090: b24d b1bc 20bb a23d bbbc f63d 3063 083e
000000a0: 14b1 02bd 4bf7 9abc bb06 713d 3d24 f0bd
000000b0: 856b e9bc 9168 83bd 0f04 8ebc 550a 03be
000000c0: 108f e6bd b3c9 a2bd f056 e9bd 2cad e3bd
000000d0: cbec d3bd 9982 e23d f610 0cbe bf40 173e
000000e0: d72f d8bd 23e9 0abe 6a29 073e 451b 013e
000000f0: c767 06be a4e9 46bd 6613 07bd 1724 c8bc
00000100: 4ab0 43bd b5dc 18bd e291 8f3c e08c d63d
00000110: cedd 25bc 1f09 e3bd a2bc f8bd 059a ee3d
00000120: b27f 0ebe 8b0a 18be 663b c5bd bcfc 11bc
00000130: cbf3 b6bd 2528 133d cf47 0ebd 62c0 863d
00000140: 1cf5 1ebe 8dea e4bd 7012 bc3d e814 c53d
00000150: 10e3 76bd cf20 18bd 4995 123c aacb 2bbd
00000160: bdeb 02bd fc04 7bbd 7932 0b3e d182 f9bd
00000170: 05e1 e2bd 5a9c 193e 787f 113e 28aa 17bd
00000180: 4123 c23c c9ae 98bd cfd3 5cbd 035b 95bd
00000190: 361f f83d ad59 293e 233f 06be faef d6bd
000001a0: e71c 0b3e ff36 4abd bb1b c2bd 01f2 adbd
000001b0: 38bf 303d 7dbf 45bd 462c 93bd c21f d5bd
000001c0: fe64 d8bd b7bd 353c 3b0e 21bb a248 eb3c
000001d0: dbfa 143d 6dcc 233c 8f47 1f3c d71e 86bd
000001e0: 0398 1fbd 38df 023d 6b24 703d e528 0bbe
000001f0: 4433 23be c247 12be 8d8a 8dbe cc22 c2be
00000200: d6dc 403d e8f9 ce3e 3ed8 f8be 5957 85be
00000210: 67c9 373e 5673 9d3d e28b 76be 2ea6 6ebe
00000220: cde6 3fbe db7d 22bc 8b4d 933d 53db 84bd
00000230: ee42 9f38 0593 4338 992c 1835 2ed5 91bb
00000240: 1e4d 0f37 f74c eabd ac49 9fbe ca0e dfbe
00000250: 6e6d a83d 85ab 2a3e 5f2b 873d dd16 d73d
00000260: 3ebc a63b 7cbb 8ebc 59c7 9d3d 3b9b 0a34
00000270: 0c71 75b6 fc17 412d f27a 25b7 330f 2d33
00000280: a72c 70bb 38c8 1e37 97a0 80b5 0c1e bf3b
00000290: 5ad6 5c2f 848e e810 e027 1b1a 90af 47ae
000002a0: 82e9 c229 a8b5 25a4 3516 9fbe a406 703e
000002b0: b61b eebb d07a 56be 70d5 6f3e dad9 5739
000002c0: 8709 6597 c82c ea38 16a9 f29f ac13 8536
000002d0: 1f2a 0636 5c63 c32f 675f 2abb b070 e9bb
000002e0: d30f 4c28 c496 ba36 470d bf2f edc7 a43b
000002f0: 2018 7e3d df98 cd3a 873b 35be 8b0e 72be
00000300: 3e8d 6cbd 6be3 8f3e 7de9 f1bd 48b3 083b
00000310: 8ea2 c59c cec1 011b dfe7 6f2d eeb8 e839
00000320: 3730 c8be aa86 46be 2636 e13d f1f6 413e
00000330: f0ad 33bb d88a 1c20 e36f 36a8 0f6a 27b4
00000340: e362 aa2b 0c06 6724 1761 973e 7802 383e
00000350: 0e1c d23b 77ca 94bd 9c6d c9bd 15cd 0634
00000360: f248 1233 ea33 fcba 58f7 94af 1309 95a3
00000370: 57f7 030e 444b d733 158d 42a1 1e9d c397
00000380: 1718 2eb3 47e1 1bbc c3f2 f9b7 ff32 e1a9
00000390: 985a 01b8 4d00 131e 0a36 37be 8add 4bbe
000003a0: a81f 0abd 65f5 f03d 8d51 0f3d 9998 0018
000003b0: 6a34 5e16 21db 4d9c 1360 499e f761 1317
000003c0: 4004 f129 e207 6133 ee4c 47b7 a253 72a9
000003d0: ee01 7ab9 58fe 1bbe be73 21be 90ec b1be
000003e0: 82be e93c 49a9 063f 663b 5cbd 5d1f 9fbd
000003f0: 81fb 43bd 26ca 0e3d 12ef fdbc c66b 52bd
-0.07463097 -0.02071399 -0.07058716 -0.042355828 -0.08247388 -0.10765821 0.06130302 -0.078174695
-0.0004111047 0.0032495572 -0.073480375 -0.13704097 -0.024283655 0.028688489 -0.08162585 -0.081189714
-0.00984526 -0.13602474 0.13920814 0.09229162 -0.08912678 -0.015104914 0.025509162 -0.060007036
-0.09029571 -0.07461598 -0.05802196 -0.12560837 0.04728878 -0.13028176 0.06367566 -0.07346706
0.060349356 -0.06388782 0.073511645 0.10037333 -0.021643493 0.079458475 0.12047716 0.13319087
-0.031907156 -0.018916747 0.05884431 -0.11725662 -0.028493652 -0.06416429 -0.01733592 -0.1279691
-0.11257756 -0.07948627 -0.11393535 -0.11117014 -0.10347899 0.11060066 -0.13678345 0.14770792
-0.10556 -0.13565497 0.13199392 0.12608059 -0.13125525 -0.04856266 -0.032977484 -0.024431271
-0.047775544 -0.037319858 0.017525617 0.104760885 -0.010123683 -0.11085724 -0.12145354 0.11650471
-0.139159 -0.14847772 -0.0963047 -0.008910354 -0.089332186 0.035926957 -0.03473645 0.06579663
-0.1552319 -0.111775495 0.09183204 0.09623128 -0.060275137 -0.037140664 0.008946725 -0.041942276
-0.0319631 -0.06128405 0.13593473 -0.121831544 -0.11078075 0.1500105 0.14208782 -0.037027508
0.023698451 -0.074552126 -0.053912934 -0.0729275 0.12115328 0.16538115 -0.13110022 -0.10494991
0.13585244 -0.049368855 -0.094779454 -0.08493424 0.04315111 -0.04827832 -0.07186179 -0.10406448
-0.10566138 0.011092595 -0.0024575132 0.028721157 0.036372047 0.009997469 0.009721651 -0.06548851
-0.03896333 0.03195116 0.05862848 -0.13589819 -0.15937525 -0.14285186 -0.27644768 -0.37917173
0.047085606 0.40425038 -0.4860248 -0.26043203 0.17947923 0.07688014 -0.24076799 -0.2330558
-0.18740387 -0.009917702 0.071925245 -0.06487145 7.5941774e-05 4.6628546e-05 5.668931e-07 -0.004450462
8.541419e-06 -0.11440461 -0.31110895 -0.4356597 0.08223997 0.16666992 0.06600069 0.10502408
0.005088358 -0.017423384 0.07704038 1.2908724e-07 -3.6573647e-06 1.09761054e-11 -9.863392e-06 4.0293525e-08
-0.0036647709 9.464151e-06 -9.583481e-07 0.0058324393 2.0085036e-10 9.1727445e-29 3.208546e-23 -4.5403292e-11
8.655838e-14 -3.593254e-17 -0.3107163 0.23440033 -0.007266487 -0.20945287 0.23421264 0.00020585154
-7.4005916e-25 0.00011166331 -1.02770716e-19 3.965999e-06 1.9992074e-06 3.5540892e-10 -0.0025996806 -0.007124029
1.1327706e-14 5.5607834e-06 3.4752132e-10 0.005028716 0.062034726 0.0015685818 -0.17698489 -0.2363836
-0.057751887 0.28103194 -0.118121125 0.0020858813 -1.3078386e-21 1.0733252e-22 1.3637063e-11 0.00044388272
-0.39099285 -0.19387308 0.10996656 0.18941857 -0.0027416907 1.3259654e-19 -1.0127291e-14 -1.5591671e-07
1.2106673e-12 5.0095262e-17 0.2956626 0.17969692 0.006412036 -0.072651796 -0.098353595 1.2554331e-07
3.4059617e-08 -0.0019241546 -2.7096791e-10 -1.6158455e-17 1.6266086e-30 1.00254084e-07 -6.5916477e-19 -1.2641242e-24
-4.053444e-08 -0.0095141595 -2.9796158e-05 -1.00008536e-13 -3.084037e-05 7.782177e-21 -0.17891708 -0.19908729
-0.033721596 0.11765555 0.034989882 1.6620654e-24 1.7949556e-25 -6.811203e-22 -1.0660719e-20 4.762191e-25
1.0703287e-13 5.2394064e-08 -1.1879236e-05 -5.3807334e-14 -0.00023842577 -0.15233743 -0.15766808 -0.34750795
0.028533224 0.5260206 -0.053767584 -0.07769654 -0.047847275 0.034860753 -0.030997787 -0.051372312

tcn.network.1.conv2.bias f4 [25]
00000000: ce39 923d f8cc a03e 50e4 a0bb 2173 bfbb
00000010: d103 d9bd af51 52be 8582 233e 92f4 5fbd
00000020: f2ed 083d 3777 84bd 7abd 753d 62eb 033c
00000030: 98ae a43e add5 633d 5e6d 1b3d a540 8dbb
00000040: d9d2 97bc dfd5 e63d 8dcc 6a3e 305f 883e
00000050: 99fd 3dbc b2dd d43e 04b4 11be ca9c b63e
00000060: 8965 15bd
0.071399316 0.3140638 -0.0049100295 -0.005842582 -0.10596431 -0.20538972 0.15967758 -0.0546766
0.033430047 -0.06468051 0.059995152 0.008051725 0.32164454 0.0556237 0.037946098 -0.0043106847
-0.018533157 0.112712614 0.22929592 0.26635122 -0.011596107 0.4157539 -0.14228827 0.35666496
-0.036473785

tcn.network.1.conv2.weight_g f4 [25, 1, 1]
00000000: cceb 563f 4af2 f73e be3e fb3e 23a6 f43e
00000010: 8aaf fc3e af90 db3e acf0 a73f b10a 003f
00000020: c976 2a3f 9c71 0b3f 39c1 3f3f b6fb 803f
00000030: 5553 223f 49f0 403f 8e96 293f 02ac e43e
00000040: 8f1f ed3e 4a8b b33e dc1f 2a3f fb57 2b3f
00000050: b686 f23e cb41 103f b0e6 483f 7379 433f
00000060: 2b16 213f
0.8395355 0.4842704 0.49071306 0.47783002 0.49352676 0.42883822 1.3120322 0.50016314
0.665875 0.5447023 0.7490421 1.0076816 0.63408405 0.75366646 0.66245353 0.44662482
0.4631314 0.35067207 0.66454864 0.6693112 0.473684 0.5635039 0.78477 0.7635719
0.6292445

tcn.network.1.conv2.weight_v f4 [25, 25, 5]
00000000: 6e7c 5035 c8d8 b4b4 9c67 a9b5 febc 0f23
00000010: cbd7 8139 1b45 973c 03af 8cbe 1835 6cbe
00000020: a13d aebd ea14 17be 57fa 23bc 0baf b120
00000030: fe6f d79d 57d4 b1a4 856f a5b5 45ae 0f3c
00000040: 7d7d 873b f12e 63a3 19fb 60b9 7622 1d36
00000050: f7a8 62be bc24 91be 3ce8 c2bd 6fa1 c43d
00000060: fbf4 0bbe c218 88b5 057b be1f d56a c69f
00000070: 2e2b 42a1 0c48 cdac f0bf 81be 3c12 e9be
00000080: 463a ddbe 4bdd 8ebd 9992 393d a2e7 ec28
00000090: 5c80 d43b 8c53 aeaa bbb3 aca2 f401 a1ba
000000a0: 1084 2b3e 1a6a 193e 293e aa3c e3d8 443e
000000b0: b3b7 c03d 358b ccb8 e6bf e536 0d28 aa38
000000c0: 1d72 62b1 d08d a5b6 abce 303d 6e51 7fbb
000000d0: a291 563d 311f 523e 43e6 cf3e 5899 9c3a
000000e0: ca9f 6cb9 23e1 913b 5759 ff36 7932 c13a
000000f0: 6f23 c23d 168c cbbd a7c5 23be 342e 8abe
00000100: 9bfc 1bbe 2d29 c1bc a248 8abe 70c3 36be
00000110: 5ed7 0dbe 433b 6ebd 7575 4c37 6475 d321
00000120: ac09 c726 7ed1 db20 dfbc 3c1d 09a5 3dbe
00000130: 7824 11be 7d72 1bbe f0b6 83be 4699 27be
00000140: a605 993d 727c 1f3e 204a 18bd 4f65 d6bd
00000150: db74 833e 638c 023c 9a43 8d2a ac8d 82b8
00000160: f54e d69a d2ff 2c23 1792 cdbe e983 b6be
00000170: 0815 25be 8766 133e fcfb a23d 77d9 c2bd
00000180: f1dd ff3c b141 7c3e 6512 d83e 362f a83e
00000190: 5c10 2d38 e34d ba34 b0ed 8fba 0eac 04a6
000001a0: e542 ff30 6f3a 0abd 37f0 8ebe 9a61 ddbd
000001b0: 458e 543d e2db 9dbe 02bf 6b27 271f d3ac
000001c0: 27e6 6029 86f2 a3af 44e5 ef2c 5be4 1ca7
000001d0: 3935 722b 72c0 25ae 532d d51f 689d a335
000001e0: c64b cb3b cd70 c0a1 4e26 0319 31ff 46a2
000001f0: 1911 e89a 05ad b831 ebfa 7018 5769 b6bc
00000200: 13a9 9a1d ba53 4a3d f97e 203e 20da 8abe
00000210: ab13 a5be f51e 91be 5e2a 8f3d 236e 13ac
00000220: e7b5 30a9 3a55 2db5 29e8 b52e a491 23bb
00000230: ed61 663a f8fa a128 36ae a53d a09b be3d
00000240: 826e 761e 5ae3 ca3d 5496 b9be 6586 21be
00000250: fec5 fabc 264a 323e 7310 ac21 a2d0 c51f
00000260: 5d0e d93d 20ff 023c 7a40 193b a988 d73b
00000270: 339b abbe 4815 fdbe 5284 77be ea39 e3bd
00000280: 5b4a f73a 4457 81b4 a3f5 06b3 d465 c428
00000290: 6ffc aeb7 b4b6 9bbe 09e1 bebe 3a8a e23b
000002a0: 325b a73d b08e 4bbb 71d4 9624 dbcd 2a2c
000002b0: 163b 2f2e fbfa a3b1 7e44 3039 a8e4 d43d
000002c0: 3f7c 0a3e a12a fb3c 4781 1e3e 55df 583e
000002d0: 5867 05bb 197e 31b8 d5d3 7737 f7a8 233d
000002e0: d990 02ba c2d7 a3be 2425 033e 45d9 9d3d
000002f0: d46e 8abc 8bf1 8abd d79c 3cbe 2ba5 ebbe
00000300: 013a afbe ed7f 21be 7007 383e 7616 b7b2
00000310: 4423 ee24 8997 61b5 5c5b d73d 430f 8d3d
00000320: e046 493e 54fd c43e ea62 153e 57d7 47bd
00000330: 1416 2ebe 5785 72be 8f7f 1b3e 647a c73d
00000340: 8744 633d cbd6 593e a1f1 48b1 3bae c2bb
00000350: 912a 933b ae10 2e28 d3b5 edb9 e6bb b7be
00000360: e0d5 9abe 2bd9 bdbe 71b3 72be 6be7 a8be
00000370: 1aef 2b3d 993a 923e dcde 603e 8c90 49bd
00000380: cd42 053e e5b5 aa31 0fff b82c 6501 4931
00000390: fcdd 06ba 4d14 39bd b233 663e 115f 99bd
000003a0: cde7 8abe dd0c 8dbe b658 d7bd 9aa9 44bc
000003b0: 6007 a13d d2ad f4ae 5fa6 12bb ca5d 91ba
000003c0: 5876 1f39 7ee9 d43a 9312 18ab 64ca 01bb
000003d0: 8e16 2a20 6523 7c26 1040 97bd cc24 bcbd
000003e0: 874d c02f e6c7 8ca3 0fa8 303e 6af6 013e
000003f0: 6cee 2abe 850a 073e 0274 0a3e 9072 4ebe
7.766711e-07 -3.3685342e-07 -1.2621636e-06 7.792066e-18 0.00024765576 0.01846557 -0.27477273 -0.23067129
-0.085078485 -0.14754072 -0.010008416 3.01008e-19 -5.7025823e-21 -7.712123e-17 -1.2325914e-06 0.008769576
0.0041348324 -1.2315635e-17 -0.00021455846 2.3414882e-06 -0.22134767 -0.2834834 -0.095169514 0.096011035
-0.13667671 -1.0139995e-06 8.067165e-20 -8.4033e-20 -6.5786905e-19 -5.8344492e-12 -0.2534175 -0.45521724
-0.43208522 -0.06975802 0.045305822 2.6301718e-14 0.006485028 -3.096658e-13 -4.681099e-18 -0.0012283907
0.16749597 0.14981881 0.020781593 0.1922336 0.09410038 -9.753407e-05 6.8470717e-06 8.113692e-05
-3.2952194e-09 -4.9338923e-06 0.043165844 -0.0038958448 0.05238498 0.20519711 0.40605363 0.0011947555
-0.0002256624 0.004451887 7.6099927e-06 0.0014739773 0.09479415 -0.09938829 -0.15993367 -0.26988375
-0.1523308 -0.023579204 -0.2700854 -0.17847991 -0.13851687 -0.058161985 1.2186695e-05 1.4328989e-18
1.381102e-15 3.7238673e-19 2.4979237e-21 -0.18519987 -0.14174068 -0.15180393 -0.25725508 -0.16367063
0.074717805 0.15574816 -0.037180066 -0.10468542 0.2567509 0.007968041 2.509354e-13 -6.2252715e-05
-8.863589e-23 9.378311e-18 -0.4015052 -0.35647514 -0.16121304 0.1439458 0.079582185 -0.095141344
0.03123376 0.24634434 0.42201534 0.3284852 4.126165e-05 3.470187e-07 -0.001098087 -4.6029877e-16
1.8572704e-09 -0.033747133 -0.27917644 -0.10809632 0.05189349 -0.3083182 3.2716347e-15 -6.0004393e-12
4.9937617e-14 -2.982185e-10 6.818242e-12 -2.177314e-15 8.604953e-13 -3.7687582e-11 9.028399e-20 1.2190258e-06
0.0062041013 -1.3040284e-18 6.780277e-24 -2.69691e-18 -9.5980574e-23 5.374775e-09 3.1145954e-24 -0.022267027
4.093828e-21 0.049396254 0.15673436 -0.2711954 -0.32241568 -0.2834393 0.06990503 -2.0951095e-12
-3.9237626e-14 -6.4571543e-07 8.272167e-11 -0.0024958635 0.0008788396 1.7983431e-14 0.08089869 0.09307027
1.3045984e-20 0.09906645 -0.36247504 -0.15773924 -0.030611988 0.17411098 1.1659527e-18 8.37779e-20
0.10598443 0.007995397 0.0023384378 0.0065775705 -0.33516845 -0.494303 -0.2417157 -0.110950306
0.0018866764 -2.4091617e-07 -3.142271e-08 2.1804532e-14 -2.0859965e-05 -0.3041283 -0.37281063 0.0069134505
0.08171691 -0.003106039 6.541202e-17 2.4272726e-12 3.9842872e-11 -4.7724575e-09 0.00016810183 0.10395175
0.13523959 0.030659975 0.15479003 0.21178944 -0.0020355787 -4.2317526e-05 1.4771668e-05 0.03995606
-0.00049806904 -0.32000548 0.12807137 0.077074565 -0.01689855 -0.06784352 -0.18419205 -0.4602445
-0.3422394 -0.15771456 0.17971587 -2.1314218e-08 1.0327579e-16 -8.4039544e-07 0.10515472 0.068876766
0.19655943 0.38474524 0.14588514 -0.04878935 -0.1700061 -0.23683678 0.15185378 0.09740141
0.055485275 0.21273343 -2.924118e-09 -0.00594118 0.0044911583 9.662557e-15 -0.00045339632 -0.35885543
-0.302413 -0.3707975 -0.23701264 -0.32989058 0.041976072 0.2856033 0.21960014 -0.049210116
0.13013764 4.96833e-09 5.2579117e-12 2.9250142e-09 -0.00051447726 -0.045185376 0.22480658 -0.074888356
-0.27129975 -0.27548876 -0.10514967 -0.012003327 0.07862735 -1.1126712e-10 -0.0022376997 -0.0011090573
0.00015207508 0.0016243903 -5.4027025e-13 -0.0019804472 1.4407023e-19 8.747803e-16 -0.07385266 -0.09186706
3.4979683e-10 -1.526349e-17 0.1725161 0.12691656 -0.16692513 0.13187607 0.13520816 -0.2016089

tcn.network.1.net.0.bias f4 [25]
00000000: 9409 34be e7f0 8abd 01dd 87bd 4215 c3bd
00000010: 8c2a a6bd 28ab 22be 547d 8b3e 01b2 9bbd
00000020: 08b5 11bd df38 45bd 5e5c cb3d e93c f9bd
00000030: 19cc 97be a57a 75bb 41de 82bd 5d56 ff3d
00000040: 0ff2 903d 0b0e 92bd 05a9 b73e cf4f 54bd
00000050: faf3 edbd 7e30 eabd a8bf fbbd 4a05 05bd
00000060: b58d 3abd
-0.17581779 -0.0678423 -0.0663395 -0.09525539 -0.08113584 -0.15885603 0.27244055 -0.07602311
-0.035573035 -0.04814994 0.09929727 -0.12169821 -0.29647902 -0.0037457135 -0.06390048 0.12467644
0.07077419 -0.07131585 0.3587114 -0.051833924 -0.116188005 -0.114350304 -0.12292415 -0.032475747
-0.0455453

tcn.network.1.net.0.weight_g f4 [25, 1, 1]
00000000: f5d8 eb3e 8d1d 5e3f 7b1a 043f d8fd fc3e
00000010: f47d 9e3f 32d0 023f 7902 813f 49fb 0d3f
00000020: 94b1 2d3f a423 063f c35c 0b3f ae48 e33e
00000030: 3571 5b3f 6f0d 653f fa82 e03e 03b3 363f
00000040: 3b3c 133f b027 ff3e e3e7 783f f856 033f
00000050: a705 153f 3565 743f a388 f93e 95fd 063f
00000060: 8834 153f
0.46063963 0.8676384 0.51602906 0.49412417 1.2382188 0.5109893 1.007888 0.55461556
0.6784909 0.52398133 0.5443842 0.44391388 0.85719615 0.89473623 0.43849927 0.713669
0.5751378 0.49834967 0.9722883 0.5130458 0.5821175 0.9546693 0.48737058 0.52730685
0.5828328

tcn.network.1.net.0.weight_v f4 [25, 25, 5]
00000000: 1fd8 98bd 63b0 a9bc 0090 90bd 4e7d 2dbd
00000010: 11e8 a8bd e87b dcbd e018 7b3d 0e1a a0bd
00000020: 8a89 d7b9 86f6 543b e17c 96bd 7854 0cbe
00000030: 84ee c6bc 1f04 eb3c 742b a7bd cb46 a6bd
00000040: 034e 21bc 124a 0bbe 948c 0e3e 6403 bd3d
00000050: 1a88 b6bd 9a7a 77bc 97f8 d03c f0c9 75bd
00000060: f5ec b8bd 43d0 98bd 6fa8 6dbd 7b9f 00be
00000070: e1b1 413d 9568 05be 6268 823d e675 96bd
00000080: e330 773d 9ed7 82bd 468d 963d 8890 cd3d
00000090: b24d b1bc 20bb a23d bbbc f63d 3063 083e
000000a0: 14b1 02bd 4bf7 9abc bb06 713d 3d24 f0bd
000000b0: 856b e9bc 9168 83bd 0f04 8ebc 550a 03be
000000c0: 108f e6bd b3c9 a2bd f056 e9bd 2cad e3bd
000000d0: cbec d3bd 9982 e23d f610 0cbe bf40 173e
000000e0: d72f d8bd 23e9 0abe 6a29 073e 451b 013e
000000f0: c767 06be a4e9 46bd 6613 07bd 1724 c8bc
00000100: 4ab0 43bd b5dc 18bd e291 8f3c e08c d63d
00000110: cedd 25bc 1f09 e3bd a2bc f8bd 059a ee3d
00000120: b27f 0ebe 8b0a 18be 663b c5bd bcfc 11bc
00000130: cbf3 b6bd 2528 133d cf47 0ebd 62c0 863d
00000140: 1cf5 1ebe 8dea e4bd 7012 bc3d e814 c53d
00000150: 10e3 76bd cf20 18bd 4995 123c aacb 2bbd
00000160: bdeb 02bd fc04 7bbd 7932 0b3e d182 f9bd
00000170: 05e1 e2bd 5a9c 193e 787f 113e 28aa 17bd
00000180: 4123 c23c c9ae 98bd cfd3 5cbd 035b 95bd
00000190: 361f f83d ad59 293e 233f 06be faef d6bd
000001a0: e71c 0b3e ff36 4abd bb1b c2bd 01f2 adbd
000001b0: 38bf 303d 7dbf 45bd 462c 93bd c21f d5bd
000001c0: fe64 d8bd b7bd 353c 3b0e 21bb a248 eb3c
000001d0: dbfa 143d 6dcc 233c 8f47 1f3c d71e 86bd
000001e0: 0398 1fbd 38df 023d 6b24 703d e528 0bbe
000001f0: 4433 23be c247 12be 8d8a 8dbe cc22 c2be
00000200: d6dc 403d e8f9 ce3e 3ed8 f8be 5957 85be
00000210: 67c9 373e 5673 9d3d e28b 76be 2ea6 6ebe
00000220: cde6 3fbe db7d 22bc 8b4d 933d 53db 84bd
00000230: ee42 9f38 0593 4338 992c 1835 2ed5 91bb
00000240: 1e4d 0f37 f74c eabd ac49 9fbe ca0e dfbe
00000250: 6e6d a83d 85ab 2a3e 5f2b 873d dd16 d73d
00000260: 3ebc a63b 7cbb 8ebc 59c7 9d3d 3b9b 0a34
00000270: 0c71 75b6 fc17 412d f27a 25b7 330f 2d33
00000280: a72c 70bb 38c8 1e37 97a0 80b5 0c1e bf3b
00000290: 5ad6 5c2f 848e e810 e027 1b1a 90af 47ae
000002a0: 82e9 c229 a8b5 25a4 3516 9fbe a406 703e
000002b0: b61b eebb d07a 56be 70d5 6f3e dad9 5739
000002c0: 8709 6597 c82c ea38 16a9 f29f ac13 8536
000002d0: 1f2a 0636 5c63 c32f 675f 2abb b070 e9bb
000002e0: d30f 4c28 c496 ba36 470d bf2f edc7 a43b
000002f0: 2018 7e3d df98 cd3a 873b 35be 8b0e 72be
00000300: 3e8d 6cbd 6be3 8f3e 7de9 f1bd 48b3 083b
00000310: 8ea2 c59c cec1 011b dfe7 6f2d eeb8 e839
00000320: 3730 c8be aa86 46be 2636 e13d f1f6 413e
00000330: f0ad 33bb d88a 1c20 e36f 36a8 0f6a 27b4
00000340: e362 aa2b 0c06 6724 1761 973e 7802 383e
00000350: 0e1c d23b 77ca 94bd 9c6d c9bd 15cd 0634
00000360: f248 1233 ea33 fcba 58f7 94af 1309 95a3
00000370: 57f7 030e 444b d733 158d 42a1 1e9d c397
00000380: 1718 2eb3 47e1 1bbc c3f2 f9b7 ff32 e1a9
00000390: 985a 01b8 4d00 131e 0a36 37be 8add 4bbe
000003a0: a81f 0abd 65f5 f03d 8d51 0f3d 9998 0018
000003b0: 6a34 5e16 21db 4d9c 1360 499e f761 1317
000003c0: 4004 f129 e207 6133 ee4c 47b7 a253 72a9
000003d0: ee01 7ab9 58fe 1bbe be73 21be 90ec b1be
000003e0: 82be e93c 49a9 063f 663b 5cbd 5d1f 9fbd
000003f0: 81fb 43bd 26ca 0e3d 12ef fdbc c66b 52bd
-0.07463097 -0.02071399 -0.07058716 -0.042355828 -0.08247388 -0.10765821 0.06130302 -0.078174695
-0.0004111047 0.0032495572 -0.073480375 -0.13704097 -0.024283655 0.028688489 -0.08162585 -0.081189714
-0.00984526 -0.13602474 0.13920814 0.09229162 -0.08912678 -0.015104914 0.025509162 -0.060007036
-0.09029571 -0.07461598 -0.05802196 -0.12560837 0.04728878 -0.13028176 0.06367566 -0.07346706
0.060349356 -0.06388782 0.073511645 0.10037333 -0.021643493 0.079458475 0.12047716 0.13319087
-0.031907156 -0.018916747 0.05884431 -0.11725662 -0.028493652 -0.06416429 -0.01733592 -0.1279691
-0.11257756 -0.07948627 -0.11393535 -0.11117014 -0.10347899 0.11060066 -0.13678345 0.14770792
-0.10556 -0.13565497 0.13199392 0.12608059 -0.13125525 -0.04856266 -0.032977484 -0.024431271
-0.047775544 -0.037319858 0.017525617 0.104760885 -0.010123683 -0.11085724 -0.12145354 0.11650471
-0.139159 -0.14847772 -0.0963047 -0.008910354 -0.089332186 0.035926957 -0.03473645 0.06579663
-0.1552319 -0.111775495 0.09183204 0.09623128 -0.060275137 -0.037140664 0.008946725 -0.041942276
-0.0319631 -0.06128405 0.13593473 -0.121831544 -0.11078075 0.1500105 0.14208782 -0.037027508
0.023698451 -0.074552126 -0.053912934 -0.0729275 0.12115328 0.16538115 -0.13110022 -0.10494991
0.13585244 -0.049368855 -0.094779454 -0.08493424 0.04315111 -0.04827832 -0.07186179 -0.10406448
-0.10566138 0.011092595 -0.0024575132 0.028721157 0.036372047 0.009997469 0.009721651 -0.06548851
-0.03896333 0.03195116 0.05862848 -0.13589819 -0.15937525 -0.14285186 -0.27644768 -0.37917173
0.047085606 0.40425038 -0.4860248 -0.26043203 0.17947923 0.07688014 -0.24076799 -0.2330558
-0.18740387 -0.009917702 0.071925245 -0.06487145 7.5941774e-05 4.6628546e-05 5.668931e-07 -0.004450462
8.541419e-06 -0.11440461 -0.31110895 -0.4356597 0.08223997 0.16666992 0.06600069 0.10502408
0.005088358 -0.017423384 0.07704038 1.2908724e-07 -3.6573647e-06 1.09761054e-11 -9.863392e-06 4.0293525e-08
-0.0036647709 9.464151e-06 -9.583481e-07 0.0058324393 2.0085036e-10 9.1727445e-29 3.208546e-23 -4.5403292e-11
8.655838e-14 -3.593254e-17 -0.3107163 0.23440033 -0.007266487 -0.20945287 0.23421264 0.00020585154
-7.4005916e-25 0.00011166331 -1.02770716e-19 3.965999e-06 1.9992074e-06 3.5540892e-10 -0.0025996806 -0.007124029
1.1327706e-14 5.5607834e-06 3.4752132e-10 0.005028716 0.062034726 0.0015685818 -0.17698489 -0.2363836
-0.057751887 0.28103194 -0.118121125 0.0020858813 -1.3078386e-21 1.0733252e-22 1.3637063e-11 0.00044388272
-0.39099285 -0.19387308 0.10996656 0.18941857 -0.0027416907 1.3259654e-19 -1.0127291e-14 -1.5591671e-07
1.2106673e-12 5.0095262e-17 0.2956626 0.17969692 0.006412036 -0.072651796 -0.098353595 1.2554331e-07
3.4059617e-08 -0.0019241546 -2.7096791e-10 -1.6158455e-17 1.6266086e-30 1.00254084e-07 -6.5916477e-19 -1.2641242e-24
-4.053444e-08 -0.0095141595 -2.9796158e-05 -1.00008536e-13 -3.084037e-05 7.782177e-21 -0.17891708 -0.19908729
-0.033721596 0.11765555 0.034989882 1.6620654e-24 1.7949556e-25 -6.811203e-22 -1.0660719e-20 4.762191e-25
1.0703287e-13 5.2394064e-08 -1.1879236e-05 -5.3807334e-14 -0.00023842577 -0.15233743 -0.15766808 -0.34750795
0.028533224 0.5260206 -0.053767584 -0.07769654 -0.047847275 0.034860753 -0.030997787 -0.051372312

tcn.network.1.net.4.bias f4 [25]
00000000: ce39 923d f8cc a03e 50e4 a0bb 2173 bfbb
00000010: d103 d9bd af51 52be 8582 233e 92f4 5fbd
00000020: f2ed 083d 3777 84bd 7abd 753d 62eb 033c
00000030: 98ae a43e add5 633d 5e6d 1b3d a540 8dbb
00000040: d9d2 97bc dfd5 e63d 8dcc 6a3e 305f 883e
00000050: 99fd 3dbc b2dd d43e 04b4 11be ca9c b63e
00000060: 8965 15bd
0.071399316 0.3140638 -0.0049100295 -0.005842582 -0.10596431 -0.20538972 0.15967758 -0.0546766
0.033430047 -0.06468051 0.059995152 0.008051725 0.32164454 0.0556237 0.037946098 -0.0043106847
-0.018533157 0.112712614 0.22929592 0.26635122 -0.011596107 0.4157539 -0.14228827 0.35666496
-0.036473785

tcn.network.1.net.4.weight_g f4 [25, 1, 1]
00000000: cceb 563f 4af2 f73e be3e fb3e 23a6 f43e
00000010: 8aaf fc3e af90 db3e acf0 a73f b10a 003f
00000020: c976 2a3f 9c71 0b3f 39c1 3f3f b6fb 803f
00000030: 5553 223f 49f0 403f 8e96 293f 02ac e43e
00000040: 8f1f ed3e 4a8b b33e dc1f 2a3f fb57 2b3f
00000050: b686 f23e cb41 103f b0e6 483f 7379 433f
00000060: 2b16 213f
0.8395355 0.4842704 0.49071306 0.47783002 0.49352676 0.42883822 1.3120322 0.50016314
0.665875 0.5447023 0.7490421 1.0076816 0.63408405 0.75366646 0.66245353 0.44662482
0.4631314 0.35067207 0.66454864 0.6693112 0.473684 0.5635039 0.78477 0.7635719
0.6292445
